tests/output/multimodal-jets/cbdccdecfa624f7ab647463a23153508/checkpoints/last.ckpt (torch, 47102 bytes, 91 tensors)

embedder.embedding_continuous.embedding.weight f4 [4, 3]
0	0x3c1ff656	0.009763321
1	0xbe8f4ca3	-0.27988157
2	0xbe317971	-0.17331482
3	0x3e3dedfc	0.18547815
4	0xbe06e874	-0.13174611
5	0xbecc12e8	-0.39858174
6	0xbd5fc912	-0.054635115
7	0x3e830724	0.25591385
8	0xbe613c39	-0.2199563
9	0x3eaf275a	0.3420971
10	0x3e858ead	0.26085415
11	0x3f0dcba3	0.5538885

embedder.embedding_continuous.embedding.bias f4 [4]
0	0xbe84f8ba	-0.25971013
1	0xbebe6bd9	-0.37191656
2	0xbf138855	-0.576299
3	0x3d01c939	0.03168604

embedder.embedding_discrete.embedding.weight f4 [8, 4]
0	0x3cf0adc4	0.029379733
1	0xbfe2d6fd	-1.7721859
2	0x3f967599	1.1754638
3	0x3f39b6f5	0.72544795
4	0x3f7371a4	0.95095277
5	0xbfd86c61	-1.6908075
6	0x3dceccd6	0.10097663
7	0x3c18b3b4	0.009320188
8	0x3e967e66	0.2939331
9	0xbf6dfac9	-0.9296079
10	0xc05ce83d	-3.4516747
11	0x3fe185ef	1.7618998
12	0xc04984cf	-3.148731
13	0x3f4aab63	0.79167765
14	0xbfba1ad7	-1.4539441
15	0xbf0397f3	-0.5140373
16	0x3ff9a3ca	1.950311
17	0xbe63c43a	-0.22242823
18	0x3ee4d679	0.4469488
19	0x3fc483fb	1.5352777
20	0xbf20e184	-0.6284411
21	0xbe7b9f3f	-0.24572466
22	0x3faf20e9	1.3681918
23	0x3f47fe6b	0.78122586
24	0xbe5e1e1e	-0.21691176
25	0x3f21adf3	0.6315605
26	0x3f0d360f	0.5516061
27	0x3f033ea0	0.51267433
28	0x3fd2d576	1.6471393
29	0x3f0201bd	0.507839
30	0x3e880ca1	0.26572135
31	0x3f0632f7	0.52421516

encoder.epic.epic_proj.local_0.bias f4 [4]
0	0xbe4f1eb8	-0.20226562
1	0xbe7d547e	-0.24739262
2	0x3ca70885	0.020389805
3	0xbe83131c	-0.25600517

encoder.epic.epic_proj.local_0.weight_g f4 [4, 1]
0	0x3efab0a5	0.48962894
1	0x3ef285ef	0.47367808
2	0x3f295840	0.66150284
3	0x3f180587	0.59383434

encoder.epic.epic_proj.local_0.weight_v f4 [4, 12]
0	0x3ba8dc0b	0.0051531843
1	0xbe78e6fa	-0.2430686
2	0x3dd0dc17	0.10198229
3	0xbcd9a29f	-0.026566802
4	0x3ded280b	0.11579903
5	0x3ce17e46	0.027526032
6	0x3cdeacb0	0.027181953
7	0xbe58b072	-0.21161059
8	0x3e7c8cce	0.24663088
9	0x3e49b9d8	0.196998
10	0xbe41d81c	-0.18930095
11	0xbd8ae870	-0.06782615
12	0xbde14855	-0.11000124
13	0xbe347572	-0.17622927
14	0xbcf525b9	-0.029925214
15	0x3dbd36f0	0.09238994
16	0x3db5a147	0.08868652
17	0x3e232657	0.15932594
18	0x3e8af67d	0.2714118
19	0x3c1878df	0.009306162
20	0x3dd81d91	0.10552514
21	0xbcae83a0	-0.021302998
22	0x3e45a8ae	0.19302627
23	0x3ccfcd68	0.0253665
24	0x3e73e2bb	0.2381696
25	0xbe6a2508	-0.22865689
26	0x3e49029d	0.19629903
27	0x3daf591b	0.085619174
28	0x3e3a85eb	0.18215148
29	0xbd5d80d5	-0.054077942
30	0x3e8f00d2	0.27930313
31	0xbe55e534	-0.20888215
32	0x3e8ac2a7	0.27101633
33	0x3e4dc154	0.2009328
34	0x3d9de454	0.07709566
35	0xbe1a1d88	-0.15050328
36	0xbe539470	-0.20662093
37	0xbe290530	-0.16505885
38	0xbdb9c529	-0.090708084
39	0xbe4026b0	-0.18764758
40	0x3cb59ee4	0.022170492
41	0xbe602bc6	-0.21891698
42	0x3e810ff6	0.2520749
43	0x3e4e3d93	0.20140676
44	0x3db35876	0.08757107
45	0x3dc7c891	0.09755052
46	0xbe4cf0a9	-0.2001368
47	0xbcfb0ece	-0.030646708

encoder.epic.epic_proj.global_0.bias f4 [4]
0	0xbcb93c69	-0.022611814
1	0x3d0530f8	0.032517403
2	0xbd98011b	-0.07422086
3	0xbe1dab9a	-0.15397492

encoder.epic.epic_proj.global_0.weight_g f4 [4, 1]
0	0x3f0e0309	0.5547338
1	0x3f119bb3	0.56878203
2	0x3f09d8ee	0.53846633
3	0x3f27eb0b	0.6559302

encoder.epic.epic_proj.global_0.weight_v f4 [4, 12]
0	0xbdc8ded1	-0.09808124
1	0xbda6f0ae	-0.08151375
2	0x3e074fcf	0.13214038
3	0x3e802a70	0.25032377
4	0x3e1b89d0	0.1518929
5	0xbe88a1bf	-0.26685902
6	0xbca6ce4f	-0.020362047
7	0xbd0ab803	-0.033866894
8	0xbd845ba2	-0.0646279
9	0xbc2cf720	-0.010556966
10	0xbe08937c	-0.13337511
11	0xbe7c749c	-0.24653858
12	0x3e0bc668	0.13649905
13	0xbcc913c1	-0.024545552
14	0xbe2665c2	-0.16249755
15	0xbcb0823d	-0.021546477
16	0x3e8caa0d	0.27473488
17	0xbe175eaa	-0.14782205
18	0xbe097f6a	-0.13427511
19	0x3d4a9d27	0.04946628
20	0xbe510598	-0.2041229
21	0x3e7fb591	0.24971606
22	0x3e23d6ac	0.1599986
23	0xbe5ed435	-0.21760638
24	0x3da456d2	0.08024372
25	0x3e8c2dbd	0.27378646
26	0xbd7f68fb	-0.062355977
27	0x3c404eae	0.011737509
28	0x3dbad2dd	0.0912225
29	0xbe2d8499	-0.16945113
30	0xbe350b95	-0.176802
31	0xbe77d320	-0.24201632
32	0xbdd4150f	-0.10355579
33	0xbdaa25e2	-0.08308007
34	0xbe4eb243	-0.20185189
35	0xbda3a8f5	-0.0799121
36	0x3d9a0d34	0.075220495
37	0xbe0fe7cc	-0.14053267
38	0x3e65b512	0.22432354
39	0xbe8d7c65	-0.27633968
40	0x3dc39cab	0.095513664
41	0x3e4fbbf6	0.20286545
42	0xbe8041ea	-0.25050288
43	0xbda6ebd0	-0.081504464
44	0xbe6b3998	-0.22971189
45	0xbe089bd1	-0.13340689
46	0x3e3f1740	0.18661213
47	0xbe815b46	-0.2526495

encoder.epic.epic_proj.global_1.bias f4 [4]
0	0xbdc8db43	-0.09807446
1	0xbd964c79	-0.07338805
2	0x3e667936	0.22507176
3	0x3d3bddda	0.04586587

encoder.epic.epic_proj.global_1.weight_g f4 [4, 1]
0	0x3ec914d1	0.39273694
1	0x3f1ee988	0.6207509
2	0x3f159829	0.584353
3	0x3f218d85	0.63106567

encoder.epic.epic_proj.global_1.weight_v f4 [4, 4]
0	0x3e89a072	0.26880223
1	0x3d8bde76	0.068295404
2	0xbe646328	-0.2230345
3	0xbe4c93e3	-0.1997829
4	0x3e85363f	0.2601795
5	0xbeaf2a91	-0.34212163
6	0x3e731ec8	0.23742211
7	0xbed1b3c3	-0.4095746
8	0x3da3e3b6	0.08002417
9	0xbeb32bd6	-0.34994382
10	0xbee9bc6f	-0.45651576
11	0x3cd2469f	0.02566844
12	0xbeb28217	-0.34864876
13	0x3ecda55d	0.40165225
14	0xbe69c799	-0.22830047
15	0x3e9d8230	0.30763388

encoder.epic.epic_proj.global_2.bias f4 [4]
0	0xbe9b9419	-0.30386427
1	0xbe0d2582	-0.1378384
2	0xbe6e4efc	-0.23272318
3	0xbdbbc065	-0.09167556

encoder.epic.epic_proj.global_2.weight_g f4 [4, 1]
0	0x3f038f69	0.513907
1	0x3f19beed	0.60056955
2	0x3f2fc805	0.6866458
3	0x3ede8f19	0.4346855

encoder.epic.epic_proj.global_2.weight_v f4 [4, 4]
0	0x3e78965f	0.24276112
1	0x3e675a12	0.22592953
2	0x3d6e7e27	0.058225777
3	0xbed22896	-0.4104659
4	0xbe5c69e4	-0.21524769
5	0x3ec9ffbb	0.3945292
6	0xbbc61b41	-0.0060457294
7	0xbebc09dd	-0.36726275
8	0xbece58f5	-0.40302244
9	0x3e7bc601	0.24587251
10	0xbeff8889	-0.49908856
11	0xbe4c5c53	-0.19957094
12	0xbd6ceefa	-0.057845093
13	0xbe950dbc	-0.2911204
14	0x3e97ce02	0.2964936
15	0xbe3609fd	-0.17777248

encoder.epic.epic_layers.0.fc_global1.bias f4 [4]
0	0xbe4fea04	-0.20304114
1	0xbe4ff078	-0.20306575
2	0x3e23468c	0.1594488
3	0xbd87e0e1	-0.06634689

encoder.epic.epic_layers.0.fc_global1.weight_g f4 [4, 1]
0	0x3f1998b6	0.59998643
1	0x3f22c50d	0.63581926
2	0x3f00f2a3	0.50370234
3	0x3f1ceda9	0.6130014

encoder.epic.epic_layers.0.fc_global1.weight_v f4 [4, 16]
0	0x3da20a5e	0.07912134
1	0x3e588f9b	0.21148531
2	0xbe291cde	-0.16514918
3	0x3de70f20	0.11282182
4	0x3d00c39a	0.03143654
5	0xbdbd8313	-0.09253516
6	0x3e29515a	0.1653494
7	0x3e442639	0.19155206
8	0x3e6d3fd5	0.23168881
9	0xbacf8cb8	-0.0015834784
10	0xbe05a6d9	-0.13051929
11	0x3e1a478e	0.15066358
12	0x3d515647	0.05110767
13	0x3e226cdd	0.1586184
14	0xbbfce725	-0.0077179843
15	0x3e4deaa7	0.20109044
16	0xbe6e4b5b	-0.23270933
17	0xbe28d35d	-0.16486879
18	0xbdcd951c	-0.10038206
19	0xbe377547	-0.17915832
20	0xbe7d607a	-0.24743834
21	0x3c91f2a0	0.017815888
22	0xbc0c694b	-0.008570026
23	0xbba53436	-0.0050416244
24	0x3e4263c3	0.18983369
25	0xbdf96c0e	-0.12178813
26	0xbe3fcbb6	-0.18730053
27	0xbdfb2a57	-0.12263935
28	0x3e22a488	0.15883076
29	0xbe329801	-0.17440797
30	0x3de22290	0.110417485
31	0xbce31ea3	-0.02772457
32	0xbd77d73c	-0.060507998
33	0x3e2110ae	0.15729019
34	0xbdda0d77	-0.106470995
35	0xbc9ad223	-0.01889903
36	0x3d84e00e	0.064880475
37	0x3d5bfcb1	0.053707782
38	0x3e217d40	0.15770435
39	0x3d6487b0	0.055793464
40	0xbd327180	-0.043565273
41	0xbd0d0932	-0.034432597
42	0xbd344c57	-0.044018116
43	0xbe46fb31	-0.1943176
44	0xbe603064	-0.2189346
45	0x3da043fc	0.07825467
46	0xbd194a74	-0.03742452
47	0xbe50d020	-0.20391893
48	0x3e4b5141	0.19855215
49	0xbdfb9791	-0.122847684
50	0x3d54ccca	0.051953115
51	0xbd66f089	-0.056381736
52	0x3de2b2a8	0.11069232
53	0xbe52185c	-0.20517105
54	0xbe203166	-0.15643844
55	0xbe497930	-0.19675136
56	0xbd0a8b9d	-0.03382455
57	0xbe225e01	-0.15856172
58	0x3e08a675	0.13344748
59	0xb94f5443	-0.00019772448
60	0x3e779621	0.24178363
61	0xbdb43e83	-0.08800986
62	0x3e6adc62	0.22935632
63	0xbd84fccd	-0.064935304

encoder.epic.epic_layers.0.fc_global2.bias f4 [4]
0	0x3e1bf4c9	0.15230097
1	0xbef2cbf0	-0.47421217
2	0xbd97822f	-0.073978774
3	0x3eb2c1fd	0.34913626

encoder.epic.epic_layers.0.fc_global2.weight_g f4 [4, 1]
0	0x3f13898a	0.5763174
1	0x3f035945	0.5130809
2	0x3f257d40	0.6464424
3	0x3f385c34	0.7201569

encoder.epic.epic_layers.0.fc_global2.weight_v f4 [4, 4]
0	0xbe6b78b1	-0.22995259
1	0x3e621a2e	0.220803
2	0x3e92254a	0.28544074
3	0x3ebcd91a	0.36884385
4	0x3e0ad52d	0.13557883
5	0x3e7f81c6	0.24951848
6	0x3e981376	0.29702348
7	0xbe9a9774	-0.30193675
8	0x3ee7eef6	0.452995
9	0xbec36cce	-0.3816895
10	0x3e36a144	0.17834955
11	0x3e00c3cd	0.12574692
12	0x3dfa229c	0.122136325
13	0xbe92d7ce	-0.2868027
14	0xbeefc1c6	-0.46827525
15	0x3ed5fc2c	0.41793954

encoder.epic.epic_layers.0.fc_local1.bias f4 [4]
0	0x3e725ac2	0.23667434
1	0x3e9778bb	0.29584298
2	0xbe2578f6	-0.16159424
3	0x3d8d9e19	0.0691492

encoder.epic.epic_layers.0.fc_local1.weight_g f4 [4, 1]
0	0x3f2dc81b	0.6788346
1	0x3f242adc	0.641279
2	0x3ef45ef6	0.477287
3	0x3f37c2aa	0.7178141

encoder.epic.epic_layers.0.fc_local1.weight_v f4 [4, 12]
0	0xbe696f01	-0.22796251
1	0x3e250c8d	0.16118069
2	0x3e4cf836	0.2001656
3	0xbdaf8ada	-0.08571406
4	0x3e8c2a44	0.27375996
5	0x3c5587bc	0.01303285
6	0x3e42d02d	0.19024725
7	0x3e869f49	0.262934
8	0x3d0a99c4	0.03383805
9	0x3e850cac	0.2598623
10	0xbdb325f0	-0.087474704
11	0x3e372bba	0.17887774
12	0xbe58da5a	-0.21177045
13	0x3e3ee029	0.18640198
14	0xbda18f78	-0.078886926
15	0xbdf32d14	-0.11873832
16	0x3e6321f8	0.22180927
17	0xbbc49aee	-0.0059999144
18	0x3e87582e	0.26434463
19	0x3d1c9e1c	0.038236722
20	0xbe43efba	-0.19134417
21	0x3e12cd2c	0.1433608
22	0x3e96711c	0.2938317
23	0xbe011532	-0.12605742
24	0x3e849c21	0.25900367
25	0xbcfceb22	-0.030873839
26	0xbe5954ce	-0.21223757
27	0x3e1a7308	0.15082943
28	0xbde41f72	-0.1113881
29	0xbdf1cc50	-0.11806548
30	0x3e09f75c	0.13473266
31	0x3e4bf1b0	0.19916415
32	0x3e044aa1	0.12919094
33	0x3d9c0cc0	0.07619619
34	0xbdbd13aa	-0.09232266
35	0xbdb96afc	-0.09053609
36	0xbe48df34	-0.19616395
37	0x3e7ecd06	0.24882898
38	0xbe0f3337	-0.1398438
39	0xbe771671	-0.24129654
40	0xbdadb90b	-0.0848256
41	0x3e520609	0.20510115
42	0xbe683387	-0.22675906
43	0xbe2bc92d	-0.16775961
44	0xbdbbe677	-0.09174817
45	0x3e9acde9	0.30235222
46	0xbe7e3cce	-0.24827883
47	0xbd40f73a	-0.047110774

encoder.epic.epic_layers.0.fc_local2.bias f4 [4]
0	0x3ee1439d	0.43996897
1	0x3ede967b	0.43474182
2	0xbecd5860	-0.40106487
3	0xbe7375eb	-0.23775451

encoder.epic.epic_layers.0.fc_local2.weight_g f4 [4, 1]
0	0x3f0c1cf2	0.5473167
1	0x3eaf69d5	0.3426043
2	0x3f15ee9f	0.5856723
3	0x3ef22e1c	0.47300804

encoder.epic.epic_layers.0.fc_local2.weight_v f4 [4, 4]
0	0xbe6052c9	-0.2190658
1	0xbeec6c48	-0.46176362
2	0xbdbf3c67	-0.09337693
3	0xbd8e7679	-0.069561906
4	0xbe927605	-0.28605667
5	0xbd3ad2d9	-0.045611236
6	0x3dcfcf5e	0.10146974
7	0xbdf544a2	-0.11975981
8	0xbef6ec29	-0.4822705
9	0xbde3224f	-0.11090528
10	0x3e96d421	0.29458717
11	0xbd14ed78	-0.03635928
12	0xbdf4e9f9	-0.11958689
13	0xbd6269e7	-0.055276778
14	0xbc142351	-0.009041623
15	0x3ef58e5e	0.4796018

encoder.epic.output_layer.bias f4 [11]
0	0x3e24747d	0.16060062
1	0x3d89cc3a	0.06728406
2	0x3e6ac704	0.22927481
3	0x3ef68f33	0.48156127
4	0x3ef4cf97	0.47814628
5	0x3d8b1b8b	0.06792363
6	0xbed9cc35	-0.4253861
7	0x3da28741	0.07935954
8	0xbe8b0fb5	-0.2716042
9	0xbe957f99	-0.29198912
10	0xbf042200	-0.5161438

encoder.epic.output_layer.weight_g f4 [11, 1]
0	0x3f30b6ce	0.6902894
1	0x3f4e17fc	0.8050535
2	0x3f045f79	0.5170818
3	0x3f39cc98	0.7257781
4	0x3f0eb0ce	0.5573853
5	0x3f0ca02a	0.5493189
6	0x3f3156bd	0.6927298
7	0x3eac110a	0.3360675
8	0x3effc8d3	0.49957904
9	0x3f51d6fd	0.8196867
10	0x3e807520	0.2508936

encoder.epic.output_layer.weight_v f4 [11, 4]
0	0xbee12cad	-0.43979397
1	0x3eebefc4	0.46081364
2	0x3e603b80	0.21897697
3	0x3e751871	0.23935105
4	0xbeb98ded	-0.36241093
5	0xbe95b2b6	-0.29237908
6	0xbee2d12d	-0.44300213
7	0x3f01aba4	0.5065253
8	0x3eac38c0	0.33637047
9	0xbe10189c	-0.14071888
10	0x3e68a5b4	0.2271946
11	0xbea503fe	-0.32229608
12	0x3ece43ec	0.40286195
13	0x3f006d72	0.50167
14	0x3e915e66	0.28392333
15	0xbd93574d	-0.07194386
16	0x3e1f3ae6	0.15549812
17	0xbe4ebf5d	-0.20190187
18	0xbee45b3f	-0.44600865
19	0x3de2fcbd	0.11083362
20	0xbde188d3	-0.11012425
21	0xbea6163b	-0.32438836
22	0x3ea4032f	0.3203368
23	0x3ea62916	0.3245322
24	0xbe51cd7a	-0.2048854
25	0xbed74f7c	-0.4205283
26	0xbee7835a	-0.452174
27	0x3e9406a4	0.28911316
28	0xbe30d67b	-0.17269318
29	0xbe6bbdbc	-0.23021597
30	0xbe0d8e6b	-0.1382386
31	0xbd03a260	-0.032137275
32	0x3de51346	0.11185317
33	0x3e946022	0.28979594
34	0xbed2683a	-0.41095144
35	0xbb6cb945	-0.0036121171
36	0x3ed5ac56	0.41733044
37	0x3ed6f86a	0.419864
38	0x3e93b512	0.28849083
39	0xbf03a37e	-0.51421344
40	0xbd1d44ac	-0.03839557
41	0x3e51b313	0.20478468
42	0xbcad58e8	-0.021160558
43	0xbe289902	-0.16464618

loss_multimode.loss_weights f4 [2]
0	0x3c8e1c66	0.017347526
1	0x3c8e1742	0.017345075

exp_avg f4 [4, 3]
0	0xba42294f	-0.0007406668
1	0x397d069d	0.00024130424
2	0xbafecf57	-0.0019440454
3	0xb983e1fe	-0.00025154644
4	0x3a3d9162	0.00072314416
5	0x340da6e3	1.3192361e-07
6	0x38001715	3.0539075e-05
7	0xba3f6ac0	-0.0007301979
8	0xbab6a216	-0.0013933803
9	0x3ac3474c	0.0014898567
10	0xba960fed	-0.0011448838
11	0x3b5040f3	0.0031776994

exp_avg_sq f4 [4, 3]
0	0x333c3fa4	4.3830042e-08
1	0x3337cabb	4.279239e-08
2	0x342570eb	1.5407902e-07
3	0x31ac7f39	5.0203224e-09
4	0x32bfc302	2.2324006e-08
5	0x311f4e29	2.3181974e-09
6	0x32d50e0a	2.4802848e-08
7	0x336a79a9	5.459302e-08
8	0x33d3594a	9.841695e-08
9	0x34306b8c	1.6430403e-07
10	0x3420a1ac	1.4959977e-07
11	0x34e75ac8	4.3093155e-07

exp_avg f4 [4]
0	0x3b1ed6d5	0.0024236937
1	0x39fae435	0.00047853743
2	0x3ac91119	0.0015340179
3	0xbb8b4203	-0.0042498126

exp_avg_sq f4 [4]
0	0x34a7d7a1	3.1263065e-07
1	0x322f52ce	1.0205168e-08
2	0x3416b78f	1.4036617e-07
3	0x35879ed7	1.0104512e-06

exp_avg f4 [4]
0	0x3c6da169	0.014503815
1	0x3a6b38a3	0.0008972978
2	0x3b9be905	0.0047580027
3	0xba9cb025	-0.0011954351

exp_avg_sq f4 [4]
0	0x374f4a04	1.2355395e-05
1	0x32e2e690	2.641471e-08
2	0x35be68c1	1.418659e-06
3	0x33ae6caf	8.122276e-08

exp_avg f4 [4, 1]
0	0x3c474e12	0.0121646095
1	0xbabec3c7	-0.0014554196
2	0x3a2fb518	0.0006702705
3	0xba692752	-0.0008894104

exp_avg_sq f4 [4, 1]
0	0x3712d275	8.751279e-06
1	0x338968d7	6.39863e-08
2	0x338a82f1	6.449944e-08
3	0x33362f1f	4.2418034e-08

exp_avg f4 [4, 12]
0	0x3c2feab5	0.010737111
1	0x3c9eedad	0.019400442
2	0x3baccd14	0.0052734707
3	0x3a0bbe63	0.0005330799
4	0xbbabec89	-0.005246703
5	0xbb5a032b	-0.0033266048
6	0xbb92ae19	-0.0044763205
7	0xbb405346	-0.002934651
8	0xbb9a6952	-0.004712262
9	0xbb894819	-0.004189503
10	0xbd105aed	-0.035242964
11	0x3c779ee6	0.015113568
12	0x39d66351	0.00040891257
13	0x39bcd879	0.0003601944
14	0x39c473b1	0.0003747023
15	0x39a9c8ad	0.00032383707
16	0xb795ec77	-1.7872297e-05
17	0x38e0f7a7	0.00010727281
18	0x39e99c2b	0.00044557577
19	0x37624373	1.3486354e-05
20	0xb9e4ca9e	-0.0004363851
21	0xb9a0f2a9	-0.00030698374
22	0xb93ae360	-0.00017823046
23	0x39c1b875	0.0003694926
24	0x3b5b261c	0.0033439463
25	0x3ba1060f	0.0049140523
26	0x3b328621	0.0027240592
27	0xb84529c0	-4.7007343e-05
28	0xb9cb9328	-0.00038828817
29	0x399e48a6	0.00030190236
30	0xbb1c8ade	-0.0023886482
31	0xbad05aa6	-0.0015896156
32	0x3ae5af69	0.001752359
33	0xba9cd827	-0.0011966274
34	0x39571d1b	0.0002051484
35	0x3a584645	0.0008250217
36	0xba891f6e	-0.0010461637
37	0xbac4bd77	-0.0015010078
38	0xbaab9427	-0.0013090417
39	0xb9a77539	-0.0003194006
40	0x3a8e0b1c	0.0010837051
41	0x39e526bc	0.00043707143
42	0x3a1344d1	0.00056178594
43	0xba236d36	-0.000623423
44	0x38fd6abc	0.00012083861
45	0x390712e3	0.00012881639
46	0x3b63a0f2	0.0034733382
47	0xbaaae16f	-0.0013037155

exp_avg_sq f4 [4, 12]
0	0x36f23cbd	7.219233e-06
1	0x37be431a	2.2681012e-05
2	0x35d4e9bc	1.5863257e-06
3	0x324f5d42	1.207019e-08
4	0x35bd287a	1.4093378e-06
5	0x358a0b18	1.028503e-06
6	0x36326035	2.6580067e-06
7	0x34ff2218	4.7522258e-07
8	0x35c332c2	1.4543405e-06
9	0x358f1c99	1.0662653e-06
10	0x389f2e42	7.590327e-05
11	0x37680d21	1.3831334e-05
12	0x31ca1a50	5.881965e-09
13	0x31b1a731	5.1703855e-09
14	0x31c8e730	5.847049e-09
15	0x31656049	3.3378618e-09
16	0x2f577bb8	1.959809e-10
17	0x305e8c07	8.096212e-10
18	0x31ce1780	5.9980607e-09
19	0x3032b76a	6.501667e-10
20	0x31dc6ff4	6.4155703e-09
21	0x3181fde1	3.783257e-09
22	0x30d6a546	1.5617523e-09
23	0x319acb44	4.5050985e-09
24	0x3542bc9b	7.254509e-07
25	0x35d3dabf	1.5784389e-06
26	0x34ce6c7a	3.8449417e-07
27	0x30161eb3	5.461331e-10
28	0x3369fdae	5.448026e-08
29	0x32e2dc5c	2.641007e-08
30	0x34b4bd13	3.3665182e-07
31	0x34a5b156	3.0862674e-07
32	0x345beb03	2.0481461e-07
33	0x34368241	1.6997457e-07
34	0x34867e02	2.5051128e-07
35	0x34040392	1.2294757e-07
36	0x339d6364	7.328961e-08
37	0x3405a140	1.2445253e-07
38	0x3393612f	6.8628985e-08
39	0x31b8f93a	5.3834386e-09
40	0x3393bc83	6.879511e-08
41	0x32b68762	2.1249154e-08
42	0x32b58c03	2.1134843e-08
43	0x32b91c03	2.1549573e-08
44	0x308f90e0	1.0445795e-09
45	0x308f96de	1.0447498e-09
46	0x35336db2	6.6842324e-07
47	0x33cb0207	9.453293e-08

exp_avg f4 [4]
0	0xb69716c9	-4.502803e-06
1	0x37138594	8.792984e-06
2	0xb4f36f49	-4.5343248e-07
3	0x3412f5f8	1.3686792e-07

exp_avg_sq f4 [4]
0	0x2b8f3f37	1.0178307e-12
1	0x2c766b36	3.5018217e-12
2	0x28e12b77	2.4998868e-14
3	0x27d2b919	5.848739e-15

exp_avg f4 [4, 1]
0	0xb5e1342e	-1.6778993e-06
1	0x36f964b7	7.432503e-06
2	0xb3e70b5f	-1.0758844e-07
3	0xb3064806	-3.126481e-08

exp_avg_sq f4 [4, 1]
0	0x2a6a186b	2.0791847e-13
1	0x2c891bca	3.8968594e-12
2	0x275fd367	3.1062068e-15
3	0x25e41412	3.9565295e-16

exp_avg f4 [4, 12]
0	0xb4fe4c9d	-4.736693e-07
1	0xb480fc89	-2.40256e-07
2	0x34cb3f3e	3.785771e-07
3	0x356393fe	8.4779447e-07
4	0xb6e9461f	-6.9521043e-06
5	0x35c83696	1.4917048e-06
6	0xb66d74a7	-3.5383653e-06
7	0x35197267	5.716342e-07
8	0xb67e7f49	-3.792304e-06
9	0xb69eaa7d	-4.7286144e-06
10	0xb65709f0	-3.204328e-06
11	0xb565589e	-8.54381e-07
12	0xb5c085db	-1.4344072e-06
13	0x341ff7fc	1.4898245e-07
14	0x360d0157	2.1011417e-06
15	0x342baa82	1.5987646e-07
16	0x36e334fe	6.7712963e-06
17	0xb5ed36f5	-1.7673871e-06
18	0x3700a4d3	7.667771e-06
19	0xb5ebc962	-1.7567475e-06
20	0x371bfb47	9.297225e-06
21	0x36b60b25	5.42532e-06
22	0x36323885	2.6556966e-06
23	0x36359258	2.7056285e-06
24	0xb1fc65a6	-7.3457214e-09
25	0x33841c4a	6.151875e-08
26	0xb2a02a5e	-1.8645718e-08
27	0x31bd1193	5.502622e-09
28	0xb5e9bc5e	-1.7414675e-06
29	0x34991453	2.851326e-07
30	0xb4c93d89	-3.748394e-07
31	0x34220ae6	1.509139e-07
32	0xb4bd13a6	-3.521829e-07
33	0xb50068af	-4.783605e-07
34	0xb4bc6050	-3.5087805e-07
35	0xb2af7ca2	-2.0429358e-08
36	0x321ab41b	9.004931e-09
37	0xb2052f93	-7.752436e-09
38	0x3254564e	1.23596475e-08
39	0xb2671aaf	-1.3452037e-08
40	0x34bbd420	3.4985806e-07
41	0xb3799e64	-5.8118886e-08
42	0x33ace314	8.0506794e-08
43	0xb33421c0	-4.194021e-08
44	0x33bb4324	8.720079e-08
45	0x340ae792	1.2936496e-07
46	0x33cab71a	9.439664e-08
47	0xb238cdc1	-1.0756993e-08

exp_avg_sq f4 [4, 12]
0	0x289c0db8	1.7325429e-14
1	0x27b0e194	4.9094385e-15
2	0x28526b63	1.16806275e-14
3	0x296b711e	5.2278596e-14
4	0x2c8e2f73	4.0411507e-12
5	0x29d50c2e	9.461213e-14
6	0x2b9193a9	1.0343854e-12
7	0x2996759e	6.6817415e-14
8	0x2b4c5ba3	7.260253e-13
9	0x2b9b03d7	1.1014478e-12
10	0x2b17e8cb	5.396904e-13
11	0x296a251d	5.1990628e-14
12	0x2a155c49	1.3265876e-13
13	0x269c3eb6	1.0841672e-15
14	0x2aa67705	2.957011e-13
15	0x2689f5a2	9.572864e-16
16	0x2c9fe6ad	4.544662e-12
17	0x29f5736a	1.0900207e-13
18	0x2c94fcd7	4.234484e-12
19	0x2ab47f12	3.2062596e-13
20	0x2c996acb	4.360378e-12
21	0x2b9ea5be	1.1272578e-12
22	0x2a98ad1c	2.7120743e-13
23	0x2b0cd1e8	5.0029295e-13
24	0x236c63e2	1.2814737e-17
25	0x268a0d0d	9.579211e-16
26	0x24b1843c	7.698553e-17
27	0x22f94b58	6.757136e-18
28	0x2b26d146	5.926547e-13
29	0x2820d3ef	8.92774e-15
30	0x28d80857	2.3984434e-14
31	0x274aebea	2.816102e-15
32	0x288bcbda	1.5520507e-14
33	0x29005de3	2.8503143e-14
34	0x289d4276	1.7459324e-14
35	0x24eb69ea	1.0209443e-16
36	0x23395c17	1.0048371e-17
37	0x237ec1e5	1.3810426e-17
38	0x2448c793	4.3537133e-17
39	0x24913baf	6.2984834e-17
40	0x29ebb792	1.0467941e-13
41	0x272d4d07	2.405033e-15
42	0x271171e0	2.0184524e-15
43	0x26879f88	9.410748e-16
44	0x27436b25	2.711977e-15
45	0x27e10284	6.2452773e-15
46	0x2752f20f	2.9274575e-15
47	0x249814dd	6.5954836e-17

exp_avg f4 [4]
0	0x353ce131	7.0363154e-07
1	0xb3b8ffb8	-8.614683e-08
2	0x36638e38	3.3908418e-06
3	0x37e0c527	2.6794687e-05

exp_avg_sq f4 [4]
0	0x29cd31a3	9.1124394e-14
1	0x25a17e28	2.8014535e-16
2	0x2b100838	5.1170483e-13
3	0x2df20f01	2.7518878e-11

exp_avg f4 [4, 1]
0	0x34b9f56f	3.4637512e-07
1	0x328d57b4	1.6454443e-08
2	0xb4f5df00	-4.579706e-07
3	0x36cbbb13	6.0716498e-06

exp_avg_sq f4 [4, 1]
0	0x289461d8	1.6473734e-14
1	0x23ab62ab	1.8581645e-17
2	0x28deb68d	2.472612e-14
3	0x2c26c616	2.3699979e-12

exp_avg f4 [4, 4]
0	0x339ed849	7.3967904e-08
1	0x35551aa0	7.938743e-07
2	0x346638ec	2.1441127e-07
3	0x342e0952	1.6208404e-07
4	0xb27daa0c	-1.4765202e-08
5	0xb2edf7db	-2.7703143e-08
6	0xb1d89ea6	-6.3044636e-09
7	0x3238ad64	1.0749634e-08
8	0x33fbbc67	1.17223685e-07
9	0x350c1649	5.2186493e-07
10	0xb4c9cd8f	-3.758873e-07
11	0xb14aeaf1	-2.9528417e-09
12	0x36bf2995	5.6970844e-06
13	0x3707b1bd	8.08801e-06
14	0x360eaa33	2.1258718e-06
15	0xb6416ffc	-2.8824425e-06

exp_avg_sq f4 [4, 4]
0	0x264a56f8	7.0200693e-16
1	0x29c973bf	8.946272e-14
2	0x27d11144	5.8027872e-15
3	0x278382be	3.6501555e-15
4	0x239a8b0d	1.6755604e-17
5	0x246d5aed	5.14682e-17
6	0x22492c13	2.7263912e-18
7	0x230d0337	7.644306e-18
8	0x27bd0084	5.2458597e-15
9	0x2915a2ca	3.3225843e-14
10	0x288e1ca7	1.5777593e-14
11	0x2435265e	3.9280617e-17
12	0x2c1ead09	2.2549204e-12
13	0x2c911379	4.1233098e-12
14	0x2aa226a9	2.8803807e-13
15	0x2b100d71	5.117773e-13

exp_avg f4 [4]
0	0xb84571c1	-4.70744e-05
1	0x36a793e6	4.9942055e-06
2	0xb7ec6707	-2.8181368e-05
3	0xb7b87aca	-2.1991687e-05

exp_avg_sq f4 [4]
0	0x2eb4771d	8.206611e-11
1	0x2b7407a7	8.6696834e-13
2	0x2e03519b	2.985843e-11
3	0x2d985350	1.7317398e-11

exp_avg f4 [4, 1]
0	0x36d12a98	6.233644e-06
1	0xb5336475	-6.682888e-07
2	0x36886df6	4.065917e-06
3	0x34e4d155	4.2620619e-07

exp_avg_sq f4 [4, 1]
0	0x2c214171	2.2915803e-12
1	0x28d6e6ed	2.385892e-14
2	0x2b4140df	6.86574e-13
3	0x29bf8635	8.505385e-14

exp_avg f4 [4, 4]
0	0xb6683b4f	-3.4605216e-06
1	0xb624031a	-2.443971e-06
2	0xb6c112ef	-5.7540524e-06
3	0xb685dcb6	-3.989403e-06
4	0xb432f9b2	-1.666838e-07
5	0x34f5c441	4.57776e-07
6	0x350d6587	5.2674335e-07
7	0x35227e6b	6.0533665e-07
8	0x35d86758	1.6123331e-06
9	0xb5abf746	-1.2812459e-06
10	0xb36c347e	-5.4995773e-08
11	0xb696bdeb	-4.4924577e-06
12	0xb4afb5f2	-3.2728673e-07
13	0x34a6f0db	3.1095155e-07
14	0xb6216567	-2.4049893e-06
15	0xb68c34d8	-4.178477e-06

exp_avg_sq f4 [4, 4]
0	0x2b6481ae	8.118184e-13
1	0x2ac3906e	3.4739177e-13
2	0x2b9d9aca	1.1198484e-12
3	0x2b63c1a5	8.0915336e-13
4	0x26c139ba	1.3407712e-15
5	0x284938fd	1.1170099e-14
6	0x2810ed34	8.045041e-15
7	0x28aff2c6	1.9534189e-14
8	0x29ce2e51	9.156272e-14
9	0x2997e164	6.744846e-14
10	0x29b86c5d	8.1900395e-14
11	0x2bbd478e	1.3449118e-12
12	0x2862088d	1.2547374e-14
13	0x2921fafd	3.596688e-14
14	0x2a7b1683	2.2301089e-13
15	0x2b639813	8.0857646e-13

exp_avg f4 [4]
0	0xb9a8fc53	-0.00032231453
1	0x36bb6813	5.58515e-06
2	0xba31a251	-0.0006776201
3	0xbb3c7983	-0.002875895

exp_avg_sq f4 [4]
0	0x31eef4d8	6.954547e-09
1	0x2bc5eb70	1.4063039e-12
2	0x328e3023	1.6552866e-08
3	0x3495ec40	2.7925307e-07

exp_avg f4 [4, 1]
0	0xb970ca2b	-0.00022963497
1	0xb661a3c3	-3.3622935e-06
2	0xb8564df7	-5.1094186e-05
3	0xbacf226f	-0.0015803109

exp_avg_sq f4 [4, 1]
0	0x3180bfb7	3.7470858e-09
1	0x2b5cac64	7.839894e-13
2	0x2fcf7d0a	3.7741926e-10
3	0x33d150a8	9.746992e-08

exp_avg f4 [4, 16]
0	0x37ae5469	2.0781723e-05
1	0x38c04cf3	9.169606e-05
2	0xb8a974bf	-8.0802936e-05
3	0x384bde13	4.8605794e-05
4	0xba1f71c3	-0.00060823205
5	0x38b30510	8.536328e-05
6	0xb981c29a	-0.00024749787
7	0x38bf7112	9.128651e-05
8	0x38ce27a9	9.830233e-05
9	0xb511868c	-5.42125e-07
10	0xb86261f0	-5.397381e-05
11	0x3885e875	6.385233e-05
12	0xb962abb9	-0.00021617011
13	0xb98d8a7c	-0.00026996795
14	0xb9781b5b	-0.00023661314
15	0x38ab53e7	8.1695434e-05
16	0xb5a0f5fc	-1.199252e-06
17	0xb58b0924	-1.0358967e-06
18	0xb4f07d7b	-4.4794783e-07
19	0xb590d42a	-1.0790584e-06
20	0x36fa0696	7.4513473e-06
21	0xb617d1d8	-2.2622899e-06
22	0x36acfb3e	5.155248e-06
23	0xb4fd2501	-4.7151846e-07
24	0x35942dd3	1.1040196e-06
25	0xb548462c	-7.460792e-07
26	0xb597f2a9	-1.1321e-06
27	0xb547d64d	-7.4445126e-07
28	0x36b3ed17	5.3622166e-06
29	0x36a376a5	4.8715906e-06
30	0x368ead5c	4.2521115e-06
31	0xb41c2de9	-1.4545334e-07
32	0xb7b80a28	-2.1939239e-05
33	0x37ce6d43	2.4607993e-05
34	0xb7fe9912	-3.0350438e-05
35	0x359c8655	1.1662001e-06
36	0xba38ddf9	-0.00070521195
37	0x399b5ee2	0.00029634597
38	0xba37be6c	-0.0007009271
39	0x390f9a56	0.00013695037
40	0xb6349469	-2.6908476e-06
41	0xb6442bf2	-2.9231855e-06
42	0xb648fe5e	-2.9950384e-06
43	0xb7b6f450	-2.1809858e-05
44	0xba2347a6	-0.0006228633
45	0xba3a4fc9	-0.0007107226
46	0xb9b82216	-0.0003512061
47	0xb7e5a75e	-2.7376864e-05
48	0x3a034907	0.00050081353
49	0xb9ab13b1	-0.00032630333
50	0x38dfbd13	0.000106686864
51	0xb929ca6b	-0.00016192503
52	0xbb330159	-0.0027314036
53	0x3a36c39f	0.0006971899
54	0xbb2895eb	-0.0025724124
55	0xb90fba62	-0.00013706976
56	0xb8c9f4fc	-9.630059e-05
57	0xb9e938ab	-0.00044483444
58	0x39cd7f28	0.00039195386
59	0x360498ed	1.9758547e-06
60	0xbae1b798	-0.0017220853
61	0xbb52dff4	-0.0032176943
62	0xba784daa	-0.0009472022
63	0xb95cfdd0	-0.00021075387

exp_avg_sq f4 [4, 16]
0	0x2e392b15	4.2102394e-11
1	0x30210a4f	5.858611e-10
2	0x2ff28dbb	4.412025e-10
3	0x2f3b9e8e	1.7063881e-10
4	0x32fee50e	2.9673654e-08
5	0x3086f618	9.819727e-10
6	0x3220cf0d	9.360304e-09
7	0x3106727e	1.9564648e-09
8	0x3039c341	6.758008e-10
9	0x2a57e782	1.9176156e-13
10	0x2f63c480	2.071534e-10
11	0x2f9e46ec	2.8790426e-10
12	0x318d1320	4.1058144e-09
13	0x31a5ae5a	4.8219535e-09
14	0x313d5a2c	2.7554377e-09
15	0x300344c2	4.7755233e-10
16	0x29dcb961	9.802121e-14
17	0x299f9d74	7.088332e-14
18	0x28a4785b	1.8259853e-14
19	0x29b1dafa	7.8983654e-14
20	0x2c9175c1	4.134221e-12
21	0x2aa20505	2.8780464e-13
22	0x2c17c292	2.1566399e-12
23	0x29e09e3d	9.975048e-14
24	0x29bc344e	8.3579506e-14
25	0x292bbc9b	3.8133217e-14
26	0x29c2265e	8.621986e-14
27	0x292bedd8	3.8175924e-14
28	0x2bc384fb	1.3892493e-12
29	0x2b9147fe	1.0322852e-12
30	0x2b617f29	8.011253e-13
31	0x27132adf	2.0423589e-15
32	0x2e3003eb	4.0021247e-11
33	0x2e8485b8	6.026418e-11
34	0x2e89c790	6.265488e-11
35	0x2a8f0035	2.5402046e-13
36	0x331f0eb3	3.703344e-08
37	0x31680274	3.3761838e-09
38	0x32c57d5a	2.2990822e-08
39	0x30a67b1a	1.2113077e-09
40	0x2c4f92d9	2.9497986e-12
41	0x2c1f789d	2.2662213e-12
42	0x2c5fdcfc	3.1812877e-12
43	0x2e982d9c	6.9202616e-11
44	0x326ed885	1.3902654e-08
45	0x32960a21	1.7466904e-08
46	0x31a90a5e	4.919726e-09
47	0x2ec19db7	8.80464e-11
48	0x32208d42	9.345344e-09
49	0x31958e93	4.3526796e-09
50	0x3020b903	5.847058e-10
51	0x3095ab81	1.0889921e-09
52	0x3511cb93	5.431295e-07
53	0x3293297a	1.7131914e-08
54	0x34a1ee69	3.0162053e-07
55	0x316a0dde	3.4059364e-09
56	0x2feaad73	4.2687595e-10
57	0x3206ce25	7.846698e-09
58	0x31d16cae	6.095056e-09
59	0x2bf50456	1.74095e-12
60	0x33cb72fa	9.473838e-08
61	0x34baec10	3.4816958e-07
62	0x331593cf	3.4826197e-08
63	0x30fb17a8	1.8269377e-09

exp_avg f4 [4]
0	0xbb9c8f2a	-0.0047778087
1	0xb74a0f2d	-1.2043672e-05
2	0xbb22df3e	-0.00248523
3	0xbb1616cd	-0.0022901774

exp_avg_sq f4 [4]
0	0x3563db4f	8.4883226e-07
1	0x2cb0dfd3	5.0270703e-12
2	0x3480874a	2.3940294e-07
3	0x344a295d	1.8827764e-07

exp_avg f4 [4, 1]
0	0xba55def4	-0.0008158528
1	0xb4032bde	-1.2216285e-07
2	0xba1a697b	-0.00058903516
3	0xb9280ed6	-0.00016027255

exp_avg_sq f4 [4, 1]
0	0x32f15224	2.8093446e-08
1	0x288abf6f	1.5404099e-14
2	0x32830873	1.525425e-08
3	0x30a1cc9f	1.1772449e-09

exp_avg f4 [4, 4]
0	0xba908b5d	-0.0011027862
1	0x39b913a9	0.00035300598
2	0xb9c7d52c	-0.00038115063
3	0xba28384b	-0.000641708
4	0xb601e3e1	-1.935514e-06
5	0x33d8f893	1.0103499e-07
6	0xb5ed5b10	-1.7684379e-06
7	0xb6217260	-2.4057445e-06
8	0xb7fee4ac	-3.0385643e-05
9	0xb9b9c8f1	-0.00035435663
10	0xb9b2c3a5	-0.00034096572
11	0xba0b636a	-0.0005317243
12	0xb9ac7bfe	-0.00032898778
13	0xb86fee2f	-5.7203866e-05
14	0xba00ce34	-0.0004913539
15	0xba06232b	-0.0005116935

exp_avg_sq f4 [4, 4]
0	0x3347ba4c	4.6502734e-08
1	0x31ba02fb	5.4136513e-09
2	0x3205e4fc	7.793684e-09
3	0x32914a00	1.6913873e-08
4	0x2a1f3f18	1.4143927e-13
5	0x2799bdbc	4.267174e-15
6	0x2a11390b	1.2898378e-13
7	0x2a6a8e3f	2.0832727e-13
8	0x2f8e4f51	2.5886007e-10
9	0x31be5fde	5.5406266e-09
10	0x31cb76ac	5.921569e-09
11	0x326e3dbb	1.3867459e-08
12	0x318f9d0e	4.179703e-09
13	0x2f319b65	1.6153263e-10
14	0x321e032b	9.197531e-09
15	0x32345a6d	1.0497939e-08

exp_avg f4 [4]
0	0xbc433322	-0.0119140465
1	0xbbd04ff2	-0.0063571865
2	0x3b2b1e6a	0.0026110657
3	0xbb5590f7	-0.0032587626

exp_avg_sq f4 [4]
0	0x36a5bcd9	4.939368e-06
1	0x3612e8a0	2.18911e-06
2	0x3496dab1	2.8098796e-07
3	0x34ae8284	3.2504988e-07

exp_avg f4 [4, 1]
0	0xbbf0b720	-0.007346049
1	0xbae5171c	-0.0017478201
2	0x3a905106	0.0011010475
3	0xb8eb7313	-0.000112271075

exp_avg_sq f4 [4, 1]
0	0x35e9336f	1.7374822e-06
1	0x341174ef	1.3546718e-07
2	0x3361a6a3	5.253845e-08
3	0x302e2e7f	6.3366906e-10

exp_avg f4 [4, 12]
0	0xbb55319f	-0.0032530797
1	0x3b090358	0.0020906534
2	0x3b0f3b32	0.0021855352
3	0xba94aa8e	-0.0011342333
4	0x399452f0	0.00028290553
5	0x398fce4b	0.00027428786
6	0x3ad3db25	0.0016163333
7	0xbae6d619	-0.0017611413
8	0xbc21997d	-0.009863255
9	0xbc19290e	-0.009348167
10	0xbbe6442b	-0.007027169
11	0x3b092927	0.002092907
12	0xbabdfad0	-0.0014494304
13	0x3a289328	0.00064306194
14	0xba0e476e	-0.0005427514
15	0xb9cadfb8	-0.00038695126
16	0xba6a6c3e	-0.0008942521
17	0x37d56ee8	2.5443223e-05
18	0x39d9871d	0.00041490133
19	0xbb17fa8f	-0.0023190116
20	0xbbbf0248	-0.0058291294
21	0xbbc8449b	-0.006111694
22	0xbb26de5d	-0.0025462129
23	0xb9d9e00f	-0.00041556402
24	0xba255492	-0.00063068524
25	0x380c9f8e	3.3527198e-05
26	0x39e542ff	0.000437282
27	0xb9991490	-0.00029197754
28	0x3a590663	0.0008278845
29	0x396c6cd4	0.00022547256
30	0xb90c8c68	-0.00013403746
31	0x3a12a163	0.00055935065
32	0x3af2f5a3	0.001853634
33	0x3b1914c0	0.0023358315
34	0x3aa83d30	0.0012835618
35	0x3949176d	0.0001917758
36	0xb8a654e1	-7.931307e-05
37	0x38a3b9b4	7.8070356e-05
38	0xb8ae4e8a	-8.3115956e-05
39	0xb7a3ffbe	-1.9550203e-05
40	0xba34ff29	-0.0006904477
41	0x3852efb4	5.0291143e-05
42	0xb9519e83	-0.00019990843
43	0xbaa002b7	-0.001220784
44	0xbb49e8cd	-0.0030808926
45	0xbb582114	-0.00329787
46	0xba9958f2	-0.0011699481
47	0xb7aa728b	-2.0318917e-05

exp_avg_sq f4 [4, 12]
0	0x34c5da33	3.685287e-07
1	0x34173436	1.4081965e-07
2	0x34174e0c	1.4091364e-07
3	0x33315fab	4.1298033e-08
4	0x31b0db93	5.147237e-09
5	0x31584424	3.147087e-09
6	0x33b41dab	8.3873e-08
7	0x33f90cf6	1.15973236e-07
8	0x365ce9a7	3.2918558e-06
9	0x364efe26	3.0844326e-06
10	0x35f54eee	1.8276894e-06
11	0x34173665	1.408276e-07
12	0x33daeeac	1.019483e-07
13	0x32989157	1.7761222e-08
14	0x329b0b6f	1.8049574e-08
15	0x31e12eeb	6.553696e-09
16	0x3357881b	5.0182376e-08
17	0x2e961f72	6.826796e-11
18	0x3277b242	1.4417823e-08
19	0x349d29ec	2.927403e-07
20	0x35f8c370	1.853432e-06
21	0x36092b52	2.0439807e-06
22	0x34b76d51	3.4165944e-07
23	0x32067bb8	7.827957e-09
24	0x32915897	1.6920508e-08
25	0x2e24f9bf	3.7511102e-11
26	0x321bdae2	9.071956e-09
27	0x318e8adf	4.1485317e-09
28	0x32f3fbb8	2.8403392e-08
29	0x31161477	2.1839506e-09
30	0x30842810	9.61565e-10
31	0x32375d94	1.0673279e-08
32	0x34161313	1.3976778e-07
33	0x3476675a	2.2948134e-07
34	0x33adf3c3	8.10028e-08
35	0x30d4d3d8	1.548524e-09
36	0x2fb89d33	3.3581102e-10
37	0x2f5832a6	1.966308e-10
38	0x300c8fae	5.1135884e-10
39	0x2e12d0a6	3.3381874e-11
40	0x3262d53f	1.3203418e-08
41	0x2ed29616	9.576355e-11
42	0x30bbd64d	1.3666949e-09
43	0x33342533	4.194335e-08
44	0x349bb01b	2.8999133e-07
45	0x34b02795	3.2811354e-07
46	0x3328b967	3.928417e-08
47	0x2d553a44	1.2120586e-11

exp_avg f4 [4]
0	0x3c2ae536	0.010430625
1	0x3d0878f4	0.033318475
2	0x3934ed92	0.0001725464
3	0xb9edba4c	-0.00045342965

exp_avg_sq f4 [4]
0	0x36f9a015	7.4394143e-06
1	0x38206403	3.8240116e-05
2	0x30af312b	1.27469e-09
3	0x31f32131	7.0760042e-09

exp_avg f4 [4, 1]
0	0xbbe5bbbf	-0.0070109065
1	0xbcaa195a	-0.020764042
2	0xb8dafdc2	-0.00010442316
3	0x38aebc6d	8.3320636e-05

exp_avg_sq f4 [4, 1]
0	0x364c94b4	3.0484925e-06
1	0x375c99b4	1.3148809e-05
2	0x2fe82c76	4.2232146e-10
3	0x2fa08523	2.919843e-10

exp_avg f4 [4, 4]
0	0x3b6b465e	0.0035900096
1	0xbabaf50c	-0.0014263703
2	0xba0d6b0a	-0.0005394673
3	0xba2ec158	-0.00066663837
4	0x3b868e92	0.004106351
5	0x3c61637b	0.013756628
6	0x3c0ef860	0.008726209
7	0xbbc733ce	-0.0060791736
8	0x37d6552d	2.5550451e-05
9	0x388629a6	6.3973755e-05
10	0x38853913	6.352565e-05
11	0x36a48cb1	4.9039595e-06
12	0xb987433f	-0.0002579931
13	0xb95bf240	-0.00020975713
14	0xb7c01e77	-2.290237e-05
15	0xb8c64a91	-9.455265e-05

exp_avg_sq f4 [4, 4]
0	0x35807868	9.571786e-07
1	0x342f54cb	1.6328993e-07
2	0x32bfa3bd	2.2309786e-08
3	0x33175c2a	3.524125e-08
4	0x3546dbef	7.4080793e-07
5	0x36de5804	6.626362e-06
6	0x36319b10	2.6465314e-06
7	0x35b4dcea	1.347534e-06
8	0x2e0370b4	2.9886052e-11
9	0x2f47c5a8	1.8169166e-10
10	0x2f38cec7	1.6808165e-10
11	0x2c02d243	1.859083e-12
12	0x31188693	2.2195408e-09
13	0x30e50bc0	1.6665282e-09
14	0x2dc1fcc6	2.2053814e-11
15	0x2fae97b6	3.1758213e-10

exp_avg f4 [11]
0	0x3d5c0342	0.053714044
1	0x399ce55c	0.00029925525
2	0x3d897669	0.06712038
3	0xbc585f73	-0.013206351
4	0x3c712653	0.01471861
5	0xbcbbc2b5	-0.022919992
6	0xbcf57df0	-0.029967278
7	0x3c80802a	0.015686113
8	0x3c4f811b	0.0126650585
9	0x3c5b3e6e	0.013381584
10	0x3c1dfa8c	0.009642255

exp_avg_sq f4 [11]
0	0x38b85c78	8.791027e-05
1	0x3729d67c	1.01231235e-05
2	0x39021f30	0.00012409384
3	0x36a1ee3a	4.825907e-06
4	0x36bdb6bf	5.6539134e-06
5	0x376a81fc	1.3977751e-05
6	0x37c3146c	2.3255321e-05
7	0x36d18fc2	6.245421e-06
8	0x368c0fe9	4.1741773e-06
9	0x36a01ede	4.771965e-06
10	0x36217deb	2.4064163e-06

exp_avg f4 [11, 1]
0	0x3ba9fca0	0.005187586
1	0x39d3591d	0.0004031145
2	0x3b6ec658	0.003643414
3	0xbaef1208	-0.0018239627
4	0xba3e6d68	-0.00072642276
5	0x3b79ce1e	0.003811724
6	0x3b8f7934	0.004378462
7	0xbb477f55	-0.0030440886
8	0x3adf5b04	0.0017040675
9	0x3b10f9fb	0.0022121656
10	0x3ac824ea	0.001526979

exp_avg_sq f4 [11, 1]
0	0x35838e3a	9.801654e-07
1	0x34e4487e	4.2521054e-07
2	0x35941968	1.1034253e-06
3	0x33f64e1d	1.14694764e-07
4	0x325c5776	1.2825572e-08
5	0x350a5595	5.1533544e-07
6	0x3525f823	6.1828376e-07
7	0x349d6c0d	2.9322146e-07
8	0x33cb291a	9.4604005e-08
9	0x343c5556	1.753991e-07
10	0x339b8a8b	7.242951e-08

exp_avg f4 [11, 4]
0	0x3bc6972e	0.0060605025
1	0x3bf82037	0.0075721997
2	0xbb0180b0	-0.0019760542
3	0xbb03e6d6	-0.0020126603
4	0xb9c2e698	-0.0003717437
5	0xb958420b	-0.00020623968
6	0xba00f1ed	-0.0004918862
7	0xba5dd29c	-0.0008461864
8	0x3bfbbb4f	0.007682241
9	0x3c709e95	0.014686246
10	0xba8ccf94	-0.0010743015
11	0x3aa7e4ec	0.0012809313
12	0x3ac9cc4f	0.0015395972
13	0xbad030bf	-0.0015883668
14	0x3a15e292	0.00057176605
15	0x38aa01a3	8.1065366e-05
16	0x3b01258e	0.0019706222
17	0x3b3d168f	0.0028852557
18	0xba0badd8	-0.0005328334
19	0x388e943b	6.798698e-05
20	0xbb92088b	-0.004456585
21	0xbb282f31	-0.0025662894
22	0xbb0ddd67	-0.0021646859
23	0xbb0ca251	-0.0021459053
24	0xb951a539	-0.00019993343
25	0xbb5df1bd	-0.003386601
26	0x3b202f93	0.002444242
27	0xbab6df5b	-0.0013952063
28	0xb9b22769	-0.00033980169
29	0x3a99b18a	0.0011725884
30	0xbaa839da	-0.0012834624
31	0xba0271de	-0.0004976074
32	0x3a470e93	0.0007593419
33	0x3ad5cf15	0.0016312326
34	0x3ab92ccc	0.001412773
35	0xb88f21d0	-6.8250694e-05
36	0x3950cc02	0.00019912425
37	0x3ad85359	0.0016504332
38	0xba1b6b91	-0.00059288094
39	0x3a9fb5b4	0.0012184889
40	0x3a84732b	0.0010105124
41	0x3a4a21f8	0.000771075
42	0x393286ca	0.00017025616
43	0x3a51703e	0.00079894427

exp_avg_sq f4 [11, 4]
0	0x35db9db0	1.6362665e-06
1	0x3612e5d9	2.1889484e-06
2	0x340686ce	1.2528764e-07
3	0x3424d5e9	1.535151e-07
4	0x34276472	1.5589629e-07
5	0x3491556a	2.7070502e-07
6	0x331270b3	3.4095773e-08
7	0x344338dc	1.8181476e-07
8	0x362b1ec5	2.5498896e-06
9	0x36fee004	7.5958687e-06
10	0x33ff0907	1.1876005e-07
11	0x34821349	2.422842e-07
12	0x33a0e30d	7.491881e-08
13	0x33a3feb9	7.636613e-08
14	0x3217bee7	8.832763e-09
15	0x2f8491b4	2.4114188e-10
16	0x341fb519	1.4873912e-07
17	0x348942ba	2.5566789e-07
18	0x31dd56e8	6.4418266e-09
19	0x2efcfd9a	1.1504682e-10
20	0x3565b45d	8.557161e-07
21	0x344a4271	1.8836887e-07
22	0x343ab0cc	1.7386918e-07
23	0x342665ce	1.5496991e-07
24	0x3287291d	1.5734765e-08
25	0x34b28413	3.325118e-07
26	0x34510f0e	1.9470119e-07
27	0x3389a458	6.4094536e-08
28	0x314311de	2.838639e-09
29	0x331fccc2	3.72063e-08
30	0x335cfb57	5.1451334e-08
31	0x32163c0b	8.744801e-09
32	0x32fb6511	2.9266205e-08
33	0x33a729f5	7.7841754e-08
34	0x338f36eb	6.668946e-08
35	0x2eeedd40	1.0862289e-10
36	0x31b5ce76	5.291265e-09
37	0x33a79954	7.804434e-08
38	0x32458a6a	1.1498381e-08
39	0x3365b3e1	5.3481816e-08
40	0x33307917	4.1088324e-08
41	0x329096be	1.6832356e-08
42	0x3079418f	9.0678837e-10
43	0x32a62f08	1.934633e-08

exp_avg f4 [2]
0	0xbf188dfe	-0.5959166
1	0xbf2152cd	-0.6301697

exp_avg_sq f4 [2]
0	0x3c156924	0.009119306
1	0x3c25c94a	0.010118792
