tests/output/multimodal-jets/25682ae52c67402ca590444faf4db155/checkpoints/better.ckpt (torch, 147096 bytes, 129 tensors)

embedder.embedding_continuous.embedding.weight f4 [16, 3]
000000 ba f3 af 3d b2 49 7b be c4 bb a4 be 9f 45 03 3f
       0.08591409 -0.24539831 -0.32174504 0.5127811
000010 c2 0c e8 3e f8 50 3f 3d 3e a8 6d bb 4e 3f fb 3e
       0.45322233 0.046708077 -0.003626361 0.49071735
000020 ae df a2 3d 19 79 e2 bd 71 a2 13 be 72 44 7b 3c
       0.0795282 -0.11058254 -0.14417435 0.015336143
000030 4c 0c c6 be c6 ed ba 3d 63 f5 c9 3d 8b 01 40 3e
       -0.38681257 0.09127383 0.09861257 0.18750589
000040 9a 86 01 bf 84 13 6d be 33 da 24 be 68 a4 26 bd
       -0.5059601 -0.23151976 -0.16098861 -0.040684134
000050 93 c8 18 3e fd 3d 8c be 93 ef 01 bf 84 8e ea be
       0.14920263 -0.27391043 -0.50756186 -0.45811856
000060 6f 11 08 3f 4b 74 4a be 58 f3 a5 3e e6 c2 76 be
       0.531516 -0.19770925 0.3241222 -0.24097785
000070 02 7a a7 3e 45 ec 0a 3f cd 4c 8b be 60 77 54 bc
       0.32710272 0.5426677 -0.27207032 -0.012967914
000080 4c 0a 77 bd 05 a3 30 3f 84 62 ad be da e2 ee be
       -0.060312554 0.6899875 -0.33864224 -0.4665745
000090 80 23 89 3e 9c 7f c8 3c e6 17 fa 3e 3e 13 15 3e
       0.26784897 0.024474911 0.48846358 0.14558122
0000a0 ef 07 6c 3d 96 2d 85 bc 48 8e 7b 3e c4 32 cd 3e
       0.057624754 -0.016257089 0.24565995 0.40077794
0000b0 78 ba 97 3e 13 69 99 3e 40 c8 ae bc a8 8d 9a 3e
       0.29634452 0.29962978 -0.021335721 0.301862

embedder.embedding_continuous.embedding.bias f4 [16]
000000 5f b4 61 be 19 9a da 3e b2 18 7f bd 6f 8a 0d 3f
       -0.22041462 0.42695692 -0.06227941 0.5528936
000010 c8 52 d4 be 8d 46 dd be fa d7 9f 3e 61 d7 e8 bd
       -0.41469407 -0.43217888 0.31219465 -0.11369205
000020 9c 9a 62 be 9e f9 25 3e 99 a0 37 3e d6 3e c7 3e
       -0.22129291 0.16208503 0.17932357 0.38915128
000030 45 c1 42 be e8 6b 85 3e 01 be a1 3c 70 81 e9 be
       -0.19019039 0.26058888 0.019743921 -0.45606565

embedder.embedding_discrete.embedding.weight f4 [8, 16]
000000 50 70 ba 3e 3f d8 0d bf a1 2c 0d 40 87 3d 7c bf
       0.36413813 -0.5540809 2.205849 -0.98531383
000010 17 d0 ba bf 80 cb 38 3e fd 24 4a 40 eb 6f ec 3e
       -1.4594754 0.18046379 3.1585076 0.46179137
000020 aa c3 29 bf db 06 62 3f c5 18 2b bf 6a 06 c0 3f
       -0.66314185 0.8829171 -0.6683467 1.5001957
000030 fe fc 37 3f ee e6 a1 bd a5 92 c3 3e e1 5a ba 3e
       0.7187041 -0.079053745 0.38197818 0.3639746
000040 79 72 48 3f 3b ec 41 3e d1 49 9b 3e e6 e0 00 c0
       0.7829967 0.18937771 0.30329755 -2.0137267
000050 5e fe 46 3f a2 cf 97 be a9 0e 54 bf e0 c6 25 3d
       0.77731884 -0.296506 -0.8283487 0.040472865
000060 a1 55 f3 be 42 5d 3d bf 82 db bb 3f 92 00 8c 3f
       -0.47526267 -0.73970425 1.4676363 1.0937674
000070 1c cc 7b 3f a2 48 67 bb b2 26 1b bf 6b 1f 9c bf
       0.9835832 -0.0035291095 -0.6060592 -1.2197088
000080 c5 77 ce 3f a6 bc c9 bf 4f c8 8d 3f 42 ca bc be
       1.6130301 -1.5760696 1.1076754 -0.3687306
000090 61 ed e0 be 6d 90 37 3e a5 06 1c bf 7e e4 99 3f
       -0.43931106 0.17926188 -0.6094764 1.2022855
0000a0 59 f8 60 3f 1d 74 d6 bf 63 3a c7 3f 58 06 c9 be
       0.8787895 -1.6754185 1.5564693 -0.39262652
0000b0 eb b5 c3 3e 0b bb a0 3e 45 c0 26 be 07 cb a2 3f
       0.3822473 0.31392702 -0.16284283 1.2718209
0000c0 7f c1 48 3f 5d 43 33 3f 73 e5 48 bf 1f 0b dd 3e
       0.7842025 0.70024663 -0.7847511 0.43172547
0000d0 13 50 09 be 50 b6 b9 bf 44 95 3e 3e 0f 98 b9 3f
       -0.13409452 -1.4508762 0.18611628 1.449953
0000e0 13 91 1c 3f fc ce bf 3f d6 2c 80 3f 80 b2 1e bf
       0.61158866 1.4985042 1.0013683 -0.6199112
0000f0 7b 52 6b 3d ee 2c 64 bf 63 45 8e 3e 8d 72 7d bf
       0.057451706 -0.8913106 0.27787313 -0.99002916
000100 18 cf ad bd 1b 52 cd bf a0 79 81 bf 71 58 9e be
       -0.084867656 -1.6040682 -1.0115242 -0.3092685
000110 76 bc 58 bf 5f 91 04 3f 2e 66 0d c0 ed 83 b5 3d
       -0.8466257 0.5178432 -2.2093616 0.088630535
000120 f9 d4 b4 3e 76 cf 0e 3e 77 21 e4 3e 59 2b 0f be
       0.35318735 0.13946328 0.44556782 -0.1398138
000130 71 fc 92 3f 5e 9e 50 bf 37 27 85 bf 05 d8 ed bf
       1.1483289 -0.8149165 -1.0402592 -1.8581549
000140 83 3b 22 bf bb 48 0e bf 4e bc 28 3f 39 1c 2d 3f
       -0.6337206 -0.5557973 0.6591233 0.6762119
000150 0f 2b 33 bf a8 fe 95 bf be 9e 26 be b4 65 95 bf
       -0.6998758 -1.171834 -0.16271493 -1.1671662
000160 14 84 1d 3e 8a 7a 45 3e b7 c7 15 40 f7 7b a6 be
       0.15382415 0.19285026 2.3403146 -0.32516453
000170 8d 15 98 bd 94 25 da bc ea 7a 81 3e 32 e2 04 bf
       -0.074259855 -0.026629247 0.25289088 -0.51907647
000180 56 99 0a bf 74 53 06 bf 01 ca 56 3d 0d b0 fd 3e
       -0.5414022 -0.5247109 0.05243874 0.4954838
000190 c1 ef 8d bf 6c e9 24 40 9e 16 47 3f 5a b8 c2 be
       -1.1088792 2.576747 0.77768886 -0.38031274
0001a0 82 87 b2 3e c9 14 33 3e 91 bf cf 3f 5e 82 c6 bf
       0.3486901 0.17488398 1.6230336 -1.5508535
0001b0 d2 cc d2 be 5d 1e bb 3f 27 f0 9b 3f ea 18 28 3e
       -0.4117189 1.4618641 1.2182664 0.16415754
0001c0 08 8f 67 3f e5 f4 2e 3f fb d8 80 bc 11 55 70 3f
       0.90452623 0.6834243 -0.015728464 0.938798
0001d0 05 de ab bf 58 94 ae bd 68 8a 8a be 5a 24 e9 be
       -1.342713 -0.08524388 -0.2705872 -0.45535547
0001e0 4d 99 bb bf ee 71 10 bf c6 b9 47 bf 8b d3 3e bf
       -1.4656159 -0.5642384 -0.7801784 -0.7454154
0001f0 c9 f9 3d 3f b4 d2 07 3f 16 99 13 3f 66 c8 33 3f
       0.74209267 0.5305588 0.57655466 0.7022766

encoder.epic.epic_proj.local_0.bias f4 [16]
000000 21 08 00 bd ad 51 08 3d 79 36 eb 3c ac cb 78 3c
       -0.031257752 0.033281017 0.028712498 0.015185278
000010 83 32 07 3e 1d 97 ec 3c cf 66 09 3e 56 b1 d0 3d
       0.13202862 0.02888065 0.13418125 0.10190074
000020 e4 61 f6 bd 45 1e d8 3d 79 7b e4 bd 6f 3e 42 3d
       -0.1203039 0.105526485 -0.11156363 0.047422823
000030 d5 e1 ca 3d 4f e3 d5 bd 57 96 d3 3d ee fc b7 bd
       0.09906355 -0.10443746 0.103314094 -0.089837894

encoder.epic.epic_proj.local_0.weight_g f4 [16, 1]
000000 a9 8d 20 3f 84 f6 13 3f f3 2a 34 3f 7c 0c 19 3f
       0.62716156 0.5779803 0.70378035 0.59784675
000010 5c 15 0a 3f 88 5f 0f 3f 99 d1 13 3f 28 c7 1f 3f
       0.5393884 0.56005144 0.57741696 0.62413263
000020 84 7e 21 3f a3 c5 19 3f ad bb e6 3e 20 3c 12 3f
       0.6308367 0.60067195 0.4506506 0.57122993
000030 fe d5 1c 3f 62 ca 2a 3f 90 81 0f 3f 98 dd 23 3f
       0.61264026 0.6671506 0.5605707 0.6401

encoder.epic.epic_proj.local_0.weight_v f4 [16, 48]
000000 6c 51 10 be ef a8 15 be 4a 6b 09 be 94 42 1d bc
       -0.1409356 -0.14615224 -0.13419834 -0.009598393
000010 63 13 ad 3d 7d 8e 69 bd 88 5d 03 be 3f 7d 13 be
       0.08450963 -0.057020653 -0.12828648 -0.14403246
000020 ae 50 ee bd b6 3f 03 3c 2a b8 43 bb b0 cd 9a ba
       -0.11636482 0.008010795 -0.002986441 -0.0011810567
000030 dc 12 63 bb d9 f6 8a bd de 78 65 bc e6 d7 95 bd
       -0.0034648692 -0.06785364 -0.014005868 -0.0731657
000040 55 4e 1b 3c e4 9f e5 bd a3 38 f7 bc 9a 2e d5 bd
       0.009479125 -0.11212137 -0.030178374 -0.10409279
000050 b8 56 a5 3d 20 d3 67 3d bf 9a 1c 3d c8 8b 63 bb
       0.08073181 0.05659783 0.038233515 -0.0034720767
000060 32 5e 30 bd ec 24 be bb 93 f6 6a bd ec 98 c2 bd
       -0.04305858 -0.0058027413 -0.057364058 -0.09501824
000070 53 9c a8 bd b8 0e 61 bc a2 f8 8d bd 20 15 81 bd
       -0.082329415 -0.013736419 -0.069321886 -0.063028574
000080 b7 38 c0 bc 6a e0 1c 3b 8c f4 33 be 9d ac 80 bd
       -0.023464544 0.0023937472 -0.17573756 -0.06282923
000090 85 23 f8 bc 88 87 18 3d 21 b4 86 3d 4f 41 05 be
       -0.030290375 0.037238628 0.065773256 -0.13013195
0000a0 b5 db e1 3a a6 4b 0d be 2a 12 fb 3d 74 a4 dc bd
       0.0017231615 -0.13798389 0.12259324 -0.107735544
0000b0 f9 30 e4 bd 6e c1 98 bd 22 f1 22 bd 69 eb 58 3d
       -0.11142153 -0.07458769 -0.039780743 0.05295888
0000c0 70 53 87 bd fd ea 55 bd de fe f9 3d bc 31 18 3e
       -0.06607711 -0.052226055 0.12206815 0.14862722
0000d0 bf cb e7 3d a3 2e e5 bd ee 41 b0 b9 9a 19 21 3e
       0.11318158 -0.11190536 -0.00033618457 0.15732422
0000e0 04 09 78 3d 74 11 a7 3d 7c 79 00 3b 38 93 a4 3c
       0.060555473 0.08157626 0.001960366 0.02008973
0000f0 32 24 db bb e0 8f aa 3d 65 6a 02 3a 30 ec 65 3d
       -0.0066876644 0.08328223 0.00049749605 0.05613345
000100 61 53 be 3d 53 5c 87 bd 79 13 4d 3d 7e 57 12 3e
       0.09293247 -0.06609406 0.0500674 0.14291188
000110 21 f1 d5 3b 0b be d0 3d 1e 1d e5 bb 3b 5d 93 3d
       0.006528989 0.10192498 -0.0069919964 0.07195517
000120 28 2c 28 bc 22 7d 79 3a f0 4c 10 3d e0 a9 38 3d
       -0.010264434 0.00095172424 0.035229623 0.04508388
000130 f4 c4 11 bd 70 77 1c 3d e4 6c bd 3d b4 e8 63 3d
       -0.03558822 0.038199842 0.09249285 0.055641845
000140 a9 af 92 3d 0a 70 48 bd ce 54 c9 3c 59 a7 2e 3e
       0.07162411 -0.048934974 0.02457657 0.17056026
000150 33 38 b5 bd 02 7a 18 bd 76 f2 05 bd 83 18 54 bc
       -0.0884861 -0.03722573 -0.032701932 -0.012945297
000160 64 f9 88 bd 0b c2 d5 bb d4 34 c4 3d ff 59 18 be
       -0.066881925 -0.006523376 0.09580389 -0.14878081
000170 19 7a 1b bd a0 fe 22 bd 44 f4 11 bd 5c 3c af 3d
       -0.03795824 -0.03979361 -0.03563334 0.085564345
000180 c0 c4 ac bd 8f 88 67 3d cd ac 4a bd 86 24 32 bc
       -0.084359646 0.056526717 -0.049481202 -0.010872966
000190 7c 9e dc 3c 5f c6 e4 3d ad 3f d1 bd 24 28 0f be
       0.02693104 0.11170649 -0.10217223 -0.13980156
0001a0 59 f6 2e 3d 94 67 92 bd 44 fb b8 3c 65 67 9b 3d
       0.042715404 -0.07148662 0.02258075 0.0758808
0001b0 ce e5 e4 3c b5 e7 4e bd 34 ed 95 3d 19 f9 9a 3d
       0.02794161 -0.05051394 0.073206335 0.07567043
0001c0 c0 d9 c1 3d 61 77 31 3c d9 76 6b 3d f3 57 f8 3c
       0.09465361 0.010831685 0.05748639 0.030315375
0001d0 58 c3 45 bc f5 04 a0 3d 67 c4 08 3d 83 41 0c be
       -0.012070499 0.078134455 0.03339043 -0.13696866
0001e0 9d 0b 2f 3e 9a b2 37 be a9 17 a1 bd c3 e4 36 3e
       0.17094274 -0.17939225 -0.07865841 0.17860703
0001f0 a6 a5 37 3e e3 01 81 3d 7e 74 26 3e ad 2e 6c bd
       0.17934284 0.06299188 0.16255376 -0.0576617
000200 ba d1 bb 3b 90 bb 1d bd b3 d3 1c 3b 99 98 86 3d
       0.0057317885 -0.03850895 0.0023929894 0.065720744
000210 c2 b4 8e 3d 3d 05 41 bd 25 b9 d2 3d 94 c0 91 bd
       0.069680706 -0.047124136 0.1028922 -0.071168095
000220 17 af 24 3d f2 85 34 bd a4 d4 8a bd d0 cc 78 bc
       0.04020604 -0.044073053 -0.06778839 -0.01518555
000230 49 44 c8 bd a2 e6 85 bd 00 8b fc 3c 58 4b b3 3d
       -0.09778649 -0.0653813 0.030828 0.08754605
000240 46 47 05 be a7 94 e2 3d 07 37 12 3e 36 56 59 bd
       -0.1301547 0.110635094 0.14278804 -0.053060733
000250 59 e6 bd 3d 19 eb 27 3d f3 19 97 3b 47 17 b4 bb
       0.09272451 0.04099569 0.0046112477 -0.005495939
000260 9b fc a7 bb d3 69 02 3e 90 7d 00 bd 7d e7 e8 3c
       -0.0051265485 0.12735681 -0.031369746 0.028430695
000270 f7 46 b6 bd b5 fb 6c bd c3 2a b9 bd f3 6b 30 3d
       -0.08900254 -0.057857234 -0.09041359 0.0430717
000280 81 e0 01 be dd 62 04 3e c0 6b a2 bd 6a 90 79 3d
       -0.12683298 0.12928338 -0.07930708 0.06092874
000290 57 9a 55 bd 3a 99 75 bd 52 75 14 3e a0 b6 aa bd
       -0.052149143 -0.05996058 0.14497879 -0.08335614
0002a0 19 38 84 3c 70 e4 fb 3d c2 9b b5 3d 78 42 df bc
       0.01614003 0.1229943 0.08867599 -0.027253374
0002b0 57 32 1e 3e 13 06 39 bd 50 b4 21 bd e5 7d 92 3d
       0.1544889 -0.04517181 -0.0394786 0.07152919
0002c0 f6 11 11 3e 71 97 0f be ac c1 a0 3d 29 d8 01 be
       0.14167008 -0.14022614 0.0784944 -0.12680115
0002d0 ad 4b c0 bd f2 77 9f 3c 10 3d 12 bd 26 b1 12 3e
       -0.09389434 0.019466374 -0.035702765 0.1432539
0002e0 43 db 30 3e c8 59 92 bb 38 a9 03 bc ea 65 34 3d
       0.17271142 -0.004466269 -0.00803595 0.044042505
0002f0 28 96 88 3d c0 ae 08 3d e9 c3 9e bc 50 53 9b 3c
       0.06669265 0.03336978 -0.019380527 0.018960625
000300 e5 e3 a8 3d 71 79 74 3d c4 f0 e4 3c 97 ad 97 bd
       0.082465924 0.059686128 0.027946837 -0.074061565
000310 33 46 bc bc 54 12 b9 bc f8 e5 b9 bd ec 60 e5 3d
       -0.022982692 -0.022591747 -0.09077066 0.11200127
000320 51 e6 db bc 40 6c ea bd b0 a4 b0 3c 69 18 95 3c
       -0.026843222 -0.11446428 0.021562904 0.018200116
000330 e5 ed b1 3c 58 42 df bc 30 51 30 39 1f 6a d8 bc
       0.021719882 -0.027253315 0.00016814913 -0.02641779
000340 39 8e 8b bd 1b 54 cb bd 25 8c 98 3c b0 3a 11 3e
       -0.06814236 -0.09928151 0.018621514 0.14182544
000350 8e c9 0a 3e 5e 7b fc bd 55 9f 53 3c dd d0 a3 3d
       0.1355345 -0.12328218 0.012916406 0.07998822
000360 d5 67 55 bd cd 75 d3 3d 3b 4a 82 3d 6a 28 59 bd
       -0.052100975 0.10325203 0.063618146 -0.053017057
000370 35 d9 0d be 93 ac 37 bd 13 c6 36 bd 21 91 41 3d
       -0.13852389 -0.044842314 -0.044622492 0.047257546
000380 eb 66 73 bd 9b 2c 05 3b 77 5c 92 3c 51 3f 40 bd
       -0.059424322 0.0020320776 0.017866356 -0.046935383
000390 bc 36 13 be de 05 87 bc 0d b5 86 ba 9e 00 62 3d
       -0.14376348 -0.01648229 -0.0010277346 0.05517637
0003a0 9d 2f c3 bd 3b a9 23 3d 35 13 e3 bb 52 4f c3 3d
       -0.09530566 0.039956313 -0.00692978 0.095366135
0003b0 66 1d 45 3d 9a 8b 44 3d 07 05 2d 3d 0f 65 10 bd
       0.04812374 0.047984697 0.042241123 -0.035252627
0003c0 78 b9 a8 bd a5 f1 c4 3d 36 51 9f bc d6 49 24 bc
       -0.082385 0.096164025 -0.019447904 -0.0100273695
0003d0 45 5c 32 3c bf 50 d5 bd 5b c7 bf bd b3 a8 1e be
       0.010886257 -0.10415792 -0.09364196 -0.15494041
0003e0 5e f9 d0 3d d8 49 73 3d 2d e4 c6 3d b6 13 d8 3d
       0.10203813 0.059396595 0.0971149 0.105506346
0003f0 5b 6c 6b bd 9a c6 e1 bc 65 2e d5 3d 2f 1c e5 bd
       -0.057476383 -0.02756052 0.1040924 -0.11187016

encoder.epic.epic_proj.global_0.bias f4 [16]
000000 23 f6 9c bc c1 54 2f bd 82 a4 0b 3e de b2 2a 3e
       -0.019160336 -0.042805437 0.13636974 0.16669795
000010 c1 44 04 be 48 25 0a be cd e6 b9 3c db 72 f1 3d
       -0.12916853 -0.13490784 0.022693062 0.11789485
000020 5f 0e a7 bd ae a8 00 be 36 5b 48 bd 25 49 e6 3d
       -0.08157038 -0.12564346 -0.04891511 0.1124442
000030 00 30 e1 3d 29 d2 23 bc 77 3f 5e bd 05 63 33 3d
       0.109954834 -0.009998837 -0.054259744 0.043795604

encoder.epic.epic_proj.global_0.weight_g f4 [16, 1]
000000 74 33 1f 3f ce e3 0f 3f b2 5d 11 3f d5 bd 11 3f
       0.62187886 0.5620698 0.5678359 0.56930286
000010 6d 90 11 3f 9d db 0b 3f 2b f4 04 3f f4 5e 18 3f
       0.56861 0.5463198 0.5193507 0.59519887
000020 46 15 14 3f 1c 8e 12 3f 0f 89 0b 3f ee 20 1c 3f
       0.5784496 0.5724809 0.5450601 0.60987747
000030 59 67 24 3f c3 1e 19 3f ee ef 0e 3f 91 79 0e 3f
       0.64220196 0.59812564 0.55834854 0.55654246

encoder.epic.epic_proj.global_0.weight_v f4 [16, 48]
000000 65 c8 a0 bd 84 a3 54 bd c4 81 30 3d eb 39 42 3d
       -0.07850722 -0.051913753 0.043092504 0.047418516
000010 52 c9 00 be bf 5e 40 bb b8 7e 1c bd 8b 87 a6 bd
       -0.12576798 -0.0029353348 -0.038206786 -0.081313215
000020 40 e0 6d 3d ec a3 e2 3d ad 23 30 bc c2 4a 31 3d
       0.05807519 0.11066422 -0.010750693 0.043284185
000030 5b 2f 0d 3d 3c 0e 39 3d eb bc 15 bd f2 aa eb bd
       0.03446899 0.04517959 -0.03655712 -0.115072146
000040 2b aa c1 3d ff 94 f7 3d e6 55 5c bc 5e 60 fb bc
       0.09456285 0.120889656 -0.013448214 -0.0306856
000050 82 cf 9d 3d 4d e5 ef bd 0c 5f 95 3d c9 91 b8 bd
       0.077055946 -0.117136575 0.072935194 -0.09012181
000060 c6 9f f8 bd 81 a8 d2 3d ce 7b 7e bd d6 aa 09 3e
       -0.12139849 0.10286046 -0.062129788 0.13444075
000070 3d 47 70 3c 98 58 e2 bd 24 5d eb bd ff 17 08 bc
       0.014665422 -0.11052054 -0.114923745 -0.008306502
000080 fe 5f 7b 3b 8c 0e 00 3e 68 b1 d7 bc e3 97 fe bb
       0.0038356776 0.12505549 -0.026329711 -0.007769571
000090 59 5e 79 bc c3 ca 04 3d 46 30 bb bd cc 20 00 3e
       -0.015220248 0.03241993 -0.09140067 0.12512511
0000a0 72 a5 10 3e e8 a5 51 3d 48 75 04 3e 43 f9 5b 3b
       0.14125612 0.05118361 0.12935364 0.003356532
0000b0 72 ad e7 3d 6e 34 3f bb 4e 3c f6 3d 04 a7 00 3e
       0.11312379 -0.0029175538 0.12023221 0.12563711
0000c0 6e fa dc 3d 81 ca 95 bd 4b bd c0 bd c5 5f 43 bd
       0.10789953 -0.07314015 -0.09411105 -0.047698755
0000d0 f5 56 d8 3d e8 bc 87 3d 58 89 5f 3d ca d3 39 bd
       0.10563461 0.06627828 0.05457434 -0.045367993
0000e0 0f 29 dd 3d 73 f5 37 ba 78 df 70 bd 30 4e 2a bd
       0.10798847 -0.0007017471 -0.058806866 -0.04157847
0000f0 db 87 f3 3c 2f 47 8c 3d 9c 4d db bd 99 32 b6 3d
       0.029727867 0.06849515 -0.10708162 0.088963695
000100 94 88 06 3e e0 40 9e 3c 6d 36 25 3e ba df 7c bd
       0.13138038 0.019318044 0.16134043 -0.0617368
000110 d5 13 02 bd 63 cb 39 3d 0d 3f 0e 3e d9 a1 70 3d
       -0.031757195 0.04535998 0.1389124 0.0587481
000120 07 96 ed 3d 0b 8f 7d 3d b0 7d d2 3d db b2 e4 bb
       0.11600881 0.061903995 0.10277879 -0.006979329
000130 a9 82 0b 3e 2a 67 b4 bd 50 71 bf 3d e5 16 62 3d
       0.13624062 -0.088087395 0.093477845 0.055197615
000140 35 a5 be bc 4a 5a 1a 3e 21 07 b0 3d cf 28 b8 bd
       -0.023272136 0.15073505 0.0859511 -0.089921586
000150 8e 5d 21 bd 6b b1 c5 3d f8 38 bc bd 47 af c9 bd
       -0.03939586 0.096529804 -0.091905534 -0.098478846
000160 7b c1 57 bd c7 b7 eb bc 74 f1 36 3d 26 97 d9 3d
       -0.05267475 -0.028774155 0.04466386 0.106245324
000170 ae c1 44 3d 83 7a 7d ba dc 8e 33 3d 5e 8b e0 bc
       0.04803627 -0.000966944 0.043837413 -0.027410205
000180 85 06 b7 3d da 5a 59 3d 41 6b 9e bb f2 ee 46 bc
       0.089367904 0.05306516 -0.004834563 -0.01214193
000190 ec 28 96 bc bf 7c a7 bd 6a be fa 3d ba 66 26 bd
       -0.01833006 -0.0817809 0.1224335 -0.04062531
0001a0 39 50 8b 3d 9a 68 a6 3d d8 57 f0 3d 42 c5 a7 ba
       0.06802411 0.0812542 0.11735505 -0.0012799876
0001b0 1a c0 84 bd 59 ae 71 bd 03 af 46 bd 4d 7a 07 be
       -0.06481953 -0.05900416 -0.048506748 -0.13230248
0001c0 0e 47 21 3d 66 a6 da bc 13 fc 97 3d ec bb cc 3d
       0.039374404 -0.026690673 0.07421126 0.09996781
0001d0 38 81 cf 3d a4 71 ff bd 35 d8 a7 bd 95 9d c0 bd
       0.101320684 -0.12472847 -0.08195535 -0.094050564
0001e0 2b 8c bb bd 34 5b ec 3d a2 7a f9 bd f5 67 32 3e
       -0.09157594 0.11540833 -0.121815935 0.17422469
0001f0 bf 85 ba 3d 44 30 7d bc 8e d4 a9 bd 1d 0c 26 3d
       0.09107541 -0.015453402 -0.08292495 0.040538896
000200 bb 76 f0 bd ac bc 68 3d 6c 30 20 bc 63 de f0 3d
       -0.11741396 0.056820557 -0.00977717 0.11761167
000210 49 c3 ba bd 17 8b 99 bc 8f 83 ba 3d f2 98 f0 3d
       -0.09119279 -0.018743081 0.09107124 0.11747922
000220 68 1a a3 3d 11 c6 ad bc fa da a5 3d fc 52 9d bc
       0.07964021 -0.02121261 0.08098407 -0.01920461
000230 43 f1 df 3d c2 19 0f 3e d6 69 7d bd 7a 92 cf 3d
       0.10934689 0.1397467 -0.06186851 0.1013536
000240 4a 7f 8b b8 67 c6 76 3d 69 c1 39 3b 44 f9 c4 3c
       -6.651746e-05 0.060247805 0.0028344041 0.02404464
000250 82 fc e4 3d 5e a9 0f b9 44 05 96 bc 7c 58 b9 bc
       0.111809745 -0.00013700637 -0.018313058 -0.0226252
000260 5a 0e 0b bc 7b dd 06 3d 76 f7 af 3c 61 6b 0f 3d
       -0.008487308 0.032926064 0.021480303 0.035014514
000270 42 73 ee 3a 67 8b 0b ba 08 c3 d2 3d 4f 5d 2e 3c
       0.0018192308 -0.0005323202 0.102911055 0.010642364
000280 53 51 f2 bc 44 47 8d bd 5f b2 d4 bd c4 9c bc 3c
       -0.029579794 -0.068983585 -0.10385584 0.02302397
000290 22 d3 21 3e da 9f 4a bd 8c d8 2f 3c 27 28 19 3d
       0.15803197 -0.049468853 0.010732781 0.037391808
0002a0 8b cf 64 3c 83 92 84 bc d7 a5 a3 bd d7 df c1 3d
       0.013965498 -0.016183143 -0.07990616 0.09466522
0002b0 69 64 76 3d 19 bd a3 bd 05 dd 04 be 4e 24 19 3e
       0.060154352 -0.07995052 -0.12974937 0.14955255
0002c0 5e 63 20 3e fe ac 22 bd ee b1 62 bc 46 e2 f7 3d
       0.15662906 -0.03971576 -0.013836367 0.12103705
0002d0 72 0c 20 bd 56 48 16 3e 22 4a 7f 3d ba 36 e9 3c
       -0.03907437 0.14676031 0.062326558 0.028468478
0002e0 af 78 36 3d aa 37 92 3b 34 b9 b6 bb 8c da 99 3d
       0.044548687 0.004462202 -0.005576277 0.07512388
0002f0 a0 16 08 3d d6 02 29 3d 61 c8 93 3d 8c fd ea b9
       0.033224702 0.04126247 0.072159536 -0.00044820865
000300 1f 1a 04 be b6 61 78 3b a5 56 ad bc 6e c3 a0 bc
       -0.1290059 0.0037900037 -0.02115948 -0.019624438
000310 37 0f 61 bd f2 70 c8 3d 27 31 05 3e c7 83 75 3d
       -0.05494615 0.097871676 0.13007031 0.059940126
000320 c6 74 5c 3d 2d 4b c6 bd 9c 01 04 be 1e c5 a5 3d
       0.0538223 -0.096823074 -0.12891239 0.08094238
000330 cc 6c 08 3c 8d b7 71 bd 40 db ad 3d dc 0f 9b 3d
       0.00832672 -0.05901294 0.08489084 0.07571384
000340 26 03 d7 3d 36 14 09 be 5f 19 32 3d a8 eb c4 3d
       0.104986474 -0.13386616 0.043481227 0.0961526
000350 a6 ac 2e 3d 45 d3 75 3d 6e 41 05 3d ba f8 98 3d
       0.04264512 0.060015935 0.0325331 0.07469316
000360 e6 32 ff bd 98 6a 07 be 1a 22 c7 bd 98 cd 7f 3d
       -0.1246088 -0.13224256 -0.09723301 0.06245193
000370 57 d6 ab 3d bd b7 7d 3d f0 6c 09 3e fe 33 04 bd
       0.083904915 0.061942805 0.13420463 -0.032276146
000380 05 16 02 bd ac c6 e6 3d 29 22 bd 3c b4 61 c4 bd
       -0.03175928 0.112683624 0.023087578 -0.09588948
000390 a0 f8 99 bd a4 8a 05 3e a8 83 5a bd 73 ad c1 bc
       -0.075181246 0.13041168 -0.053348213 -0.023642277
0003a0 1d f3 07 be 75 93 0e be 7c bf 9f bd bc 78 ec 3d
       -0.13276334 -0.13923438 -0.078001946 0.11546466
0003b0 21 ef 69 3d c1 f4 a1 bd 87 16 25 3d 3e 48 25 bd
       0.057112817 -0.07908011 0.040304687 -0.0403521
0003c0 14 f5 31 3d 22 01 da 3d b2 6c ef bd 82 0a 31 bd
       0.043446615 0.10644747 -0.11690654 -0.04322291
0003d0 3c cf 11 bb f7 48 d2 3d 53 36 85 bd dc 8c 00 3e
       -0.0022248765 0.10267823 -0.06504502 0.12553734
0003e0 2c b5 46 3d be 72 81 3c 23 58 6a bc 84 72 1f 3e
       0.048512623 0.015801784 -0.01430324 0.15571028
0003f0 4a 20 1d 3e 5d 82 d5 3c d6 8e 6d bd de 8e 1c 3d
       0.15344349 0.026063139 -0.057997547 0.038222186

encoder.epic.epic_proj.global_1.bias f4 [16]
000000 04 51 4e be 9b 5b f8 bb 4e e2 54 3e f9 5c 57 bc
       -0.20148093 -0.0075792796 0.20789453 -0.013144725
000010 ec 2d 3d bd 50 35 8d 3e fe 49 52 be ea 5e eb 3d
       -0.046186373 0.27579737 -0.20536038 0.11492713
000020 a3 f6 b0 bd 92 9b 5a 3e 35 a8 13 be 49 10 b7 3d
       -0.08640792 0.21348408 -0.14419635 0.08938653
000030 c8 fb 23 be 64 f5 20 be 5e e1 b5 bc 63 c7 92 3d
       -0.16014016 -0.15718609 -0.02220219 0.07166936

encoder.epic.epic_proj.global_1.weight_g f4 [16, 1]
000000 47 d1 f4 3e 81 6d 16 3f 99 40 f3 3e 70 10 0d 3f
       0.47815916 0.5876084 0.47510222 0.55103207
000010 bd 4a fb 3e 83 1a 0a 3f 63 78 07 3f 0c 74 09 3f
       0.49080458 0.53946704 0.5291807 0.536927
000020 aa 61 1a 3f 43 02 0a 3f a0 8d 0d 3f 45 79 0f 3f
       0.60305274 0.539097 0.5529423 0.5604442
000030 97 5a 08 3f cb fa 22 3f 5b c5 1e 3f de 46 10 3f
       0.5326323 0.6366393 0.6201989 0.56358135

encoder.epic.epic_proj.global_1.weight_v f4 [16, 16]
000000 fe 81 65 be 45 ba 4f 3d 9b 82 36 3e 02 ec 14 3e
       -0.2241287 0.05071475 0.1782326 0.14543155
000010 de 44 10 bd da 33 b9 bd 9a 82 a7 3c 99 ff 57 3d
       -0.035221927 -0.09043093 0.020448018 0.05273399
000020 50 81 d8 bd 3e f7 56 3e 5b 1c 4d 3d 41 aa b4 3c
       -0.105715394 0.20992753 0.05007587 0.02205384
000030 0c bf 96 3d be 4b 05 3e 95 ea 3a be bb 8a 9c bd
       0.07360658 0.13017175 -0.18253548 -0.07643648
000040 b2 df 11 bd d6 93 1a be 94 c0 23 3e 5d 48 8d 3e
       -0.035613723 -0.15095457 0.15991431 0.2759427
000050 91 34 64 3e 4d d3 1d be ca 31 8d 3d 41 18 3b 3e
       0.22285677 -0.15412636 0.06894262 0.18270971
000060 25 e7 ad 3d ab 0a b6 3d 51 14 a7 bc 51 b6 91 bc
       0.08491353 0.088887535 -0.02039543 -0.01778713
000070 7b 0f ec 3d 31 72 5f 3e ea 64 98 3d 83 6b 6e 3d
       0.1152639 0.21820904 0.07441123 0.058208
000080 9b e3 39 3e 9c b9 5f 3e 9f f2 2b bb 71 ec 5b 3e
       0.18153231 0.21848148 -0.0026237143 0.21476914
000090 cc 2e d8 3d d6 39 2b 3e 2c f9 14 3d 25 f9 6f bc
       0.10555801 0.16721281 0.03637044 -0.014646803
0000a0 e8 d3 23 be 21 24 86 3d 96 31 dd bd bc c2 21 be
       -0.15998805 0.0654986 -0.108004734 -0.15796942
0000b0 11 9a 4f bd 4a 10 c6 bb f4 81 7c 3d 13 cb 80 bb
       -0.05068404 -0.0060444223 0.06164737 -0.0039304583
0000c0 b6 da 46 be 58 c1 10 3e b5 d5 1b 3e ce 98 3e be
       -0.19419369 0.14136255 0.15218242 -0.18612978
0000d0 5e 78 9b 3d e1 17 59 be c3 c9 10 be c9 13 ab 3d
       0.075913176 -0.21200515 -0.14139466 0.08353383
0000e0 d3 2c 83 3c 3c 90 4c be 5e 2f a5 3d c3 06 ce 3d
       0.016012585 -0.19976896 0.08065675 0.100598834
0000f0 1e 51 3c 3e 83 fd 3c 3e ff ef e4 3d 59 42 02 be
       0.18390319 0.18456082 0.11178588 -0.12720622
000100 08 d3 52 3d d6 08 80 3e 47 2e 13 3d ed 4d 1b 3e
       0.051470786 0.2500674 0.035932805 0.15166445
000110 b7 e4 45 be 75 d9 b4 3b 31 6f 0e 3e d4 3e 21 3e
       -0.19325529 0.005519087 0.13909604 0.15746623
000120 a4 59 ee bb 9d c9 43 bd a4 0a 8f bd 19 04 c7 3b
       -0.0072738696 -0.047799695 -0.069844514 0.0060734865
000130 a7 6e 1c bd 56 94 1b 3e b7 35 87 bc c4 b3 54 be
       -0.038191464 0.15193304 -0.016505105 -0.207717
000140 8d be 11 3e 9f ed f2 3d 5a 16 3f be b3 a4 cf bd
       0.14232846 0.11861729 -0.1866087 -0.10138836
000150 9f f1 2d 3e b6 eb ee 3c 81 f6 21 3d 77 9b 31 3e
       0.16986702 0.02916513 0.039541725 0.17344461
000160 dc b1 4b bd a6 d2 4a 3e bc 1f 2b bc c2 ce 14 3e
       -0.049730167 0.19806919 -0.010444578 0.14531997
000170 17 d3 02 be 86 9d f3 bd 30 1b 81 3d de 13 2a be
       -0.12775837 -0.118952796 0.06304014 -0.16609141
000180 83 2c b9 3d 0f b5 2f 3e fd f1 6e 3e 45 19 aa 3c
       0.09041693 0.17158912 0.23334499 0.020764003
000190 6e 1a 94 bd 51 dd 88 3d ae 50 62 be 44 43 fe 3d
       -0.072316036 0.06682838 -0.2210109 0.12415174
0001a0 5c 10 04 3e 18 4a 7f bc a6 54 48 be 6e ae 8b 3d
       0.12896866 -0.01558163 -0.19563541 0.06820379
0001b0 6a 75 a4 bd 02 7e a0 3d 9d a3 10 3e 50 d8 12 be
       -0.080302075 0.07836534 0.14124914 -0.14340329
0001c0 a8 56 ab bd 10 60 02 3e 78 44 f0 3d 35 f0 1e 3d
       -0.08366138 0.12731957 0.117318094 0.038803298
0001d0 95 6f 37 be 97 b4 0b be d0 1e 5e be a6 d8 f9 bc
       -0.17913659 -0.13643108 -0.21691442 -0.030498814
0001e0 fe 9a f4 bd 91 f6 1c 3e 9f 79 c3 bd 30 b1 85 3e
       -0.11943625 0.15328433 -0.09544682 0.26111746
0001f0 dd 13 46 3d a8 2f 97 3c 9c e8 f7 3c 59 d3 b6 bd
       0.048358787 0.018455341 0.030262284 -0.0892703
000200 18 5f 2e 3e 87 a1 55 be 00 c3 ee 3d ef 54 ae ba
       0.17028463 -0.20862399 0.11658287 -0.0013300459
000210 2d 11 61 3e 0b 43 59 3e 08 8e 46 bd e1 f2 74 be
       0.21979208 0.21216981 -0.048475295 -0.23920776
000220 1f 6d 09 3d 0e 8e 0e 3e bc 3f 05 3e 41 20 f1 bd
       0.03355133 0.13921377 0.13012594 -0.1177373
000230 e4 85 5d be 31 a6 10 be 6a d8 bd bd 6a 45 26 3b
       -0.21633106 -0.14125897 -0.09269793 0.0025370964
000240 ea 51 0b bd a6 a1 1a be 20 e4 b8 3c a3 4a 88 bd
       -0.034013666 -0.15100726 0.022569716 -0.06654861
000250 f8 12 6c 3d 1c 00 62 3e b6 1d 00 be 43 64 80 3b
       0.057635278 0.22070354 -0.12511334 0.003918202
000260 f2 87 1a 3e 65 93 11 be 61 e2 4d 3e 28 8a 14 3e
       0.15090922 -0.14216383 0.20105888 0.14505827
000270 75 94 a2 bd 4c 89 3e be 55 c0 1e 3e 82 6c 25 3e
       -0.07938472 -0.18607062 0.15503056 0.16154674
000280 89 88 b1 bd 03 b2 6d be 00 58 e1 3d 81 d7 ae bd
       -0.0866862 -0.23212437 0.11003113 -0.08537198
000290 48 8e ea 3d 69 16 25 3c 61 c8 2b be 49 53 31 3e
       0.11452919 0.010076144 -0.16775657 0.17316927
0002a0 cf 3e 99 bc aa 92 74 be b7 8f 0d 3e 6b 0a d4 bd
       -0.018706707 -0.23884073 0.13824354 -0.103535496
0002b0 31 10 5d bd 96 a2 48 3e 63 66 d1 bd 6e 76 34 3d
       -0.05397052 0.19593272 -0.10224607 0.044058256
0002c0 45 c1 f2 3d 58 17 80 3d d0 6c 95 3c 8b a8 d4 3d
       0.118532695 0.062544525 0.018240362 0.103837095
0002d0 10 ff 67 be 1b 1c d0 3d fb 1b a0 bd 32 d0 16 3e
       -0.22655892 0.10161611 -0.07817837 0.14727858
0002e0 ec ab bf bd 88 ac fd 3d ea 6c 83 3e f9 25 4e be
       -0.09358963 0.12386423 0.25669032 -0.20131673
0002f0 1d 0f 49 be 21 f6 51 3e d1 08 d6 3d 03 1a 04 be
       -0.19634672 0.20504047 0.104509 -0.12900548
000300 68 2f e4 3c f6 20 10 bd a5 e4 31 bd 5a e1 53 3c
       0.027854636 -0.035187684 -0.043430943 0.012932146
000310 27 52 0a be 5f b8 a2 bd ed e7 66 3d e3 f7 7c be
       -0.13507901 -0.07945322 0.056373525 -0.24703936
000320 40 b7 18 be 35 2b e2 ba da b9 65 be 8c 3f 9a 3d
       -0.14913654 -0.0017255308 -0.22434178 0.07531652
000330 c7 cb 92 3d 71 cd 62 3e 37 75 35 3e a5 4b 75 3e
       0.07167774 0.22148682 0.17720495 0.23954637
000340 41 93 9f 3d 5a 9f 75 3d 23 07 2e be 03 5e 0e be
       0.07791758 0.059966423 -0.1699491 -0.1390305
000350 97 2d 31 be e7 c5 07 3e d9 55 df 3c 9f d9 35 bd
       -0.17302547 0.13259088 0.027262615 -0.044396993
000360 fc 8a 2b 3e f4 c4 c7 bc c4 56 22 be de 71 df 3d
       0.16752237 -0.024385907 -0.15853411 0.1091039
000370 cf bc 4f be ec cb 82 3e ac 40 6b be 62 4d 4c bd
       -0.20286869 0.25546205 -0.22973889 -0.049878486
000380 16 14 18 3e a4 14 08 3e 0e 5b 34 be bb a1 36 be
       0.14851412 0.13289124 -0.1761286 -0.17835133
000390 18 e1 33 be 50 5d 4f 3e 7d 99 71 3e e2 01 49 be
       -0.17566335 0.2025044 0.23593707 -0.19629624
0003a0 04 88 2a be ac 11 d4 bd 7e 12 45 3d 90 fa f0 bb
       -0.16653448 -0.10354933 0.04811334 -0.007354088
0003b0 c7 bd f6 bd fc e7 ea bd 2a d9 02 3e 07 38 2f be
       -0.12047916 -0.11470029 0.12778154 -0.17111216
0003c0 a6 f9 72 3d 5c 2f 49 3e bf 66 4c 3e 55 b7 cc 3d
       0.059320115 0.19646972 0.1996107 0.09995905
0003d0 df 9e 62 3e 04 5c f9 3d ff bc 02 be af 02 a6 bc
       0.22130917 0.12175754 -0.12767409 -0.020264952
0003e0 be 16 55 bc 69 7e 09 be 81 0c 52 39 88 1c c9 bd
       -0.01300591 -0.13427128 0.00020031819 -0.09819895
0003f0 43 85 84 3d 3a 28 0b 3e 3f 1e f9 bd f8 14 76 be
       0.0647073 0.13589564 -0.12163972 -0.24031436

encoder.epic.epic_proj.global_2.bias f4 [16]
000000 35 4a 45 be 07 3e 44 3e de 6a 16 3e 00 97 20 3e
       -0.19266589 0.19164287 0.14689204 0.15682602
000010 40 b9 c3 3d dd 50 4a bd 68 95 65 be 3e 79 22 be
       0.09556818 -0.049393523 -0.22420275 -0.15866563
000020 d1 f9 53 be f5 96 49 be 4e bb 74 be 96 3f 85 be
       -0.20700766 -0.19686492 -0.23899576 -0.26025075
000030 fd 3e 02 3e 5f e7 e8 3d 2f ac 3e 3e 9a e0 5c 3e
       0.1271934 0.113722555 0.1862037 0.21570054

encoder.epic.epic_proj.global_2.weight_g f4 [16, 1]
000000 9d 41 2c 3f d5 69 36 3f 66 82 0d 3f 44 92 31 3f
       0.6728762 0.71255237 0.552771 0.6936381
000010 0f f1 1b 3f 65 41 14 3f 0e 06 24 3f 6b 6f 15 3f
       0.609147 0.57912284 0.6407174 0.58373135
000020 01 5f 1c 3f 09 02 0f 3f b2 48 17 3f 2f 1a 30 3f
       0.61082464 0.5586248 0.590953 0.68789953
000030 ca c1 02 3f 62 69 da 3e ce ba 15 3f 55 f3 12 3f
       0.5107695 0.42658526 0.58488166 0.57402545

encoder.epic.epic_proj.global_2.weight_v f4 [16, 16]
000000 cb 96 f4 3d 87 97 7a 3e d8 d0 58 3d a3 a5 a4 3c
       0.11942824 0.24471866 0.052933544 0.020098513
000010 00 be ac 3d d5 bc 6b 3c 9b f8 48 3e 63 2a 78 3e
       0.08434677 0.014388283 0.19626085 0.24234919
000020 8f 7c 1a 3e 35 b7 30 3d d0 d6 23 3e 3e e7 2c 3e
       0.15086578 0.04314347 0.15999913 0.16885087
000030 6f 8a 21 3e 40 bc 6d be 5b 09 5f 3e 72 aa 62 3e
       0.15775464 -0.23216343 0.21780913 0.22135332
000040 04 ac 0a 3e 43 13 58 3e ed 33 a8 3d da 96 17 be
       0.13542181 0.21101098 0.08213029 -0.14803639
000050 5f 6b 10 be 47 48 fd bd 55 46 38 3e 19 82 73 3e
       -0.14103459 -0.123673014 0.1799558 0.23780097
000060 74 4e 67 be f2 b7 3a be 53 65 62 bd fa 1a 69 3d
       -0.22588521 -0.18234232 -0.05527241 0.056910492
000070 8a 5e 25 3e 31 30 73 3e 6c 47 63 3e a6 da 6c 3e
       0.16149345 0.23748852 0.22195214 0.23130283
000080 2a b9 0f be 6d 56 19 3e 2a 0f 4c 3e 78 ef 0f 3d
       -0.14035478 0.14974375 0.1992766 0.035140485
000090 af 34 90 3d ee 3c 3f 3e 38 c9 42 3e 74 cc 0c bd
       0.070412986 0.18675587 0.19022071 -0.03437467
0000a0 f4 7a ae bd 40 38 b9 bd 83 e8 14 be 34 1f 62 be
       -0.08519545 -0.09043932 -0.14541821 -0.22082216
0000b0 05 90 8d bd 48 fd 03 3c 32 1b 3e 3e 04 df 1b 3e
       -0.06912235 0.008055992 0.18565062 0.15221792
0000c0 a5 17 4d be 60 f8 29 3e 3f ab d7 3d 2f 30 74 be
       -0.20028551 0.16598654 0.105307095 -0.23846506
0000d0 a8 a1 46 bc 25 da ec 3d 6a 91 70 3e c3 2e 50 be
       -0.012123503 0.11565045 0.23492971 -0.20330338
0000e0 b1 29 e3 bd a8 26 20 3e 82 c1 65 be 70 13 03 be
       -0.110919364 0.15639746 -0.22437099 -0.12800384
0000f0 81 57 58 3e 48 cc 6c be 67 13 bf 3b 12 9d 5f 3e
       0.2112713 -0.23124802 0.0058311704 0.21837261
000100 23 29 39 bc a5 3f 24 bd bf 36 69 3e 66 9e 62 be
       -0.011301312 -0.04009976 0.2277479 -0.22130737
000110 19 9a b2 bd f1 7e 3f 3e 71 bd d5 3d 5d 49 51 3e
       -0.08720798 0.18700768 0.10436524 0.20438142
000120 a6 a6 f5 3c a5 10 a9 3b 9f bd 4c 3e a3 ea d6 3d
       0.02998669 0.005159455 0.1999421 0.10493972
000130 06 dc ed bd c9 72 dc 3d 50 6a 50 be 41 92 aa bd
       -0.11614232 0.10764081 -0.20353055 -0.08328677
000140 3c 6a fa 3c c7 0a d4 3b 9f 86 89 3d 96 84 e1 3c
       0.030568235 0.0064710113 0.0671513 0.027529042
000150 52 e7 8f bd cc f0 4d be 9b ea 84 3d 2e be 4f be
       -0.07026543 -0.20111388 0.0649006 -0.20287392
000160 15 74 7f 3e f1 d0 09 be 70 22 70 be 91 99 86 3e
       0.24946626 -0.13458611 -0.23450637 0.26289037
000170 3f 26 19 3d 96 c0 48 3e 00 73 24 be b2 3d ba 3d
       0.03738999 0.19604716 -0.16059494 0.09093799
000180 55 1c be bc d8 c7 0a 3e 9b 86 d2 b9 d4 e5 47 3e
       -0.02320687 0.13552797 -0.0004015461 0.19521266
000190 45 bd 58 be 9d a1 3e 3e 14 41 51 be 84 f2 35 be
       -0.2116595 0.18616338 -0.20434982 -0.17768294
0001a0 28 3a 71 3e e7 39 ca 3d de 1f 20 be d4 07 7b be
       0.23557341 0.09874325 -0.15637156 -0.24514705
0001b0 cd 4c 15 3d 8b 4a f1 bb 67 ad 2d bd 8b 16 6f 3e
       0.036450196 -0.0073636225 -0.042401697 0.23348443
0001c0 de a7 24 be 07 f3 d5 3d 8d 05 64 3e c5 f0 4e 3e
       -0.16079661 0.104467444 0.22267742 0.20209034
0001d0 a5 2f 2f 3e a7 e5 36 3b af 94 05 be b9 17 24 be
       0.17108019 0.002790788 -0.13045 -0.16024674
0001e0 50 83 f1 3c 06 01 83 be 8b 03 a9 3d 97 6e 55 3e
       0.02948156 -0.25586718 0.08252629 0.20842968
0001f0 77 28 4b bd e9 84 cd 3d 55 13 2b 3d a1 9a 0d be
       -0.049599137 0.10035116 0.041766483 -0.13828517
000200 0d 86 20 3e 5c cb ba 3a b3 be 1d be a5 00 f5 3b
       0.15676136 0.001425128 -0.15404777 0.0074768835
000210 e5 3a 51 be a2 50 82 3c 12 ae 5e 3e 65 40 73 3e
       -0.20432623 0.01590759 0.2174609 0.23755033
000220 5a 9a b4 bd f2 ee 46 3e 31 74 8d bd b6 f5 35 be
       -0.08818503 0.19427088 -0.069069274 -0.17769513
000230 e8 63 bf 3d 09 b9 67 be b0 ee 0f 3d ff 81 2b be
       0.093452275 -0.22629179 0.03513974 -0.16748808
000240 2c 56 c6 3d 71 04 f0 bd e1 f9 09 3d 94 27 31 be
       0.09684405 -0.11719597 0.03368557 -0.17300254
000250 54 69 53 be 17 b8 bd 3c 2a f2 ff 3d 11 47 3d be
       -0.20645648 0.02315907 0.12497361 -0.18484141
000260 94 9f f4 3d d5 69 b3 bd ae e3 53 3e 51 d0 1e 3c
       0.119444996 -0.0876042 0.20692322 0.009693221
000270 ce a1 75 3e 89 be 5c 3d ef 5e 38 3c c5 9e 17 be
       0.23987505 0.053892646 0.011253103 -0.1480666
000280 3d d9 18 3e fe 52 ee 3d bd 21 b4 bc f5 c3 df 3d
       0.1492662 0.11636923 -0.021988744 0.10926048
000290 9a b3 41 be 97 e3 a8 3c 7e 81 0f 3e 48 d9 09 bd
       -0.18916169 0.020616336 0.14014241 -0.03365448
0002a0 11 9a 58 be 1b 0d fe bd 97 34 e6 3d a7 eb 5f 3e
       -0.21152522 -0.124048434 0.112404995 0.21867238
0002b0 88 c7 81 be 89 53 3d be 44 9d 08 3e 01 68 40 be
       -0.25347543 -0.18488897 0.13341242 -0.18789674
0002c0 02 7a 63 be dd 78 9d bd 6e 8c 55 be 6d 4b e9 bd
       -0.22214511 -0.076890685 -0.20854351 -0.113913395
0002d0 09 e2 97 3c 89 4e 51 3e 74 37 7e be 81 6e 83 bd
       0.0185404 0.20440115 -0.24825841 -0.06417561
0002e0 f4 52 3a 3e a3 34 5f be 40 d3 70 be c3 6a 47 3e
       0.18195707 -0.21797423 -0.23518085 0.1947432
0002f0 0b 1f 33 3d 0a f2 55 3e ab 78 36 bd c0 3d 11 bd
       0.043730777 0.20893112 -0.04454867 -0.03545928
000300 c4 49 fb bc 8c 75 e5 bd 00 20 3a be fe 64 3b be
       -0.030674823 -0.11204061 -0.1817627 -0.18300244
000310 b6 da 05 be 74 13 13 be 25 15 96 bd ad 29 4b 3d
       -0.13071713 -0.1436289 -0.07328252 0.049600292
000320 ae 53 5c bd 1c 20 10 3c a8 0c c0 bd b7 c5 a2 bc
       -0.05379074 0.008796718 -0.09377414 -0.019869668
000330 cc bd 1c 3e 80 52 75 3e a5 a6 66 be bb 8a 15 3d
       0.15306777 0.23957253 -0.22524507 0.036509257
000340 b3 3e 92 3d fb 7f 47 bc 34 07 d0 3d 42 8f 49 bd
       0.07140865 -0.012176509 0.10157624 -0.049208887
000350 95 b9 cb bd 44 27 0d 3d ce d0 1d 3e 75 f2 fb bb
       -0.09947506 0.034461275 0.15411684 -0.0076888152
000360 cb b0 05 bd 67 e6 36 bd 84 bd a5 bd f3 f2 a9 bc
       -0.032639306 -0.044653323 -0.08092788 -0.02074573
000370 de 55 bf 3c 28 41 68 3e 42 07 f4 3d 06 a1 46 be
       0.023356374 0.22681105 0.11915447 -0.19397363
000380 69 44 46 3e 50 9c 2c bd 3e fe 25 bd a5 3e 48 bc
       0.19362034 -0.04214126 -0.040525667 -0.012221967
000390 73 cf 01 be 75 7f 06 be c9 a2 60 3e 39 b4 97 bd
       -0.12676792 -0.13134558 0.21937098 -0.074074216
0003a0 37 d8 70 3e ed 7e 15 3e 0b 4f 41 3e 46 02 7a 3e
       0.2351998 0.145992 0.18877809 0.2441493
0003b0 3a be 52 3e 1a 1b 7e 3d 5b f5 41 3e 24 01 41 3d
       0.20580378 0.062037565 0.18941252 0.04712023
0003c0 dc e3 8c bd 27 bf 24 be bc c0 7d 3e cf 4d 2b be
       -0.06879398 -0.16088544 0.24780554 -0.167289
0003d0 5f 25 40 3d b5 28 1c 3e d0 4c 6a bd 2a 95 e8 bd
       0.04691064 0.15249904 -0.05720216 -0.11356576
0003e0 94 de 3b be 3a 17 83 bd 0d 06 be bd da 60 2b 3e
       -0.18346626 -0.064009145 -0.09278498 0.16736165
0003f0 37 d9 f9 3d 09 b4 b0 3d 52 64 7a 3d a8 7c 22 3e
       0.121996336 0.08628089 0.06113083 0.15867865

encoder.epic.epic_layers.0.fc_global1.bias f4 [16]
000000 72 08 19 bd d6 f2 99 3d 18 28 31 3d a7 84 46 bd
       -0.03736157 0.075170204 0.043251127 -0.04846635
000010 63 7a a8 bd 7e 20 e0 3d 0e d9 14 bd b9 97 1b bb
       -0.082264684 0.109436974 -0.036339812 -0.0023741557
000020 95 45 d5 3d a2 df 1f 3e 1f 13 aa bc 5c 8f 96 3d
       0.10413662 0.15612653 -0.02076107 0.073515624
000030 63 20 2c 3e 74 31 d2 3b 27 e4 30 bd 65 0b 47 3d
       0.1680923 0.0064145867 -0.043186333 0.04859485

encoder.epic.epic_layers.0.fc_global1.weight_g f4 [16, 1]
000000 8a 35 1b 3f 66 a7 13 3f 6a 4f 0b 3f 6f fa 09 3f
       0.6062857 0.57677305 0.5441805 0.53897756
000010 b8 45 20 3f 75 72 0b 3f b4 dd 0b 3f c3 7e 10 3f
       0.6260638 0.5447152 0.5463517 0.56443423
000020 37 c6 13 3f 69 32 13 3f ae ca 02 3f ef 49 12 3f
       0.57724327 0.57498795 0.51090515 0.57144064
000030 7f 65 22 3f 65 f5 18 3f 22 35 12 3f eb 17 16 3f
       0.6343612 0.5974944 0.57112324 0.58630246

encoder.epic.epic_layers.0.fc_global1.weight_v f4 [16, 64]
000000 93 6f ae bd 0f 1a 8c 3c 3e af 42 bd f5 30 65 3c
       -0.08517375 0.01710227 -0.047530405 0.013988723
000010 96 11 da 3d 72 eb 70 3d fd 2d 4f bd c5 18 6c bd
       0.106478855 0.05881829 -0.050580967 -0.05764081
000020 3e 48 04 3d 4e 3a fe 3c 25 f7 e1 3c 89 1e d7 bd
       0.032295458 0.031033661 0.027583668 -0.10503871
000030 37 09 41 bc 02 56 a3 3d b0 ce ad bd e4 09 35 3b
       -0.011781982 0.07975389 -0.08486688 0.0027624303
000040 38 47 45 3b 56 5e 99 bd d4 71 8e 3d c7 a0 ef bd
       0.0030102264 -0.07488696 0.06955305 -0.11700588
000050 a8 97 0c bd 1a d9 d8 bd e4 8f 93 bc 35 76 d0 3c
       -0.03432432 -0.10588284 -0.018012948 0.02544699
000060 da 6f f0 bd 71 96 9a bd 2d f3 fe bd 94 ac db bd
       -0.11740084 -0.07548226 -0.12448726 -0.10726276
000070 a5 6f bd bd 7b 53 5c bb b4 cc c9 3d 0b bd 80 3d
       -0.0924981 -0.0033619094 0.09853497 0.06286057
000080 ac 99 0e 3d 0d 13 2c 3d 07 44 34 bd 0f b4 08 3d
       0.03481452 0.042010356 -0.04401019 0.033374842
000090 17 09 94 bd 10 9c 63 3d 70 44 96 3d a3 a1 86 3c
       -0.07228296 0.055568755 0.07337272 0.016434496
0000a0 d8 09 74 3d 7e 01 20 bd a1 3a 25 3d 75 3e bb bd
       0.0595797 -0.039063923 0.040339116 -0.09142772
0000b0 65 cd 90 39 fc 7f cc 3d 07 7d 14 3b 31 1b b4 bd
       0.0002761885 0.099853486 0.002265753 -0.08794249
0000c0 17 60 b6 bd 58 0c 94 bd 6b 3f 78 bd 20 39 a5 ba
       -0.089050464 -0.07228917 -0.060607355 -0.0012605526
0000d0 35 6d b1 3c a9 a8 0c bd 1b dd f4 bd 90 f5 8e 3c
       0.02165852 -0.034340534 -0.11956235 0.017451078
0000e0 cb 60 e6 bd d8 b2 59 bd 29 4f c8 bd b8 c9 d9 bc
       -0.112489305 -0.053149074 -0.097807236 -0.026585445
0000f0 18 74 53 3d fc bc b6 bd f5 3f d9 3d 57 f3 d3 3d
       0.051624388 -0.08922765 0.10607902 0.10349148
000100 79 68 af bd d0 93 da 3d 0c 3f 85 3d 9e 0e 69 bc
       -0.085648485 0.10672724 0.06506166 -0.014224676
000110 da 8e 30 bd e3 a0 2e 3d 80 a9 c2 bc 39 7f 3e 3d
       -0.043104984 0.042633902 -0.023762465 0.046508048
000120 ac 00 2c bd 4b 15 9f 3d 87 2b db 3d 5d 23 dd bd
       -0.04199283 0.07767733 0.107016616 -0.10797761
000130 2d bd 9b b9 11 59 d2 3c c0 93 69 bd 6a 94 0e bd
       -0.0002970485 0.025677236 -0.05702567 -0.034809507
000140 f4 be 8a 3c 1f 5b a4 3b 75 29 a3 bd 66 5a c5 3d
       0.016936757 0.0050157453 -0.07966892 0.09636383
000150 25 33 df bd 5c 38 a3 bd ea 77 a2 bd 20 8d dc 3d
       -0.10898427 -0.07969734 -0.07933028 0.10769105
000160 95 f5 73 bc 38 05 fc 3d 13 08 ca bb f7 79 64 bd
       -0.014890094 0.12305683 -0.0061655133 -0.055780377
000170 b1 a9 58 bb 81 d7 f7 3c fa 12 a0 3c dc f2 a8 3d
       -0.0033060128 0.030254127 0.019540299 0.08249447
000180 1f 0f 9d bd d8 c6 ae 3d 5f 26 48 3d b9 b4 81 3d
       -0.076689 0.0853402 0.04886472 0.06333298
000190 4c af b8 bc 2d 97 fc b7 2c 79 69 3b 48 2d 48 bc
       -0.022544526 -3.0111138e-05 0.0035625203 -0.012217827
0001a0 5b e6 ca 3d 6b 9b a2 3c 7d d9 3e bd cd 4b 55 bd
       0.09907218 0.0198495 -0.04659413 -0.052074242
0001b0 b3 0c a1 3d 31 47 81 3d 16 19 19 3c a9 c4 ae bc
       0.0786375 0.06312407 0.00934436 -0.02133401
0001c0 5e 1f 03 bd 93 f6 1c 3e a4 4a 14 3e 61 22 aa bd
       -0.032012336 0.15328436 0.14481598 -0.083073385
0001d0 c5 82 28 3d 46 c3 ac bd dc 05 e8 3d 2a 40 a0 bb
       0.041140337 -0.08435683 0.113292426 -0.0048904615
0001e0 31 dd 97 3d 05 23 0b 3d 5e 58 75 3c ed 4c 82 3d
       0.07415236 0.033968944 0.014974682 0.06362329
0001f0 d7 06 11 3d 42 e5 2f bd 4c 15 41 3d 77 44 c3 bd
       0.035406914 -0.042943247 0.04713945 -0.09534543
000200 c6 93 61 3d b1 03 bc 3d 17 52 51 3d c8 94 64 bd
       0.05507257 0.091803916 0.051103678 -0.05580595
000210 66 eb 0e 3e 2b 1a 12 3d 76 9c 0c be e5 a4 2e bd
       0.13956985 0.035669487 -0.1373156 -0.042637724
000220 cc 6f d2 bd 35 66 04 3e d8 ba 5a 3c 35 11 ed bb
       -0.1027523 0.12929614 0.013350211 -0.0072347173
000230 59 6c d2 3d 96 b3 cc bd 08 9a 86 3d 38 42 9a 3d
       0.10274572 -0.09995191 0.06572348 0.075321615
000240 a8 77 fa 3d 95 2a 5e bd 79 1f c9 bd 71 41 9d 3c
       0.12229854 -0.05423983 -0.09820456 0.019196244
000250 d8 92 87 3d 1c f8 12 3e 9e 50 b0 bd 62 56 a9 bc
       0.06619805 0.14352459 -0.086091265 -0.020671073
000260 1c ea af bd 2d 1e 75 bb fc b1 ae bc 99 6e b5 3c
       -0.08589575 -0.003740202 -0.021325104 0.022147464
000270 fd 2e 52 bb b5 86 58 3d c3 bd 09 3d 57 ee d9 3d
       -0.0032071464 0.05286284 0.033628237 0.10641163
000280 da 9a 4e 3d 87 d0 a9 bd 08 15 1c bb b9 59 b2 3c
       0.050440647 -0.082917266 -0.0023816247 0.021771299
000290 9c ff db bd 8a 9d 48 bd c8 ad 88 3d 6c be 19 3d
       -0.10742113 -0.048978366 0.06673771 0.037535116
0002a0 83 61 c2 3d c5 ab e0 bd 7b fd 08 3e 2c f5 b6 3d
       0.09491255 -0.109702624 0.13377945 0.089334816
0002b0 4b 9e d8 3d c5 cc 22 3c 83 76 f3 bc 03 cd ff 3d
       0.10577067 0.009936516 -0.029719597 0.12490275
0002c0 1c 7d 0c 3e a7 cc eb 3d 44 82 0b 3c 59 2b 5b bd
       0.137196 0.11513644 0.008514944 -0.053508136
0002d0 25 fa 29 3d bc 32 01 bd 8e bb b7 bd d6 67 b5 3d
       0.041498322 -0.031542525 -0.0897132 0.08857696
0002e0 f8 66 75 3d e2 55 de bd 10 f3 e9 3d 59 7e f5 3d
       0.05991265 -0.108562246 0.114233136 0.119869895
0002f0 ad 96 f6 3c c7 38 3c 3d 07 bc 0c be a6 75 7d 3d
       0.030101145 0.045952585 -0.13743602 0.061879776
000300 66 7b aa bd 00 f1 1c be 80 f7 c8 3d 19 94 8d bd
       -0.08324318 -0.15326309 0.09812832 -0.06913013
000310 48 5f ff bd 9d da 80 bc 7b d7 e3 bd 59 8d e5 3c
       -0.12469345 -0.015729243 -0.11125084 0.028021501
000320 cb 8b 6f 3c 5a de 4a bd 49 79 4c bd c4 d5 2f bd
       0.014620732 -0.049528457 -0.049920354 -0.042928472
000330 cf 7e e1 bd 74 80 e0 bd eb a8 0d be dc 7b 1c 3d
       -0.11010515 -0.109620005 -0.13833968 0.03820406
000340 98 3f 4c 3d 59 d8 61 3d 5a c4 bd bd 24 c2 15 bd
       0.049865335 0.055137966 -0.09265967 -0.0365621
000350 bb a8 00 3c d8 83 f3 3d ab cc 46 3d 87 df 03 be
       0.0078527285 0.118903816 0.04853503 -0.12878238
000360 af 6f f1 3c 7b 48 80 bc 9e c2 80 bc 14 b1 70 bd
       0.0294722 -0.015659561 -0.0157178 -0.058762625
000370 43 2f bd 3d 69 ac 9e bd 6e 3a bb bd b1 04 56 39
       0.0923753 -0.077477284 -0.09142004 0.00020410378
000380 bc 0f 88 3d 36 45 7d 3c 69 0c 8f bd b8 33 98 bd
       0.06643626 0.015458396 -0.06984789 -0.074317396
000390 5a 55 6e 3d 83 f8 0a 3e 4a b9 b1 3d 55 78 0b 3e
       0.058186866 0.13571362 0.08677919 0.13620122
0003a0 ee 84 9f bd 76 41 e1 3d 8d 84 b0 bd a3 c6 09 3e
       -0.07789026 0.10998814 -0.08619032 0.1345468
0003b0 1c 25 cf 3d ab 7d 35 bc c8 d9 c0 bd b5 6c 34 bb
       0.101145 -0.011077325 -0.094165385 -0.0027530615
0003c0 4a eb 01 3d e9 04 86 bd 51 78 22 bd 2e cd 7f 3c
       0.03171853 -0.06543905 -0.039665524 0.0156128835
0003d0 19 03 42 3c a1 e5 17 be 91 49 67 bd f4 13 3f 3d
       0.011841559 -0.1483369 -0.056466643 0.04664989
0003e0 bb 48 a8 bc 59 69 9e bc 26 c6 58 bd ed 56 b7 3d
       -0.020542493 -0.019337343 -0.052923344 0.08952127
0003f0 c2 47 66 3c 9a 36 64 3d 01 7d 1e bd 4f 1f d0 3d
       0.014055194 0.055716135 -0.03869343 0.10162222

encoder.epic.epic_layers.0.fc_global2.bias f4 [16]
000000 a8 5a c6 3d 3e 0a ec bc 86 8d 1f bd 0d d5 4d 3e
       0.0968526 -0.028813478 -0.038953327 0.20100804
000010 07 39 d1 bd 3b e1 2b 3e 6e 5c 38 3e e0 9d 14 3c
       -0.10215955 0.16785137 0.18004009 0.009070843
000020 5c 7e e5 3c 50 50 9e 3d ba bb 6d 3e f1 95 d9 bd
       0.028014354 0.07730162 0.23216143 -0.10624302
000030 b9 6b a0 bd ab 8f 6c be 51 af b5 3c 2d b0 5d be
       -0.078330465 -0.2310168 0.022178324 -0.21649237

encoder.epic.epic_layers.0.fc_global2.weight_g f4 [16, 1]
000000 16 a2 12 3f cb 03 0b 3f 26 01 fb 3e cd d7 10 3f
       0.57278574 0.5430266 0.49024314 0.56579286
000010 34 a4 28 3f 70 25 20 3f c1 5a 14 3f 4f ba 09 3f
       0.65875554 0.62557125 0.5795098 0.5379991
000020 c8 2c 05 3f 69 b2 18 3f de ea 00 3f 3b 89 49 3f
       0.52021456 0.5964723 0.5035838 0.7872502
000030 4b f0 f5 3e 59 f6 32 3f 60 8c 0d 3f fe 1b 12 3f
       0.4803489 0.69907147 0.5529232 0.5707396
