tests/output/multimodal-jets/5c5224a57a244bd4b8fa7a886afa7c12/checkpoints/better.ckpt (torch, 47038 bytes, 91 tensors)

embedder.embedding_continuous.embedding.weight f4 [4, 3]
0	0xbf0e3d18	-0.5556197
1	0x3f147964	0.5799773
2	0x3f0d5f09	0.5522314
3	0xbe8bce63	-0.27305898
4	0x3d502cb3	0.05082388
5	0xbdc02dd6	-0.093837425
6	0xbe9849ac	-0.29743707
7	0xbe017624	-0.12642723
8	0xbd7df556	-0.06200155
9	0xbe07323b	-0.13202755
10	0xbf095cd4	-0.5365727
11	0x3d13d84a	0.03609494

embedder.embedding_continuous.embedding.bias f4 [4]
0	0x3e83fbfa	0.2577818
1	0xbe24e70d	-0.16103764
2	0xbedf51cc	-0.43617094
3	0x3dc40c03	0.095726036

embedder.embedding_discrete.embedding.weight f4 [8, 4]
0	0x3f86c3f8	1.0528555
1	0x3ed0f660	0.4081297
2	0xbf70c54e	-0.94051063
3	0xbe8fb757	-0.28069565
4	0xc00f1aa2	-2.2360005
5	0xbfc6a23a	-1.5518258
6	0xbf810de8	-1.0082369
7	0x3fb216b0	1.3913174
8	0x400bcca4	2.1843653
9	0xbd1cf2c2	-0.03831745
10	0x3fbe7f18	1.4882536
11	0xc01b6c98	-2.428503
12	0xbf776829	-0.9664331
13	0x3f71da2b	0.9447352
14	0x3e437400	0.19087219
15	0xbfd5bed7	-1.6698865
16	0xbee8dda3	-0.45481595
17	0x3ee38191	0.4443479
18	0x3f2a3681	0.66489416
19	0x3f189d9e	0.59615505
20	0x3f908711	1.1291219
21	0xbee40b6d	-0.44539967
22	0x3ee14b2d	0.44002667
23	0xbf57dc41	-0.84320456
24	0x3f5acae1	0.8546582
25	0x3fd2add3	1.6459297
26	0xbf36bb06	-0.71379125
27	0x3efa7cd2	0.48923355
28	0xbf8480dc	-1.0351825
29	0x3d22eec5	0.03977849
30	0xbf4e3f2d	-0.8056515
31	0x3df8896d	0.12135587

encoder.epic.epic_proj.local_0.bias f4 [4]
0	0x3d92350f	0.071390264
1	0x3e50c902	0.20389178
2	0x3e925cd3	0.28586444
3	0xbdf65604	-0.12028125

encoder.epic.epic_proj.local_0.weight_g f4 [4, 1]
0	0x3f0335bf	0.51253885
1	0x3f134a4e	0.57535255
2	0x3f121de7	0.5707688
3	0x3f01b239	0.5066257

encoder.epic.epic_proj.local_0.weight_v f4 [4, 12]
0	0x3a5e1313	0.000847147
1	0xbe2c225d	-0.16809984
2	0x3df6a3b7	0.12042945
3	0xbe0e3a99	-0.1388954
4	0xbcd34b73	-0.025792813
5	0x3c8ec504	0.017427929
6	0x3de255d5	0.110515274
7	0xbe562f03	-0.20916371
8	0x3df5b47c	0.11997315
9	0xbcad95d8	-0.021189615
10	0x3e49be3c	0.19701475
11	0x3e7d405c	0.24731582
12	0xbea17c59	-0.31540182
13	0x3d9a7d09	0.0754338
14	0xbe4314ef	-0.19050954
15	0xbd8edbbc	-0.06975505
16	0x3e2b8ca1	0.16752864
17	0x3e180aa5	0.1484781
18	0x3e481c74	0.19542104
19	0x3e4391e2	0.19098619
20	0xbdcbd770	-0.09953201
21	0xbe522979	-0.20523633
22	0x3e068c8f	0.13139556
23	0xbe0f1465	-0.13972624
24	0xbd89bb0e	-0.06725131
25	0xbe464b08	-0.1936456
26	0x3a12549e	0.0005582067
27	0x3e537cd6	0.2065309
28	0x3e90cf67	0.28283235
29	0xbd458236	-0.048219882
30	0x3dc6278c	0.09675512
31	0x3cff04a2	0.031130139
32	0xbe6a28c8	-0.2286712
33	0xbd048e9a	-0.032362558
34	0xbc46e716	-0.012140056
35	0xbe99b035	-0.30017248
36	0x3e0dd61d	0.13851209
37	0xbe40e06f	-0.18835615
38	0xbe63479f	-0.2219529
39	0x3e885f87	0.26635382
40	0x3e001837	0.12509237
41	0xbcb698ed	-0.022289718
42	0xbd1424cb	-0.0361679
43	0xbe828d7e	-0.25498575
44	0xbde43283	-0.11142447
45	0x3ba39b4e	0.004992879
46	0xbd80b5a8	-0.06284648
47	0x3ddf5de9	0.10906584

encoder.epic.epic_proj.global_0.bias f4 [4]
0	0xbe75aad0	-0.23990941
1	0xbd030bb0	-0.031993568
2	0x3dd709b0	0.104998946
3	0x3e833723	0.25628003

encoder.epic.epic_proj.global_0.weight_g f4 [4, 1]
0	0x3ef5a525	0.47977558
1	0x3f060a69	0.52359635
2	0x3f0f3893	0.559457
3	0x3f0a1a8b	0.5394675

encoder.epic.epic_proj.global_0.weight_v f4 [4, 12]
0	0x3e33392e	0.17502281
1	0x3e1d5f08	0.15368283
2	0x3e3b09a9	0.18265404
3	0x3dbaad51	0.09115089
4	0x3e2e44a6	0.17018375
5	0xbd812f8f	-0.06307899
6	0x3e718446	0.23585615
7	0xbe1810e4	-0.14850193
8	0x3ade7610	0.0016972441
9	0xbe0b3960	-0.13596106
10	0xbe416693	-0.18886785
11	0x3df03efa	0.11730762
12	0x3e9650b5	0.2935845
13	0x3dea5904	0.1144276
14	0xbd130cbf	-0.035900827
15	0x3e855c3a	0.26046926
16	0xbd5b89c8	-0.053598195
17	0x3e4e3020	0.20135546
18	0xbddad48c	-0.10685071
19	0xbcfa9129	-0.030586796
20	0xbe33fe31	-0.17577435
21	0xbe203087	-0.15643512
22	0x39a0f97c	0.00030703458
23	0xbe122460	-0.14271688
24	0xbe6cacdf	-0.2311282
25	0xbe947f71	-0.2900348
26	0xbe384f0c	-0.17998904
27	0x3dc36aa4	0.095418245
28	0xbe9191f8	-0.28431678
29	0x3e1ceade	0.1532397
30	0x3dbd2547	0.09235626
31	0x3d1f679c	0.03891717
32	0xbe5d8725	-0.21633585
33	0xbe239595	-0.1597503
34	0x3d61dc2b	0.05514161
35	0xbdc3f773	-0.095686816
36	0xbe1b008f	-0.15136932
37	0x3e0bc8bd	0.13650794
38	0xbdb02969	-0.08601648
39	0x3d0a2e13	0.033735346
40	0xbe6f22d0	-0.23353124
41	0x3e665b15	0.22495683
42	0x3d319419	0.043354128
43	0x3dff6b6d	0.12471662
44	0xbda703c6	-0.081550166
45	0x3e28cc87	0.16484271
46	0x3e5d5ac4	0.21616656
47	0x3ddf6300	0.109075546

encoder.epic.epic_proj.global_1.bias f4 [4]
0	0xbee3dca3	-0.4450427
1	0xbf031431	-0.51202685
2	0xbf016504	-0.5054476
3	0x3d9431a7	0.07236033

encoder.epic.epic_proj.global_1.weight_g f4 [4, 1]
0	0x3f260a11	0.6485911
1	0x3edc3016	0.43005437
2	0x3f17a38f	0.59233946
3	0x3f3c1682	0.73471844

encoder.epic.epic_proj.global_1.weight_v f4 [4, 4]
0	0x3ebe1c0c	0.37130773
1	0xbeb18d8e	-0.3467831
2	0x3d823f06	0.06359677
3	0x3edc0402	0.42971808
4	0xbd545db2	-0.051847167
5	0x3d0b986d	0.03408091
6	0xbe30a66c	-0.17250985
7	0xbec3c8ba	-0.3823908
8	0xbeaa8fcd	-0.33312836
9	0x3eca9739	0.395685
10	0xbd993d8d	-0.07482443
11	0xbe1ae1a1	-0.15125133
12	0x3e5511ed	0.2080762
13	0xbe9f03ec	-0.3105768
14	0xbecb8c08	-0.39755273
15	0x3edd025b	0.4316586

encoder.epic.epic_proj.global_2.bias f4 [4]
0	0x3e36a730	0.17837214
1	0xbee9153a	-0.45524007
2	0x3e85c60f	0.2612767
3	0xbe77ea1b	-0.24210398

encoder.epic.epic_proj.global_2.weight_g f4 [4, 1]
0	0x3f045564	0.51692796
1	0x3f3cdec7	0.7377743
2	0x3f1ad3a6	0.604792
3	0x3f16904a	0.5881392

encoder.epic.epic_proj.global_2.weight_v f4 [4, 4]
0	0xbe8b99fd	-0.2726592
1	0xbe19c986	-0.15018281
2	0xbe69f569	-0.22847523
3	0x3e8db1fb	0.2767485
4	0xbee57355	-0.44814554
5	0x3e4d3ed1	0.20043494
6	0x3ed686ee	0.41899818
7	0xbecf5937	-0.40497753
8	0xbe94b623	-0.2904521
9	0xbe8027b6	-0.25030297
10	0x3c289610	0.010289684
11	0xbee6c528	-0.45072293
12	0xbee070eb	-0.4383615
13	0xbe16336a	-0.1466805
14	0xbe7914ce	-0.24324343
15	0x3e3f3949	0.18674196

encoder.epic.epic_layers.0.fc_global1.bias f4 [4]
0	0xbca904b5	-0.020632127
1	0x3e2cef36	0.16888127
2	0xbdd71aba	-0.105031446
3	0xbd3fa9da	-0.046792842

encoder.epic.epic_layers.0.fc_global1.weight_g f4 [4, 1]
0	0x3ef18fb3	0.47179946
1	0x3ee38b01	0.4444199
2	0x3f386f61	0.7204495
3	0x3f10c917	0.5655684

encoder.epic.epic_layers.0.fc_global1.weight_v f4 [4, 16]
0	0x3dc512fd	0.09622762
1	0xbd18660f	-0.037206706
2	0x3e0912b8	0.13386047
3	0xbb151a7c	-0.0022751382
4	0x3c7ae65c	0.015313711
5	0x3c42be89	0.011886247
6	0xbe2306d4	-0.15920573
7	0xbe3e3209	-0.18573774
8	0xbe03bdf9	-0.12865438
9	0x3d60c2e2	0.054873355
10	0x3d0c7488	0.03429082
11	0x3d0bb130	0.034104526
12	0xbe215e95	-0.15758736
13	0xbe03574f	-0.12826274
14	0x3d2e331d	0.042529214
15	0x3d569fda	0.05239854
16	0x3d8ff638	0.070293844
17	0x3da5585b	0.08073493
18	0x3d962fd0	0.07333338
19	0x3d270836	0.040779315
20	0xbda62f2b	-0.08114465
21	0x3cbfa560	0.023394287
22	0x3dee550e	0.11637317
23	0xbdbe455b	-0.09290572
24	0x3de5b8a8	0.11216861
25	0xbccc297f	-0.02492213
26	0xbdf50c32	-0.11965217
27	0x3d5dc95d	0.054147113
28	0xbe36cf3e	-0.17852494
29	0xbe83214f	-0.2561135
30	0xbe353293	-0.17695074
31	0xbe72ceff	-0.23711775
32	0xbdbb57ab	-0.09147581
33	0x3e2d0aa1	0.16898586
34	0x3e1ca340	0.1529665
35	0x3e141b90	0.1446364
36	0xbe4d0135	-0.20019992
37	0xbb37e7c2	-0.0028061722
38	0x3df57619	0.11985416
39	0x3e48de7a	0.19616118
40	0x3e5a8c62	0.21342614
41	0xbc3f28f2	-0.011667477
42	0x3e57b613	0.2106555
43	0xbd99229d	-0.07477305
44	0xbe3711a1	-0.17877819
45	0xbcd16b0f	-0.025563745
46	0xbe4ae549	-0.19814028
47	0x3e4d5c1f	0.20054673
48	0xbe196cd5	-0.14982922
49	0x3dcdaf0c	0.10043153
50	0x3de6d163	0.11270406
51	0xbe10041e	-0.1406407
52	0x3d70d073	0.058792543
53	0x3d701762	0.05861605
54	0xbe31ff69	-0.17382587
55	0xbe774b0d	-0.24149723
56	0xbd738f44	-0.0594628
57	0xbe3dfde1	-0.18553878
58	0x3d769bc0	0.06020713
59	0x3e62a21e	0.22132155
60	0x3d2d68fa	0.04233644
61	0xbb98dcc6	-0.00466499
62	0xbc1d059e	-0.009583859
63	0x3e467520	0.19380617

encoder.epic.epic_layers.0.fc_global2.bias f4 [4]
0	0xbe0f963a	-0.1402215
1	0xbdfdf2e4	-0.12399843
2	0xbeae3789	-0.34026745
3	0x3ec654f9	0.38736704

encoder.epic.epic_layers.0.fc_global2.weight_g f4 [4, 1]
0	0x3ed5b227	0.41737482
1	0x3f0565a9	0.52108246
2	0x3f35d85a	0.7103325
3	0x3f38e331	0.72221667

encoder.epic.epic_layers.0.fc_global2.weight_v f4 [4, 4]
0	0xbe04ad58	-0.1295675
1	0xbe805cd9	-0.25070837
2	0x3e832925	0.25617328
3	0xbdd4a28b	-0.10382565
4	0x3b0cf03f	0.0021505503
5	0xbe84a2c0	-0.25905418
6	0x3ec978c8	0.3934996
7	0xbe250c4d	-0.16117974
8	0x3d9f0025	0.077636994
9	0x3ef60a80	0.48054886
10	0xbed164db	-0.4089726
11	0x3ebdcc7a	0.37070066
12	0x3ee7bfad	0.45263425
13	0xbede31ac	-0.43397272
14	0xbe4e882d	-0.20169134
15	0x3e55aca5	0.2086664

encoder.epic.epic_layers.0.fc_local1.bias f4 [4]
0	0x3dba4b11	0.09096349
1	0xbd90da44	-0.07072881
2	0x3e566715	0.2093776
3	0xbe45b9de	-0.19309184

encoder.epic.epic_layers.0.fc_local1.weight_g f4 [4, 1]
0	0x3f2288e8	0.6349015
1	0x3f1001c4	0.56252694
2	0x3ee4d3a2	0.44692713
3	0x3f14c99e	0.58120143

encoder.epic.epic_layers.0.fc_local1.weight_v f4 [4, 12]
0	0xbe92ee9e	-0.28697675
1	0xbe2ac20d	-0.16675587
2	0xbe87e7b4	-0.26543963
3	0x3e583352	0.21113327
4	0xbe81cebf	-0.25353047
5	0xbe9f2b38	-0.3108766
6	0x3d0ec7ea	0.03485862
7	0x3d903eb0	0.07043207
8	0x3d907710	0.07053959
9	0x3e684fb3	0.22686653
10	0x3e58bc5a	0.211656
11	0xbd888ce7	-0.066675
12	0xbe85488c	-0.2603191
13	0x3e0b5c59	0.13609447
14	0xbe4f6276	-0.20252404
15	0xbe9b0cfa	-0.30283338
16	0xbe63e14c	-0.22253913
17	0x3e0bed83	0.13664822
18	0x3e356036	0.17712483
19	0xbd210983	-0.03931571
20	0x3d92a2f6	0.071599886
21	0x3e48c70d	0.19607182
22	0xbd51bf75	-0.05120798
23	0xbe34ba3b	-0.17649166
24	0xbdc86cd1	-0.0978638
25	0xbe4c34f7	-0.1994208
26	0x3dbbf6e3	0.09177949
27	0xbdc2a890	-0.09504807
28	0x3e21181b	0.15731852
29	0xbe15ef0a	-0.14641967
30	0x3e239ebe	0.15978524
31	0x3db85c5e	0.09001993
32	0xbd90e787	-0.0707541
33	0x3c718075	0.014740099
34	0x3d52957b	0.051412087
35	0xbe0c54ff	-0.13704298
36	0x3e153cee	0.14574024
37	0x3cc682fa	0.024232376
38	0x3e89b049	0.26892307
39	0xbd91d491	-0.07120622
40	0x3e960da5	0.29307285
41	0xbe3de4f8	-0.18544376
42	0xbe1c5d14	-0.15269881
43	0xbd8aeea0	-0.06783795
44	0xbe5d6f7c	-0.21624559
45	0x3d2a1f72	0.041533895
46	0x3e3d30f5	0.18475707
47	0x3e226b6c	0.1586129

encoder.epic.epic_layers.0.fc_local2.bias f4 [4]
0	0xbeed7068	-0.46374822
1	0x3ddb11bb	0.10696741
2	0x3ecc1dca	0.39866477
3	0x3ebfe72c	0.37481058

encoder.epic.epic_layers.0.fc_local2.weight_g f4 [4, 1]
0	0x3f2a7f79	0.6660076
1	0x3f06b32a	0.5261713
2	0x3f1181fd	0.5683897
3	0x3ef765c4	0.4831983

encoder.epic.epic_layers.0.fc_local2.weight_v f4 [4, 4]
0	0xbec2a4af	-0.3801627
1	0xbeb1ee0e	-0.34751934
2	0xbe53532a	-0.20637193
3	0xbe9575dd	-0.29191485
4	0xbe6e6921	-0.23282291
5	0x3e6292f5	0.22126372
6	0x3ecee0da	0.40405923
7	0xbdf2e8e5	-0.11860827
8	0xbe1eec5b	-0.1551985
9	0x3d9cf7b4	0.07664433
10	0x3eaa7427	0.33291742
11	0x3ef40a8e	0.47664303
12	0x3ed41831	0.41424707
13	0xbd302cee	-0.0430116
14	0xbe49b3c9	-0.19697489
15	0x3e69f291	0.22846438

encoder.epic.output_layer.bias f4 [11]
0	0xbe35ba33	-0.1774681
1	0xbda63267	-0.08115082
2	0xbea42cb1	-0.32065347
3	0xbb78ee7b	-0.0037983942
4	0xbefd3f04	-0.4946214
5	0xbecf04dd	-0.40433398
6	0x3f048229	0.5176111
7	0xbe828fdc	-0.2550038
8	0xbe28bac1	-0.16477491
9	0xbed33b4b	-0.41256174
10	0x3e97cdf5	0.2964932

encoder.epic.output_layer.weight_g f4 [11, 1]
0	0x3e90cd8e	0.28281826
1	0x3f01995a	0.5062462
2	0x3ec6672a	0.38750583
3	0x3f325fad	0.6967724
4	0x3f387acb	0.7206237
5	0x3f049372	0.51787484
6	0x3ed87057	0.42273208
7	0x3f0b65e4	0.5445235
8	0x3f253d49	0.6454664
9	0x3ecedc32	0.4040237
10	0x3eeb39ee	0.45942634

encoder.epic.output_layer.weight_v f4 [11, 4]
0	0x3d923bdb	0.07140323
1	0xbcedd22d	-0.029030884
2	0x3e8a491c	0.27008903
3	0x3c020c4c	0.007937502
4	0x3ed3388b	0.41254076
5	0x3ea48123	0.32129773
6	0x3b7f5b1e	0.0038964222
7	0xbdd99fab	-0.106261574
8	0xbe70d596	-0.23518977
9	0xbe8e5897	-0.27801964
10	0x3e1b73cf	0.15180896
11	0x3d53ce1f	0.051710244
12	0xbeb70f8b	-0.35754046
13	0x3eb9cfce	0.36291355
14	0xbec8be8f	-0.39207885
15	0xbeaf97eb	-0.34295592
16	0xbefd41ea	-0.4946435
17	0x3ee53fec	0.4477533
18	0x3ea4d15d	0.32190982
19	0x3d3eff2a	0.046630062
20	0xbee23192	-0.44178444
21	0x3d985c6f	0.07439505
22	0x3e35b96e	0.17746517
23	0xbe9366bd	-0.2878932
24	0xbe5a9d00	-0.21348953
25	0x3d9a06a3	0.07520797
26	0x3e4edbad	0.20200987
27	0xbe4990c2	-0.19684127
28	0x3e1171a4	0.14203507
29	0x3f02a961	0.510397
30	0xbdb87bb6	-0.09007971
31	0x3e87518b	0.264294
32	0xbec55dd9	-0.38548163
33	0x3ec54094	0.38525832
34	0xbeaf7623	-0.3426982
35	0x3dea550d	0.114420034
36	0xbd0554b6	-0.03255149
37	0xbd31e8a2	-0.043434747
38	0xbea0cf88	-0.31408334
39	0x3e859390	0.26089144
40	0xbdb8bdb1	-0.09020556
41	0x3d44ae48	0.04801777
42	0xbe0f0762	-0.1396766
43	0xbec46452	-0.38357788

loss_multimode.loss_weights f4 [2]
0	0x3d1ead3b	0.038739424
1	0x3d1e6ecf	0.038679894

exp_avg f4 [4, 3]
0	0x3bd7d81e	0.0065870425
1	0xba30bc71	-0.0006741947
2	0x3b491a6c	0.0030685915
3	0xbb6b621c	-0.0035916632
4	0xbb1f9a1e	-0.0024353336
5	0x3ab36e12	0.001368942
6	0x3a20578b	0.00061165605
7	0xbb16cbe5	-0.0023009714
8	0x3b338450	0.0027392097
9	0xbb0068c4	-0.0019593695
10	0xbb044ac1	-0.0020186158
11	0x3ac739a6	0.0015199676

exp_avg_sq f4 [4, 3]
0	0x36191632	2.2811696e-06
1	0x35bfbea6	1.4286095e-06
2	0x35b34d9b	1.3359125e-06
3	0x35a4bd57	1.2274057e-06
4	0x35d15dfd	1.5599068e-06
5	0x35c215d8	1.4460484e-06
6	0x341d583a	1.4653861e-07
7	0x3626b96f	2.4843864e-06
8	0x35f54ab9	1.827567e-06
9	0x355c2ae4	8.20188e-07
10	0x363b597b	2.7917256e-06
11	0x3609e8cb	2.0550094e-06

exp_avg f4 [4]
0	0xbb592a76	-0.003313688
1	0x3baafd1f	0.0052181627
2	0x3b1bfb7b	0.0023801017
3	0x3b72677d	0.0036987953

exp_avg_sq f4 [4]
0	0x35cb5ca2	1.5151638e-06
1	0x3688cb70	4.076799e-06
2	0x360ab654	2.0669731e-06
3	0x36928cef	4.367546e-06

exp_avg f4 [4]
0	0x3a650264	0.0008736013
1	0x3cdde4d6	0.027086657
2	0xbce3a626	-0.027789187
3	0x3aa4689e	0.0012543385

exp_avg_sq f4 [4]
0	0x35da5898	1.626805e-06
1	0x3916883a	0.00014355863
2	0x387cb013	6.0245464e-05
3	0x35d181d2	1.5609496e-06

exp_avg f4 [4, 1]
0	0xba396e7a	-0.0007073652
1	0xb8a83d77	-8.022313e-05
2	0xbb82e74d	-0.0039948584
3	0x39119d55	0.00013886888

exp_avg_sq f4 [4, 1]
0	0x3392a907	6.829401e-08
1	0x35e7f691	1.7282601e-06
2	0x3545e912	7.372738e-07
3	0x3519dca4	5.7318016e-07

exp_avg f4 [4, 12]
0	0x3ae5f6d8	0.0017544879
1	0x3a2de24a	0.0006633146
2	0xbaa06086	-0.0012235797
3	0xb974aced	-0.00023334073
4	0xb94f4684	-0.00019767327
5	0xba5622b6	-0.00081686245
6	0xba1bbafe	-0.0005940645
7	0x3a0d5464	0.00053912983
8	0x394db542	0.00019617847
9	0x37791c70	1.4848178e-05
10	0xba02d983	-0.0004991518
11	0x3afe33f6	0.0019394148
12	0x3c9f2c0f	0.019430188
13	0x3cd50803	0.026004797
14	0x3c800e84	0.015631922
15	0x392cbc1e	0.00016473277
16	0x3c42a9a0	0.011881262
17	0xbb05ca55	-0.0020414789
18	0xbbc5a5bd	-0.0060317204
19	0x3c4beae4	0.012446139
20	0x3c7ac4f5	0.015305747
21	0xbb36ff73	-0.0027923256
22	0x3bf51b9a	0.007480097
23	0xbceacdb7	-0.028662546
24	0xbcc5050a	-0.024050254
25	0xbcefa230	-0.029252142
26	0xbc4d5423	-0.012532267
27	0x3aaedcff	0.0013341008
28	0xbc883221	-0.016625466
29	0xbb9c2933	-0.0047656535
30	0x3b144ce0	0.002262883
31	0xbc23e8eb	-0.010004262
32	0xbc2b093c	-0.010439213
33	0x3a120986	0.0005570877
34	0xbb88f556	-0.004179637
35	0x3c9ab515	0.018885175
36	0x3a4bd225	0.00077751494
37	0x3aa24ed0	0.0012383107
38	0x3a89fbfd	0.0010527369
39	0xb862d20d	-5.4078224e-05
40	0x397c7f24	0.00024079956
41	0xb96dd93e	-0.0002268301
42	0xb9cacf9c	-0.00038683123
43	0x3a2c4ebf	0.00065730134
44	0xbb1e8df4	-0.0024193497
45	0xbac6a840	-0.0015156344
46	0xba9ece89	-0.0012115996
47	0x3a9edbb4	0.001211992

exp_avg_sq f4 [4, 12]
0	0x35c4aefa	1.4654063e-06
1	0x35e7dc87	1.7275023e-06
2	0x34f20b45	4.5084212e-07
3	0x32034872	7.641676e-09
4	0x35855a05	9.935471e-07
5	0x33be37df	8.857727e-08
6	0x350a5812	5.1537165e-07
7	0x35435ca2	7.277796e-07
8	0x35e2446b	1.6858224e-06
9	0x3266a41a	1.3425074e-08
10	0x3347efc2	4.6551357e-08
11	0x34f95919	4.644469e-07
12	0x38bbef12	8.961385e-05
13	0x390d67fc	0.00013485545
14	0x385b9f00	5.236175e-05
15	0x33036877	3.0595825e-08
16	0x3806bff1	3.212685e-05
17	0x363617c6	2.7133951e-06
18	0x373cd3c6	1.1254981e-05
19	0x381a7122	3.6821824e-05
20	0x38fc4b3d	0.000120303106
21	0x3585c82d	9.967531e-07
22	0x37a11a4a	1.9204937e-05
23	0x3925c59b	0.0001580924
24	0x3833f618	4.290612e-05
25	0x3880e072	6.145322e-05
26	0x375a4ed8	1.301217e-05
27	0x33c06429	8.958916e-08
28	0x37e06295	2.6748787e-05
29	0x360b1253	2.072328e-06
30	0x3626f1d3	2.4876688e-06
31	0x36e7bb4a	6.90614e-06
32	0x37387960	1.09955145e-05
33	0x3563b3c4	8.4825683e-07
34	0x3620876d	2.3920686e-06
35	0x380f6329	3.4186207e-05
36	0x35210198	5.9979493e-07
37	0x360d814f	2.1085905e-06
38	0x357722f8	9.2065557e-07
39	0x33fbf351	1.1732357e-07
40	0x35666372	8.582639e-07
41	0x33025825	3.034815e-08
42	0x34c17b40	3.6038728e-07
43	0x34ae07ff	3.2415844e-07
44	0x361f7ccf	2.3765494e-06
45	0x353fc55f	7.144026e-07
46	0x350c22a4	5.2204473e-07
47	0x34de5073	4.1409257e-07

exp_avg f4 [4]
0	0x38b12f45	8.448822e-05
1	0xb2b1bc7d	-2.0691227e-08
2	0x39818aeb	0.000247083
3	0xb6b4e2fa	-5.3908416e-06

exp_avg_sq f4 [4]
0	0x2ffc21f7	4.5862666e-10
1	0x2f5be2fd	1.9998576e-10
2	0x314636a5	2.8843854e-09
3	0x2fd03751	3.7874284e-10

exp_avg f4 [4, 1]
0	0x396e2835	0.00022712427
1	0x34ca2f97	3.7660058e-07
2	0x3968323f	0.00022143962
3	0xb77c9c92	-1.5056825e-05

exp_avg_sq f4 [4, 1]
0	0x31056779	1.9412865e-09
1	0x308df96f	1.0329994e-09
2	0x314f27cc	3.0145086e-09
3	0x31ca68b2	5.8908762e-09

exp_avg f4 [4, 12]
0	0xb8913a94	-6.92505e-05
1	0xb87237a0	-5.77491e-05
2	0xb8775a27	-5.897335e-05
3	0xb811aea6	-3.4733348e-05
4	0xb821e815	-3.8601534e-05
5	0x392b9c2a	0.00016366006
6	0x39f5cfda	0.00046884903
7	0x38edf309	0.000113463095
8	0x388b1952	6.632753e-05
9	0x390b13d7	0.00013263464
10	0x38e5387d	0.00010930093
11	0xb841fb19	-4.624864e-05
12	0xb45265a9	-1.9594758e-07
13	0xb386cbf3	-6.2769594e-08
14	0x32929725	1.706537e-08
15	0xb43bb0b6	-1.7480019e-07
16	0x34399090	1.7282059e-07
17	0x353877d9	6.871974e-07
18	0xb3c3dcd6	-9.120565e-08
19	0x336f2250	5.567773e-08
20	0x33b75c21	8.53836e-08
21	0x33bd5eb2	8.818223e-08
22	0x33139227	3.435903e-08
23	0x33cc6f06	9.519685e-08
24	0x38a4858d	7.845005e-05
25	0x38df99cb	0.00010662115
26	0x38d87ecc	0.000103233004
27	0xb7e3eb7f	-2.717017e-05
28	0x394771ca	0.00019020509
29	0x39bdd68c	0.0003620874
30	0x3ade882f	0.0016977842
31	0x3919f635	0.00014682936
32	0x3989dfa6	0.00026297307
33	0x39926580	0.00027922913
34	0x38b949e6	8.835252e-05
35	0x3807c7b4	3.2372496e-05
36	0xb6a07659	-4.782149e-06
37	0x3677fbd7	3.6952458e-06
38	0xb6b27762	-5.3187114e-06
39	0x355e2cd3	8.276667e-07
40	0xb768ff53	-1.3887725e-05
41	0xb703ee02	-7.863624e-06
42	0xb8addd8e	-8.2905506e-05
43	0xb5e39cb9	-1.695843e-06
44	0xb6b8ab06	-5.503537e-06
45	0xb5225fca	-6.0489094e-07
46	0xb52eafc4	-6.5075824e-07
47	0x365b0e45	3.264185e-06

exp_avg_sq f4 [4, 12]
0	0x2f4841f2	1.8213323e-10
1	0x2f04a18f	1.2062727e-10
2	0x2f12b4d7	1.334287e-10
3	0x2e40bc08	4.382275e-11
4	0x2fb4863d	3.283719e-10
5	0x3264fa61	1.3328276e-08
6	0x32315c12	1.032369e-08
7	0x30848949	9.643283e-10
8	0x2fab8a54	3.1203007e-10
9	0x307ac196	9.122457e-10
10	0x301426dd	5.3897314e-10
11	0x2eb0c630	8.0387585e-11
12	0x2f9b7ec6	2.8284414e-10
13	0x2d9d670a	1.7894592e-11
14	0x2cfe72b8	7.2318505e-12
15	0x2f755864	2.2314023e-10
16	0x3032b943	6.5019296e-10
17	0x327b6038	1.46320005e-08
18	0x318a3c51	4.023186e-09
19	0x2fa5e6ee	3.017741e-10
20	0x2fff07ab	4.6389678e-10
21	0x3011a3e4	5.2983595e-10
22	0x2e75fc55	5.5930666e-11
23	0x2e94dfd7	6.770023e-11
24	0x2fd745f0	3.9157966e-10
25	0x304d4bff	7.468656e-10
26	0x300b739e	5.073221e-10
27	0x2e45d415	4.498098e-11
28	0x312128e2	2.3451823e-09
29	0x32856395	1.5528522e-08
30	0x33e79da4	1.07854504e-07
31	0x3104c51f	1.9320578e-09
32	0x317c6707	3.672939e-09
33	0x31858f04	3.8870684e-09
34	0x2fa9232a	3.0765906e-10
35	0x2e859d39	6.076068e-11
36	0x3014782c	5.401286e-10
37	0x2fada552	3.1585984e-10
38	0x2f68cef0	2.1173796e-10
39	0x2e014c83	2.939916e-11
40	0x318b4f5f	4.054456e-09
41	0x32a79a13	1.9511424e-08
42	0x31beb746	5.5505636e-09
43	0x2e16ed05	3.4316567e-11
44	0x305c8962	8.0230766e-10
45	0x2ebaabe0	8.488832e-11
46	0x300621e7	4.8797094e-10
47	0x2f95e26a	2.726382e-10

exp_avg f4 [4]
0	0x3a0e5d61	0.00054307847
1	0x3640b046	2.8712834e-06
2	0x36908477	4.3069554e-06
3	0xba05d489	-0.00051052176

exp_avg_sq f4 [4]
0	0x3265feba	1.33874725e-08
1	0x2af00dd4	4.264216e-13
2	0x2b7aa545	8.90472e-13
3	0x32542cb5	1.2350189e-08

exp_avg f4 [4, 1]
0	0x3a4ed1e8	0.0007889555
1	0xb68d7188	-4.2153442e-06
2	0xb6a06948	-4.780628e-06
3	0xb9c6e0f2	-0.000379331

exp_avg_sq f4 [4, 1]
0	0x32dd6630	2.5774256e-08
1	0x2b9c2d3a	1.109702e-12
2	0x2b76596d	8.752086e-13
3	0x31bc88f4	5.48709e-09

exp_avg f4 [4, 4]
0	0x392676ab	0.00015875201
1	0x39cd4a91	0.00039156203
2	0x397b2900	0.00023952499
3	0x3912ec9e	0.00014011792
4	0x363a1319	2.7727276e-06
5	0x34abd49d	3.2005929e-07
6	0x32aed5db	2.0353516e-08
7	0xb4b7d0f9	-3.4238454e-07
8	0x360f7fcc	2.1383048e-06
9	0x367c496c	3.7593663e-06
10	0x360f0000	2.130866e-06
11	0x368df4e0	4.2306347e-06
12	0xba021302	-0.0004961939
13	0xb93763d4	-0.00017489429
14	0xba11d5dc	-0.00055631786
15	0xb9d48662	-0.00040535914

exp_avg_sq f4 [4, 4]
0	0x30ccf615	1.4912894e-09
1	0x32014ff1	7.526965e-09
2	0x3184120d	3.8437578e-09
3	0x3146ae5c	2.8911904e-09
4	0x2a9c1054	2.7722497e-13
5	0x29a2eee2	7.235685e-14
6	0x282468c5	9.126547e-15
7	0x27d4bb44	5.9044854e-15
8	0x2a3dda29	1.6862262e-13
9	0x2b194606	5.4453696e-13
10	0x2a8cf991	2.5042167e-13
11	0x2b896618	9.762772e-13
12	0x321ac3db	9.008512e-09
13	0x310cee5e	2.0508177e-09
14	0x3281490f	1.50508e-08
15	0x325cf20c	1.28607205e-08

exp_avg f4 [4]
0	0xbae51059	-0.0017476185
1	0xb705ca9f	-7.974594e-06
2	0xb75b929f	-1.3087555e-05
3	0x35d31ae9	1.5728557e-06

exp_avg_sq f4 [4]
0	0x341cc491	1.4600143e-07
1	0x2c345083	2.5624231e-12
2	0x319f0deb	4.6290913e-09
3	0x2c11b4f1	2.0706182e-12

exp_avg f4 [4, 1]
0	0xb8ed179b	-0.000113054375
1	0x36e30591	6.765775e-06
2	0x36d8c3fb	6.4601168e-06
3	0xb4bb6990	-3.490827e-07

exp_avg_sq f4 [4, 1]
0	0x30ab7e6e	1.2477821e-09
1	0x2c19336b	2.177115e-12
2	0x2fa70ac1	3.0384764e-10
3	0x2a4e6966	1.8333043e-13

exp_avg f4 [4, 4]
0	0xba89e31b	-0.0010519953
1	0xb7905288	-1.720457e-05
2	0xb81b9fc7	-3.7103684e-05
3	0xba8f1d1e	-0.0010918712
4	0xb61111cf	-2.161705e-06
5	0xb5d83724	-1.6109302e-06
6	0xb66a0303	-3.487047e-06
7	0xb604ce4b	-1.978961e-06
8	0x350eb3c9	5.3160744e-07
9	0x3643d2cd	2.9179967e-06
10	0x324db62b	1.1973991e-08
11	0xb60329d6	-1.9544873e-06
12	0x3528bb1a	6.2857146e-07
13	0xb3fd4916	-1.1794525e-07
14	0xb443557e	-1.8191892e-07
15	0x359783b7	1.1288711e-06

exp_avg_sq f4 [4, 4]
0	0x333db2a4	4.4167464e-08
1	0x2edf2481	1.014735e-10
2	0x2f93f6a3	2.691439e-10
3	0x334c44ef	4.7560146e-08
4	0x2ac11fdf	3.4305802e-13
5	0x2a07fd54	1.20783e-13
6	0x2b222829	5.7609695e-13
7	0x2a0bbb4a	1.2410659e-13
8	0x3047a824	7.263472e-10
9	0x2ea6f66a	7.592578e-11
10	0x29d120c1	9.2871464e-14
11	0x2f192bfb	1.3930894e-10
12	0x2a91b2bc	2.5881196e-13
13	0x28c6e657	2.208231e-14
14	0x294db282	4.5673975e-14
15	0x2af6948a	4.3801448e-13

exp_avg f4 [4]
0	0x3627be5a	2.4995738e-06
1	0x3a23bb91	0.0006245906
2	0xba4aba3a	-0.00077334384
3	0x366347b4	3.3867373e-06

exp_avg_sq f4 [4]
0	0x2b85a5de	9.496256e-13
1	0x329ff652	1.862205e-08
2	0x32d7c728	2.511986e-08
3	0x2ed4a7b6	9.670435e-11

exp_avg f4 [4, 1]
0	0xb71d9f35	-9.3949975e-06
1	0x3a1c34da	0.0005958803
2	0xba8faef9	-0.001096218
3	0xb718029c	-9.060514e-06

exp_avg_sq f4 [4, 1]
0	0x2ce38570	6.4665426e-12
1	0x330328c2	3.0537883e-08
2	0x33422c14	4.5209234e-08
3	0x2d2da64c	9.870837e-12

exp_avg f4 [4, 16]
0	0x3638294d	2.7442177e-06
1	0xb57d6a3c	-9.4404436e-07
2	0x368fbc30	4.28364e-06
3	0xb27be04f	-1.4661125e-08
4	0x35e7c4ae	1.7268083e-06
5	0x36c6bf8d	5.9231593e-06
6	0x3791dcf6	1.738824e-05
7	0xb65ebf2e	-3.319186e-06
8	0xb64968c0	-3.0012307e-06
9	0x35ce6a53	1.537914e-06
10	0x3585a3bd	9.956926e-07
11	0x3582cbf1	9.74511e-07
12	0xb601e2df	-1.9354554e-06
13	0xb52778f1	-6.238834e-07
14	0x362d32d3	2.5808592e-06
15	0x35cac015	1.5106076e-06
16	0xb8893a99	-6.543584e-05
17	0xb866601f	-5.4925793e-05
18	0x38081eb9	3.245354e-05
19	0xb7f9535c	-2.972193e-05
20	0x39ab526a	0.00032677065
21	0x3a8f8d8f	0.0010952222
22	0x3b934f56	0.0044955416
23	0x3a143f8f	0.0005655223
24	0xb7255460	-9.8544115e-06
25	0x379c2d91	1.8617868e-05
26	0x38fa309a	0.00011929982
27	0xb86b9fa3	-5.617704e-05
28	0x3a29ab75	0.00064723875
29	0x3a5306d6	0.000805003
30	0x39df8a57	0.00042636946
31	0x397f282f	0.00024333665
32	0xb94f3919	-0.00019762329
33	0x39a094a3	0.0003062832
34	0x391b5cde	0.00014816548
35	0x39933c32	0.00028082874
36	0xba57b8c5	-0.0008229132
37	0xbaf62971	-0.0018780661
38	0xbbf121d4	-0.007358769
39	0xb9c378e6	-0.00037283375
40	0x398cbc09	0.00026842978
41	0xb79395ec	-1.7593578e-05
42	0x39e2e440	0.0004327614
43	0xb91f3f05	-0.00015186898
44	0xba951dac	-0.0011376641
45	0xba784cd3	-0.0009471897
46	0xba4fe1e7	-0.00079300854
47	0x39d56600	0.00040702522
48	0xb62e6423	-2.5986308e-06
49	0x3601e065	1.9353113e-06
50	0x363068aa	2.6286966e-06
51	0xb621cbe5	-2.4109552e-06
52	0x3639940b	2.765332e-06
53	0x3717a3fe	9.038484e-06
54	0x37ddfe03	2.6463536e-05
55	0xb5a74ac3	-1.2464228e-06
56	0xb4cef0b3	-3.8545622e-07
57	0xb65d48c2	-3.2973917e-06
58	0x358f2938	1.0666326e-06
59	0x3681f66c	3.873187e-06
60	0x367e1bc9	3.7865123e-06
61	0x3667a9d5	3.4520538e-06
62	0x35b836bf	1.3725002e-06
63	0x3665c2f2	3.4237132e-06

exp_avg_sq f4 [4, 16]
0	0x2b1e99bc	5.6346225e-13
1	0x29938d86	6.552662e-14
2	0x2baf6f78	1.2465437e-12
3	0x27f928de	6.915569e-15
4	0x2baab689	1.212989e-12
5	0x2e004752	2.9167176e-11
6	0x2dc53fe7	2.2424685e-11
7	0x2b92e12a	1.043642e-12
8	0x2b3dd1dc	6.7437527e-13
9	0x2a5ff469	1.9891176e-13
10	0x29fe4c39	1.12930885e-13
11	0x29d6cabf	9.53868e-14
12	0x2a2bcc08	1.5258639e-13
13	0x2a475e28	1.7707418e-13
14	0x2b421ee0	6.8965493e-13
15	0x2a5cd38b	1.9613319e-13
16	0x2fcb01a8	3.6926662e-10
17	0x2f7f1630	2.3199997e-10
18	0x2f533137	1.9207823e-10
19	0x2ed855f9	9.8378146e-11
20	0x322d58d4	1.00901225e-08
21	0x34e373db	4.236634e-07
22	0x357f5fa8	9.51341e-07
23	0x331e3078	3.6831324e-08
24	0x30823209	9.472966e-10
25	0x2dac696a	1.960095e-11
26	0x30b7c5ec	1.3371255e-09
27	0x2f849021	2.411307e-10
28	0x32bddf9e	2.2104185e-08
29	0x331e3db6	3.6843367e-08
30	0x3253138c	1.2286261e-08
31	0x31c34ff9	5.6843388e-09
32	0x30c8c248	1.4607133e-09
33	0x31633959	3.3065446e-09
34	0x3084eac8	9.670993e-10
35	0x314470df	2.8585914e-09
36	0x32e0f78c	2.6189603e-08
37	0x34fad3ef	4.672033e-07
38	0x360f1281	2.1319431e-06
39	0x3325d15e	3.8607475e-08
40	0x316a7ef8	3.4123655e-09
41	0x2da5589a	1.8797675e-11
42	0x31e93b55	6.7879378e-09
43	0x30711ec0	8.771899e-10
44	0x3355afa6	4.975268e-08
45	0x331a11ec	3.587222e-08
46	0x32c422e1	2.2833264e-08
47	0x31d03559	6.0596617e-09
48	0x2bc14efa	1.3735395e-12
49	0x2bb33f65	1.273631e-12
50	0x2ae08454	3.9882214e-13
51	0x2b66d555	8.200847e-13
52	0x3006602f	4.88856e-10
53	0x320b8d0a	8.122933e-09
54	0x3093e234	1.0759948e-09
55	0x2e780963	5.639701e-11
56	0x2b8bf86f	9.945498e-13
57	0x2ba1fadf	1.1509369e-12
58	0x2c2063c7	2.2792755e-12
59	0x2bf93fc2	1.771021e-12
60	0x2e4d6cb8	4.6708165e-11
61	0x2ed65fb3	9.748593e-11
62	0x2e53c17d	4.8147698e-11
63	0x2bac3a2a	1.2237479e-12

exp_avg f4 [4]
0	0xbad556b3	-0.0016276449
1	0xba50a323	-0.00079588796
2	0x376be36d	1.4060043e-05
3	0x38780c06	5.9139005e-05

exp_avg_sq f4 [4]
0	0x340d94d6	1.3185795e-07
1	0x32dcd770	2.570934e-08
2	0x32b51d2a	2.1084436e-08
3	0x329de479	1.8381103e-08

exp_avg f4 [4, 1]
0	0xb990883a	-0.00027567317
1	0xb9d91505	-0.00041405126
2	0x367088c2	3.584239e-06
3	0xb7b6a1a7	-2.1771366e-05

exp_avg_sq f4 [4, 1]
0	0x313ec6aa	2.7761566e-09
1	0x31eb1a7c	6.842411e-09
2	0x320f9957	8.358561e-09
3	0x30bd7319	1.3784273e-09

exp_avg f4 [4, 4]
0	0xb886b4a7	-6.423267e-05
1	0xba8ba850	-0.001065502
2	0xba91d080	-0.001112476
3	0xb85cb692	-5.262212e-05
4	0x37bc4c72	2.2446944e-05
5	0xba5571a1	-0.0008142237
6	0xba1b9e7b	-0.0005936396
7	0xb903a38b	-0.00012554058
8	0xb5241f89	-6.114065e-07
9	0x375567eb	1.2719985e-05
10	0x375ee53c	1.3285604e-05
11	0xb60299e8	-1.9461095e-06
12	0x376bfd92	1.40661305e-05
13	0x3741a848	1.15428775e-05
14	0x3767a60f	1.38073365e-05
15	0x36d4fac6	6.347286e-06

exp_avg_sq f4 [4, 4]
0	0x2f38e9af	1.6817724e-10
1	0x333c1596	4.3791793e-08
2	0x3350c436	4.8607227e-08
3	0x2ef35d82	1.1066971e-10
4	0x2ddc7b15	2.5065764e-11
5	0x32fef329	2.9680068e-08
6	0x328a2dba	1.6086108e-08
7	0x303038b2	6.4108996e-10
8	0x2ed0da04	9.497472e-11
9	0x3210445d	8.397447e-09
10	0x31b28656	5.195754e-09
11	0x310ace60	2.0198954e-09
12	0x3021713b	5.873237e-10
13	0x3076b519	8.9751634e-10
14	0x2f85f3ed	2.436588e-10
15	0x2f15567f	1.35822e-10

exp_avg f4 [4]
0	0x3bb66679	0.005566415
1	0x3b266e83	0.002539546
2	0x39755e0f	0.0002340006
3	0xb9fbf2de	-0.000480554

exp_avg_sq f4 [4]
0	0x367c1034	3.7560358e-06
1	0x36000b35	1.908001e-06
2	0x3613fd9d	2.205233e-06
3	0x3247104c	1.158703e-08

exp_avg f4 [4, 1]
0	0x3b17476e	0.0023083347
1	0x3a5a1894	0.00083197025
2	0xb97305b1	-0.00023176406
3	0xb9464808	-0.00018909585

exp_avg_sq f4 [4, 1]
0	0x3591c1b4	1.0859717e-06
1	0x34d8c288	4.0374675e-07
2	0x322e0f2c	1.0131583e-08
3	0x31003921	1.8658926e-09

exp_avg f4 [4, 12]
0	0x3a88c07c	0.0010433341
1	0x3a0e89da	0.00054374116
2	0x3ac642af	0.0015126074
3	0xba29d869	-0.0006479086
4	0x3ab3f89e	0.001373071
5	0x3aa41b13	0.0012520276
6	0xb8f4eeda	-0.00011679316
7	0x3880b0b1	6.136427e-05
8	0x3b83cf68	0.0040225275
9	0x3b8ec11f	0.004356518
10	0x3ae89d90	0.0017747153
11	0x39641b52	0.00021753952
12	0x39693e5e	0.00022243845
13	0x39142606	0.00014128545
14	0x3a4691be	0.0007574818
15	0x39d2ebfb	0.0004023014
16	0x39f38ebe	0.00046454923
17	0x38dad79a	0.00010435209
18	0xb9627701	-0.00021597372
19	0x392802c1	0.00016022754
20	0x3aed45b6	0.001810244
21	0x3b05d92a	0.002042363
22	0x3a8a7447	0.0010563218
23	0x3965e6cf	0.00021925125
24	0xb980bf81	-0.00024556744
25	0xb8931290	-7.012964e-05
26	0xb8e96f1d	-0.00011131002
27	0x37ec305f	2.8155917e-05
28	0xb7804f78	-1.5295795e-05
29	0x396b1bfe	0.00022421774
30	0x38c9a9cb	9.616053e-05
31	0xb83ffbb2	-4.5772358e-05
32	0x3942c64f	0.00018575157
33	0x39871e08	0.00025771582
34	0xb8d19b8e	-9.994871e-05
35	0xb8ae6c22	-8.317108e-05
36	0x3860cb00	5.359482e-05
37	0xb90a2268	-0.00013173523
38	0xb9888af3	-0.00026043467
39	0xb7ed1f42	-2.8267157e-05
40	0x389857b9	7.2642644e-05
41	0xb8b91ffe	-8.8274464e-05
42	0xb83fe50b	-4.575126e-05
43	0xb7eaffc6	-2.8014078e-05
44	0xb9c314e0	-0.0003720885
45	0xb9ee5eb8	-0.00045465468
46	0xb997e90d	-0.000289746
47	0x383d4701	4.512724e-05

exp_avg_sq f4 [4, 12]
0	0x345d7219	2.0623737e-07
1	0x33e1bbdf	1.05115525e-07
2	0x34c497db	3.6618334e-07
3	0x3375ec1a	5.725824e-08
4	0x3439fce7	1.7321473e-07
5	0x34674563	2.1538794e-07
6	0x30c6f80f	1.4476899e-09
7	0x334dd083	4.7919922e-08
8	0x360cca9d	2.0979562e-06
9	0x36131c94	2.1921342e-06
10	0x3497f9f4	2.8307807e-07
11	0x31dbe054	6.399242e-09
12	0x336dcaff	5.5365486e-08
13	0x32cc283b	2.376702e-08
14	0x34101caa	1.3421473e-07
15	0x33d3a550	9.855523e-08
16	0x33589ad2	5.0432227e-08
17	0x3267e81c	1.3498745e-08
18	0x3297e364	1.7682119e-08
19	0x335d2c4f	5.149587e-08
20	0x35867a9c	1.0019462e-06
21	0x35a4086e	1.2221406e-06
22	0x3503a13f	4.9035947e-07
23	0x32f5077e	2.8525161e-08
24	0x31ec38b8	6.874952e-09
25	0x33ec119a	1.0992808e-07
26	0x339a44c7	7.183694e-08
27	0x327a556d	1.4571339e-08
28	0x325fe8da	1.3033253e-08
29	0x320ec6dc	8.310703e-09
30	0x321d8dac	9.170815e-09
31	0x33732397	5.6610215e-08
32	0x35d9149c	1.6173758e-06
33	0x361dcf74	2.3515577e-06
34	0x35330fd1	6.670571e-07
35	0x30b3ae79	1.3073552e-09
36	0x2f014b6e	1.175928e-10
37	0x302e6f8c	6.345935e-10
38	0x3154f844	3.0991183e-09
39	0x2f0f6346	1.3041043e-10
40	0x2fa2f5f1	2.964238e-10
41	0x2fba6d62	3.3910924e-10
42	0x2ef49a64	1.11232606e-10
43	0x2e8dc8d1	6.44761e-11
44	0x31df4733	6.4982486e-09
45	0x323177e3	1.0330015e-08
46	0x319d5b8c	4.579709e-09
47	0x2ee93b36	1.0606131e-10

exp_avg f4 [4]
0	0x39a1c8c0	0.00030857883
1	0x3c9b05a4	0.018923588
2	0xbc335121	-0.010944636
3	0x3cafaa12	0.0214434

exp_avg_sq f4 [4]
0	0x320165c5	7.531928e-09
1	0x386249a1	5.395117e-05
2	0x378f36cc	1.7072445e-05
3	0x3827a8c8	3.9973092e-05

exp_avg f4 [4, 1]
0	0xb8d368d2	-0.00010080788
1	0x3a778906	0.00094427203
2	0xba0ef0b8	-0.000545274
3	0x3b8d0acb	0.004304265

exp_avg_sq f4 [4, 1]
0	0x30b40009	1.3096734e-09
1	0x346f923d	2.231181e-07
2	0x32770a4a	1.4379632e-08
3	0x367b335e	3.7431814e-06

exp_avg f4 [4, 4]
0	0x3846c09c	4.738626e-05
1	0xb7cce83a	-2.4426834e-05
2	0x37df7b61	2.6641124e-05
3	0xb85402cc	-5.0547344e-05
4	0x3bce9234	0.00630405
5	0x3ad42476	0.0016185183
6	0x3b351cfc	0.0027635684
7	0x395dc6f6	0.00021150321
8	0xbb39bc7b	-0.0028341103
9	0xba3ef7cb	-0.0007284849
10	0xbae2451d	-0.0017263029
11	0x39c51ac8	0.00037594722
12	0x3b7b2e68	0.003832722
13	0x3b1b5550	0.0023701973
14	0x3bb6f0a3	0.0055828854
15	0xbaecd933	-0.0018070102

exp_avg_sq f4 [4, 4]
0	0x2fc1d5c9	3.52584e-10
1	0x2e5537b2	4.848006e-11
2	0x2e43f7cf	4.4557965e-11
3	0x2fbab35d	3.3960648e-10
4	0x375396d4	1.26116975e-05
5	0x35dc2af5	1.640378e-06
6	0x35aab1a0	1.2717683e-06
7	0x31b51f67	5.2713633e-09
8	0x3635d8dd	2.7097333e-06
9	0x35028ec1	4.863651e-07
10	0x351bb9fe	5.8012654e-07
11	0x31f4e617	7.127493e-09
12	0x35d0cbf8	1.555657e-06
13	0x359b6b87	1.1579695e-06
14	0x3678ba03	3.7063153e-06
15	0x3523f1c8	6.107407e-07

exp_avg f4 [11]
0	0x3c786ce9	0.015162685
1	0xbc270e42	-0.01019627
2	0xbd8f6ce6	-0.070031926
3	0xbd1402ea	-0.03613559
4	0x3bf0b16c	0.007345369
5	0xbd025617	-0.031820383
6	0xbc0715b5	-0.008244921
7	0x3c9e5712	0.019328628
8	0x3c8227be	0.015888091
9	0x3c4e434c	0.012589287
10	0x3cac700c	0.021049522

exp_avg_sq f4 [11]
0	0x380bbd44	3.331645e-05
1	0x3875ea74	5.8630903e-05
2	0x39f7bed9	0.00047253704
3	0x38a9c925	8.096014e-05
4	0x367c52ba	3.759908e-06
5	0x38889726	6.513139e-05
6	0x37033cd4	7.822371e-06
7	0x37d7b5f4	2.5714726e-05
8	0x37948f03	1.770957e-05
9	0x3732d751	1.0659759e-05
10	0x37e20eee	2.6948252e-05

exp_avg f4 [11, 1]
0	0x3c066ed3	0.0082051335
1	0x3a42e6df	0.0007434915
2	0xbc4588dd	-0.0120565565
3	0x3c86a1fd	0.016434664
4	0x3b768833	0.0037617802
5	0xba8b4fae	-0.0010628605
6	0xbbbc0efb	-0.0057390905
7	0x3bc6487e	0.006051122
8	0xbb21b356	-0.0024673543
9	0xbb42d14d	-0.0029726804
10	0xbc644e3b	-0.013934667

exp_avg_sq f4 [11, 1]
0	0x376df19f	1.4182558e-05
1	0x35c9faf1	1.50487e-06
2	0x375ae0c3	1.3046144e-05
3	0x37980f42	1.8126917e-05
4	0x35929226	1.0920382e-06
5	0x355b44fe	8.1684254e-07
6	0x35b9697e	1.3814276e-06
7	0x36bb4d06	5.582001e-06
8	0x349ddd29	2.9404444e-07
9	0x349c581a	2.9121367e-07
10	0x37444f99	1.1701043e-05

exp_avg f4 [11, 4]
0	0xbb10f013	-0.0022115752
1	0xbbf693eb	-0.0075249574
2	0xba17a793	-0.00057851634
3	0x3c1118ce	0.008856012
4	0xbad3593a	-0.0016124614
5	0x3ab0af9d	0.0013480071
6	0xbc0a0361	-0.008423657
7	0xbb1b0c81	-0.0023658576
8	0xbbd28bed	-0.006425372
9	0xbcdfe3f4	-0.027330376
10	0xbd50616b	-0.050874155
11	0xbcfcf93b	-0.030880561
12	0x3be8be5b	0.0071027703
13	0xbc53ea5b	-0.012934293
14	0xbc1e21f3	-0.009651649
15	0xbc20cf4d	-0.009815049
16	0x3b222dba	0.0024746493
17	0xb9801410	-0.0002442901
18	0x3b78610e	0.0037899646
19	0x3b07c08c	0.0020714132
20	0xba182a56	-0.00058046484
21	0xbc0fd0d1	-0.008777813
22	0xbcb5ca06	-0.022191059
23	0xbc714df1	-0.014728055
24	0xbb6f2fae	-0.0036496925
25	0xbab0ea8d	-0.0013497636
26	0xbc34d27e	-0.011036513
27	0xbbfa79be	-0.0076439073
28	0xbaa75699	-0.0012766897
29	0xba146416	-0.0005660666
30	0x3c6a727c	0.014309522
31	0x3bd43630	0.006476186
32	0xbaba18d3	-0.0014198072
33	0x3ba0a531	0.004902505
34	0x3c23fd77	0.010009161
35	0x3c075144	0.008259121
36	0xb95f2ba0	-0.00021283189
37	0x3b15c21c	0.0022851294
38	0x3bd4e05f	0.0064964737
39	0x3c03c3b9	0.008042269
40	0xbb5539c4	-0.0032535652
41	0x3bdd7c63	0.006759213
42	0x3c3f8c72	0.0116912
43	0xbb24de16	-0.0025156788

exp_avg_sq f4 [11, 4]
0	0x3588d6bd	1.0195287e-06
1	0x37c3d1b6	2.3343466e-05
2	0x3593138a	1.095804e-06
3	0x3747892d	1.1893263e-05
4	0x35b43b05	1.3428222e-06
5	0x36a64a4e	4.9558357e-06
6	0x3806abee	3.210821e-05
7	0x37ad7be8	2.0680905e-05
8	0x3681f25d	3.8727144e-06
9	0x38923ccb	6.973146e-05
10	0x396420fc	0.00021756062
11	0x39152a16	0.00014225426
12	0x364c98f3	3.0487397e-06
13	0x374a3a52	1.2053717e-05
14	0x3686ea29	4.020771e-06
15	0x3710f61b	8.64037e-06
16	0x34f842c4	4.6242178e-07
17	0x338d2d1b	6.574029e-08
18	0x352016d2	5.963785e-07
19	0x34d632d9	3.9897603e-07
20	0x34ff0951	4.750423e-07
21	0x373aa309	1.11244235e-05
22	0x37cea3ec	2.4633446e-05
23	0x377fb93a	1.5242311e-05
24	0x3510281e	5.370256e-07
25	0x3591f9b6	1.0876017e-06
26	0x3713a1bd	8.79954e-06
27	0x36a20c4e	4.8294087e-06
28	0x34581f2f	2.0127912e-07
29	0x342ba624	1.5986058e-07
30	0x3747a67b	1.1900086e-05
31	0x3651bfad	3.1254997e-06
32	0x33e24e83	1.0538226e-07
33	0x35d52cde	1.5882795e-06
34	0x36d813e3	6.4396168e-06
35	0x36bf119b	5.694293e-06
36	0x312e4459	2.5359184e-09
37	0x353fd89a	7.146824e-07
38	0x3651ee13	3.1282004e-06
39	0x36873034	4.028925e-06
40	0x353e265c	7.0836336e-07
41	0x3685dccb	3.9894126e-06
42	0x36ce79f8	6.1534774e-06
43	0x3457a3aa	2.0082976e-07

exp_avg f4 [2]
0	0xbf25989d	-0.64685994
1	0xbf3cd862	-0.73767674

exp_avg_sq f4 [2]
0	0x3ccbe5e0	0.024889886
1	0x3d08a3ed	0.033359457
