tests/output/multimodal-jets/5c5224a57a244bd4b8fa7a886afa7c12/checkpoints/last.ckpt (torch, 47038 bytes, 91 tensors)

embedder.embedding_continuous.embedding.weight f4 [4, 3]
-0.55588645 0.5799934 0.5520811 -0.27286202 0.050931524 -0.093911834 -0.2975364 -0.12635748
-0.06212377 -0.13190205 -0.5365004 0.03602902
00000000: 934e 0ebf 737a 143f 3055 0d3f 92b4 8bbe
00000010: 939d 503d d954 c0bd b156 98be db63 01be
00000020: 7f75 7ebd 5511 07be 1758 09bf 2a93 133d

embedder.embedding_continuous.embedding.bias f4 [4]
0.2579326 -0.16119249 -0.43628192 0.095621586
00000000: be0f 843e a50f 25be 5860 dfbe 40d5 c33d

embedder.embedding_discrete.embedding.weight f4 [8, 4]
1.0528555 0.4081297 -0.94051063 -0.28069565 -2.2360005 -1.5518258 -1.0082369 1.3913174
2.1843653 -0.03831745 1.4882536 -2.428503 -0.9664331 0.9447352 0.19087219 -1.6698865
-0.45481595 0.4443479 0.66489416 0.59615505 1.1291219 -0.44539967 0.44002667 -0.84320456
0.8546582 1.6459297 -0.71379125 0.48923355 -1.0351825 0.03977849 -0.8056515 0.12135587
00000000: f8c3 863f 60f6 d03e 4ec5 70bf 57b7 8fbe
00000010: a21a 0fc0 3aa2 c6bf e80d 81bf b016 b23f
00000020: a4cc 0b40 c2f2 1cbd 187f be3f 986c 1bc0
00000030: 2968 77bf 2bda 713f 0074 433e d7be d5bf
00000040: a3dd e8be 9181 e33e 8136 2a3f 9e9d 183f
00000050: 1187 903f 6d0b e4be 2d4b e13e 41dc 57bf
00000060: e1ca 5a3f d3ad d23f 06bb 36bf d27c fa3e
00000070: dc80 84bf c5ee 223d 2d3f 4ebf 6d89 f83d

encoder.epic.epic_proj.local_0.bias f4 [4]
0.07131094 0.20375483 0.28606993 -0.120326556
00000000: 780b 923d 1ba5 503e c277 923e c56d f6bd

encoder.epic.epic_proj.local_0.weight_g f4 [4, 1]
0.5127006 0.57537174 0.57106197 0.5066284
00000000: 5940 033f 904b 133f 1e31 123f 66b2 013f

encoder.epic.epic_proj.local_0.weight_v f4 [4, 12]
0.0007294041 -0.16816968 0.12050109 -0.13873899 -0.025859741 0.017576423 0.110594586 -0.20916189
0.1199284 -0.021233484 0.19712819 0.24716084 -0.3155252 0.07529794 -0.19064209 -0.06980095
0.16738982 0.14855044 0.1955324 0.19086863 -0.099616855 -0.20506144 0.13129124 -0.13959037
-0.06704102 -0.19342998 0.00076229114 0.2062463 0.2830288 -0.048015635 0.0967016 0.031363174
-0.22845566 -0.032425255 -0.011954072 -0.30036473 0.13846795 -0.18839273 -0.2220044 0.2663493
0.12509128 -0.02218132 -0.036128778 -0.2550445 -0.111349724 0.0050836215 -0.062762305 0.10898224
00000000: 7b35 3f3a ac34 2cbe 47c9 f63d 9811 0ebe
00000010: cfd7 d3bc 6efc 8f3c 6a7f e23d 892e 56be
00000020: 059d f53d d8f1 adbc f9db 493e bb17 7d3e
00000030: 858c a1be ce35 9a3d ae37 43be cdf3 8ebd
00000040: 3d68 2b3e 9b1d 183e a539 483e 1173 433e
00000050: ec03 ccbd a0fb 51be 3671 063e c7f0 0ebe
00000060: cd4c 89bd 8212 46be 7ed4 473a 3b32 533e
00000070: 27e9 903e 0bac 44bd 7d0b c63d ac76 003d
00000080: 48f0 69be 58d0 04bd 03db 43bc 68c9 99be
00000090: 8bca 0d3e 06ea 40be 1f55 63be ef5e 883e
000000a0: ee17 003e 99b5 b5bc c5fb 13bd 3195 82be
000000b0: 530b e4bd 8294 a63b 8689 80bd 1532 df3d

encoder.epic.epic_proj.global_0.bias f4 [4]
-0.24012107 -0.03199372 0.10472398 0.25633836
00000000: 4ce2 75be d90b 03bd 8779 d63d c83e 833e

encoder.epic.epic_proj.global_0.weight_g f4 [4, 1]
0.47949025 0.5235959 0.5592282 0.5394907
00000000: bf7f f53e 620a 063f 9429 0f3f 101c 0a3f

encoder.epic.epic_proj.global_0.weight_v f4 [4, 12]
0.17530656 0.1539731 0.18293713 0.091441885 0.17030239 -0.06316057 0.23560217 -0.14868927
0.0014985986 -0.13620001 -0.18913132 0.117592946 0.29358494 0.1144281 -0.035901118 0.2604697
-0.053598482 0.2013552 -0.1068507 -0.03058697 -0.17577462 -0.15643537 0.00030682003 -0.14271732
-0.23135336 -0.29025784 -0.18025076 0.09565016 -0.28454903 0.15305907 0.09205944 0.03876266
-0.21659227 -0.16001537 0.054843526 -0.0959227 -0.15134516 0.13648348 -0.08597888 0.03371608
-0.23350915 0.2249654 0.043457642 0.12472042 -0.08150451 0.16490687 0.21615815 0.10905201
00000000: 9083 333e 20ab 1d3e df53 3b3e e245 bb3d
00000010: c063 2e3e 545a 81bd b241 713e 0042 18be
00000020: a06c c43a 0478 0bbe a4ab 41be 92d4 f03d
00000030: c450 963e 4859 ea3d 0d0d 13bd 495c 853e
00000040: 158a 5bbd 0f30 4e3e 8ad4 dabd 8691 fabc
00000050: 43fe 33be 9830 20be b0dc a039 7d24 12be
00000060: e5e7 6cbe ad9c 94be a893 38be 3be4 c33d
00000070: 69b0 91be 84bb 1c3e a989 bc3d 98c5 1e3d
00000080: 5dca 5dbe 12db 23be 9ba3 603d 1f73 c4bd
00000090: 3afa 1abe 53c2 0b3e b215 b0bd df19 0a3d
000000a0: 061d 6fbe 545d 663e a400 323d 6b6d ff3d
000000b0: d6eb a6bd 59dd 283e 9058 5d3e a956 df3d

encoder.epic.epic_proj.global_1.bias f4 [4]
-0.44531238 -0.5122947 -0.5057227 0.07263652
00000000: fcff e3be bf25 03bf 0b77 01bf 75c2 943d

encoder.epic.epic_proj.global_1.weight_g f4 [4, 1]
0.6483118 0.43029228 0.5926333 0.735019
00000000: c3f7 253f 454f dc3e d1b6 173f 352a 3c3f

encoder.epic.epic_proj.global_1.weight_v f4 [4, 4]
0.37106493 -0.34704193 0.06337758 0.42956772 -0.05214596 0.03400781 -0.17248504 -0.38215727
-0.33342135 0.39539227 -0.07506464 -0.15150528 0.20837343 -0.31034377 -0.39728945 0.43187106
00000000: 39fc bd3e 7baf b1be 1bcc 813d 4df0 db3e
00000010: 0197 55bd c64b 0b3d eb9f 30be 1eaa c3be
00000020: 34b6 aabe db70 ca3e 7dbb 99bd 3324 1bbe
00000030: d85f 553e 61e5 9ebe 8669 cbbe 341e dd3e

encoder.epic.epic_proj.global_2.bias f4 [4]
0.17864849 -0.4549508 0.26130104 -0.24215885
00000000: a1ef 363e 50ef e8be 40c9 853e 7df8 77be

encoder.epic.epic_proj.global_2.weight_g f4 [4, 1]
0.51716584 0.7375059 0.6047529 0.58818704
00000000: fb64 043f 30cd 3c3f 16d1 1a3f 6d93 163f

encoder.epic.epic_proj.global_2.weight_v f4 [4, 4]
-0.27237162 -0.15001889 -0.22828355 0.2770404 -0.44792947 0.20070499 0.41926673 -0.4046526
-0.29045767 -0.25033858 0.010282882 -0.45070016 -0.4384287 -0.14663543 -0.24319425 0.1866506
00000000: 4b74 8bbe 8d9e 19be 2ac3 69be 3dd8 8d3e
00000010: 0357 e5be 9c85 4d3e 21aa d63e a02e cfbe
00000020: deb6 94be 612c 80be 8879 283c 2cc2 e6be
00000030: ba79 e0be 9927 16be ea07 79be 5621 3f3e

encoder.epic.epic_layers.0.fc_global1.bias f4 [4]
-0.020783596 0.16860302 -0.10474297 -0.046813786
00000000: 5c42 aabc 45a6 2c3e 7b83 d6bd d0bf 3fbd

encoder.epic.epic_layers.0.fc_global1.weight_g f4 [4, 1]
0.47201082 0.44421884 0.72074145 0.5657365
00000000: 67ab f13e a770 e33e 8382 383f 1bd4 103f

encoder.epic.epic_layers.0.fc_global1.weight_v f4 [4, 16]
0.096018635 -0.036999613 0.13364093 -0.0022606775 0.015217291 0.011820601 -0.15941828 -0.18553315
-0.12844768 0.054676745 0.03412079 0.03392495 -0.15731896 -0.12818323 0.042347316 0.052203886
0.07049463 0.08094086 0.073183395 0.040962722 -0.08134261 0.023288189 0.11610227 -0.093057774
0.112163655 -0.025166834 -0.119848035 0.054360192 -0.1787873 -0.25636604 -0.17718151 -0.23730828
-0.09118291 0.16868685 0.15270452 0.1443383 -0.19990434 -0.0026370033 0.120146826 0.19623701
0.21317632 -0.011446293 0.21035913 -0.07448307 -0.17848101 -0.025268871 -0.19783667 0.20025064
-0.14969921 0.10033049 0.112465255 -0.14048506 0.05878498 0.058610063 -0.17387484 -0.24148363
-0.05944258 -0.18536021 0.060165215 0.22115205 0.042302918 -0.004686308 -0.009596154 0.19362637
00000000: 6ba5 c43d e88c 17bd 2bd9 083e e027 14bb
00000010: f251 793c 32ab 413c 8c3e 23be 67fc 3dbe
00000020: ca87 03be b9f4 5f3d 3ec2 0b3d e3f4 0a3d
00000030: 3918 21be 7742 03be 6174 2d3d bed3 553d
00000040: 7d5f 903d 52c4 a53d 2de1 953d 87c8 273d
00000050: f496 a6bd dfc6 be3c 07c7 ed3d 1395 bebd
00000060: 0fb6 e53d ad2a cebc e372 f5bd cba8 5e3d
00000070: 0514 37be 6942 83be 126f 35be f100 73be
00000080: 1bbe babd 3fbc 2c3e 935e 1c3e 6bcd 133e
00000090: b9b3 4cbe 93d1 2cbb 8a0f f63d 5bf2 483e
000000a0: e54a 5a3e 3c89 3bbc 6268 573e 948a 98bd
000000b0: bac3 36be aa00 cfbc b295 4abe 810e 4d3e
000000c0: c04a 19be 127a cd3d 2f54 e63d 51db 0fbe
000000d0: 85c8 703d 1b11 703d 3f0c 32be 7c47 77be
000000e0: 107a 73bd 11cf 3dbe cd6f 763d af75 623e
000000f0: d345 2d3d 9a8f 99bb 3039 1dbc fe45 463e

encoder.epic.epic_layers.0.fc_global2.bias f4 [4]
-0.13995013 -0.123709984 -0.34027228 0.38735422
00000000: 164f 0fbe a95b fdbd 2b38 aebe 4b53 c63e

encoder.epic.epic_layers.0.fc_global2.weight_g f4 [4, 1]
0.4176395 0.5213644 0.71033144 0.7222402
00000000: d8d4 d53e 2378 053f 48d8 353f bce4 383f

encoder.epic.epic_layers.0.fc_global2.weight_v f4 [4, 4]
-0.1293365 -0.2504216 0.25645518 -0.10358826 0.0018933793 -0.2587792 0.39377084 -0.16090147
0.07763955 0.48054117 -0.4089834 0.37070203 0.45261073 -0.43399033 -0.20171914 0.2086443
00000000: ca70 04be 4337 80be 184e 833e 1526 d4bd
00000010: 442b f83a b57e 84be 559c c93e 5bc3 24be
00000020: 7c01 9f3d 7e09 f63e 4666 d1be a8cc bd3e
00000030: 98bc e73e fb33 debe 768f 4ebe daa6 553e

encoder.epic.epic_layers.0.fc_local1.bias f4 [4]
0.0907934 -0.070837624 0.20937325 -0.19281691
00000000: e4f1 b93d 5113 91bd f165 563e cc71 45be

encoder.epic.epic_layers.0.fc_local1.weight_g f4 [4, 1]
0.63476866 0.56245244 0.44706514 0.58147115
00000000: 3380 223f e2fc 0f3f b9e5 e43e 4bdb 143f

encoder.epic.epic_layers.0.fc_local1.weight_v f4 [4, 12]
-0.28711283 -0.16685924 -0.2655822 0.21130112 -0.25372773 -0.31103018 0.035042673 0.07040231
0.07037391 0.22669278 0.21146563 -0.066837765 -0.26037368 0.13604316 -0.2026521 -0.30290842
-0.222668 0.136553 0.1772178 -0.039341856 0.07149435 0.19596207 -0.05130051 -0.17656577
-0.097704165 -0.19939695 0.09178255 -0.095081456 0.15731494 -0.14661011 0.15972435 0.090065785
-0.070753194 0.014735291 0.05141212 -0.13690753 0.14544061 0.024560096 0.2692117 -0.07103905
0.2928449 -0.18514103 -0.1524317 -0.06758285 -0.21595861 0.04180945 0.18501581 0.15834258
00000000: 7400 93be 26dd 2abe 64fa 87be 525f 583e
00000010: 9ae8 81be 593f 9fbe e888 0f3d 162f 903d
00000020: 3220 903d 2722 683e 728a 583e 3de2 88bd
00000030: b34f 85be e64e 0b3e 0884 4fbe d016 9bbe
00000040: 1503 64be 8dd4 0b3e 9578 353e ed24 21bd
00000050: a16b 923d 48aa 483e 7c20 52bd a8cd 34be
00000060: 1f19 c8bd b72e 4cbe 7df8 bb3d 11ba c2bd
00000070: 2b17 213e f620 16be c88e 233e 6974 b83d
00000080: 0de7 90bd 4a6c 713c 8495 523d 7d31 0cbe
00000090: 62ee 143e 4132 c93c 1ed6 893e ec7c 91bd
000000a0: c4ef 953e 9c95 3dbe 0e17 1cbe e168 8abd
000000b0: 4124 5dbe 6340 2b3d c974 3d3e 8f24 223e

encoder.epic.epic_layers.0.fc_local2.bias f4 [4]
-0.46396014 0.10681255 0.39882964 0.3746104
00000000: 2f8c edbe 8ac0 da3d 6633 cc3e efcc bf3e

encoder.epic.epic_layers.0.fc_local2.weight_g f4 [4, 1]
0.6661711 0.5260437 0.5686749 0.4830686
00000000: 308a 2a3f cdaa 063f ae94 113f c454 f73e

encoder.epic.epic_layers.0.fc_local2.weight_v f4 [4, 4]
-0.38030955 -0.34730962 -0.20661506 -0.2917542 -0.23292674 0.2211936 0.40391314 -0.11879929
-0.1550912 0.07670932 0.3330597 0.47636428 0.414066 -0.043140575 -0.19714618 0.22859922
00000000: efb7 c2be 91d2 b1be e692 53be ce60 95be
00000010: 5984 6ebe 9380 623e b4cd ce3e 0b4d f3bd
00000020: 3ad0 1ebe c719 9d3d cd86 aa3e 05e6 f33e
00000030: 7500 d43e 2cb4 30bd b0e0 49be ea15 6a3e

encoder.epic.output_layer.bias f4 [11]
-0.1776106 -0.08107371 -0.32046133 -0.0035601594 -0.49484324 -0.4041006 0.5177808 -0.25522962
-0.16499849 -0.41278958 0.2962535
00000000: 8edf 35be f909 a6bd 8213 a4be 9051 69bb
00000010: 185c fdbe 46e6 cebe 488d 043f 75ad 82be
00000020: 5df5 28be 2859 d3be 8aae 973e

encoder.epic.output_layer.weight_g f4 [11, 1]
0.28268966 0.5062225 0.38770908 0.6965419 0.7204144 0.51796496 0.42301425 0.54437184
0.6457395 0.40434977 0.45966724
00000000: b3bc 903e cc97 013f ce81 c63e 9250 323f
00000010: 146d 383f 5a99 043f 5395 d83e f45b 0b3f
00000020: 2f4f 253f ef06 cf3e 8159 eb3e

encoder.epic.output_layer.weight_v f4 [11, 4]
0.07152978 -0.028930617 0.270124 0.0077955993 0.41260806 0.32126495 0.003971529 -0.1062414
-0.23499058 -0.27782366 0.15201528 0.051861074 -0.35778174 0.3631353 -0.3917941 -0.34275788
-0.49485567 0.44781893 0.3216264 0.046439454 -0.4417158 0.0745521 0.17773007 -0.28767
-0.21320312 0.075280726 0.20222372 -0.19664171 0.1422027 0.5104734 -0.09032569 0.26407766
-0.38521898 0.38502723 -0.34293127 0.11421616 -0.032297473 -0.04359532 -0.31430086 0.2606543
-0.08997722 0.04781616 -0.13995506 -0.38324606
00000000: 357e 923d e7ff ecbc b14d 8a3e 3a72 ff3b
00000010: 5d41 d33e d77c a43e 9a23 823b 1795 d9bd
00000020: 5fa1 70be e73e 8ebe e5a9 1b3e 476c 543d
00000030: 2b2f b7be dfec b93e 3c99 c8be f67d afbe
00000040: b95d fdbe 8648 e53e 37ac a43e 4c37 3e3d
00000050: 9328 e2be c5ae 983d dffe 353e 7b49 93be
00000060: eb51 5abe c82c 9a3d bc13 4f3e 725c 49be
00000070: 969d 113e 62ae 023f adfc b8bd 3035 873e
00000080: 6c3b c5be 4a22 c53e b094 afbe 29ea e93d
00000090: 5b4a 04bd 0291 32bd 0bec a0be 7b74 853e
000000a0: fa45 b8bd e1da 433d 6150 0fbe d438 c4be

loss_multimode.loss_weights f4 [2]
0.038983498 0.038918618
00000000: 29ad 1f3d 2169 1f3d

exp_avg f4 [4, 3]
0.007207502 -0.000192359 0.0025835608 -0.0036640111 -0.0022410213 0.0015433426 0.0006489041 -0.0017719112
0.0025859198 -0.0017537397 -0.001960179 0.0015134704
00000000: e92c ec3b fab3 49b9 f550 293b e81f 70bb
00000010: 19de 12bb fc49 ca3a 381b 2a3a 793f e8ba
00000020: 8978 293b bddd e5ba 5976 00bb a45f c63a

exp_avg_sq f4 [4, 3]
2.7717765e-06 1.4782581e-06 1.397772e-06 1.3275875e-06 1.6567883e-06 1.583838e-06 1.5901641e-07 2.6323858e-06
1.9357133e-06 8.3737757e-07 2.881255e-06 2.120973e-06
00000000: c202 3a36 9068 c635 159b bb35 8f2f b235
00000010: d05e de35 4294 d435 19be 2a34 0ba8 3036
00000020: 4de7 0136 26c8 6035 965b 4136 0a56 0e36

exp_avg f4 [4]
-0.0030862077 0.0050606253 0.0025377283 0.0035186773
00000000: f941 4abb 9ad3 a53b 0450 263b 9c99 663b

exp_avg_sq f4 [4]
1.5671158e-06 4.2502857e-06 2.1303e-06 4.4641756e-06
00000000: b055 d235 ad9d 8e36 46f6 0e36 faca 9536

exp_avg f4 [4]
0.0015448122 0.026470596 -0.026179882 0.00088759756
00000000: 4c7b ca3a ddd8 d83c 3177 d6bc aaad 683a

exp_avg_sq f4 [4]
1.8132797e-06 0.00014856822 6.424188e-05 1.5780137e-06
00000000: d15f f335 fac8 1b39 99b9 8638 23cc d335

exp_avg f4 [4, 1]
-0.0006807265 -0.0005236621 -0.0050319256 -1.0191965e-05
00000000: c872 32ba 5e46 09ba dae2 a4bb 28fe 2ab7

exp_avg_sq f4 [4, 1]
7.390367e-08 1.7388429e-06 1.0416907e-06 5.766169e-07
00000000: f9b4 9e33 3062 e935 38d0 8b35 d0c8 1a35

exp_avg f4 [4, 12]
0.0022207256 0.0013857259 -0.00081959093 -0.00021960413 0.001184984 -0.0005698873 -0.00079102366 -3.8202186e-05
0.0006927161 7.218389e-05 -0.00038821515 0.0016595813 0.01862208 0.02545794 0.015710648 0.000117732416
0.012935319 -0.0018881374 -0.005896894 0.01171314 0.016193025 -0.0021716377 0.007774933 -0.028771976
-0.022800146 -0.028055815 -0.012000799 0.0017190911 -0.017342411 -0.0052628727 0.0012681732 -0.010583417
-0.014449852 0.0007935325 -0.0057656765 0.019733243 0.00051591 0.00083935115 0.00080701034 1.4089119e-05
6.746117e-05 -0.00033630806 -0.00037926526 0.0005808809 -0.0018991671 -0.0012945461 -0.0010399658 0.00091451773
00000000: 9889 113b 3fa1 b53a d1d9 56ba 8945 66b9
00000010: 7751 9b3a 7d64 15ba b35c 4fba 493b 20b8
00000020: 6497 353a 6e61 9738 5b89 cbb9 4f86 d93a
00000030: 558d 983c 2b8d d03c 9eb3 803c 1ce7 f638
00000040: a9ee 533c 617b f7ba bb3a c1bb 78e8 3f3c
00000050: 3ca7 843c 0952 0ebb ddc4 fe3b 35b3 ebbc
00000060: 5fc7 babc 4fd5 e5bc 009f 44bc 2053 e13a
00000070: ac11 8ebc 2d74 acbb d538 a63a 1166 2dbc
00000080: 12bf 6cbc 1105 503a 00ee bcbb 9ca7 a13c
00000090: 223e 073a e707 5c3a 8c8d 533a 4e60 6c37
000000a0: f179 8d38 8152 b0b9 1fd8 c6b9 4246 183a
000000b0: 79ed f8ba c2ad a9ba 764f 88ba 3fbc 6f3a

exp_avg_sq f4 [4, 12]
1.6661405e-06 1.934069e-06 4.6590603e-07 8.192819e-09 1.1426845e-06 9.212218e-08 5.874295e-07 8.0718456e-07
1.849527e-06 1.4317069e-08 5.243744e-08 4.863253e-07 9.169445e-05 0.00013951518 5.436925e-05 3.04554e-08
3.436952e-05 2.8687537e-06 1.1579649e-05 3.8536997e-05 0.00012182317 1.1080022e-06 1.9584135e-05 0.00016346543
4.59091e-05 6.630338e-05 1.4014683e-05 1.2648356e-07 2.9113056e-05 2.5090915e-06 2.7567637e-06 7.757919e-06
1.4308248e-05 8.755482e-07 2.9410685e-06 3.748311e-05 6.0999554e-07 2.127535e-06 9.243305e-07 1.1813283e-07
8.815079e-07 3.36682e-08 3.6417472e-07 3.3434222e-07 2.4085994e-06 7.2580366e-07 5.289745e-07 4.2161278e-07
00000000: 27a0 df35 0dcb 0136 a321 fa34 66c0 0c32
00000010: 575e 9935 b4d4 c533 d9af 1d35 4dad 5835
00000020: 443d f835 23f7 7532 9337 6133 058c 0235
00000030: 154c c038 d24a 1239 8a0a 6438 11ce 0233
00000040: fe27 1038 d084 4036 3746 4237 c9a2 2138
00000050: 517b ff38 aab6 9435 9c48 a437 eb67 2b39
00000060: 858e 4038 5b0c 8b38 9b20 6b37 89cf 0734
00000070: d037 f437 dd61 2836 d700 3936 0228 0237
00000080: 750d 7037 3707 6b35 2c5f 4536 2f37 1d38
00000090: 93be 2335 c6c6 0e36 821f 7835 36b0 fd33
000000a0: c3a0 6c35 949a 1033 cb83 c334 a57f b334
000000b0: 6ca3 2136 d9d4 4235 dafe 0d35 055a e234

exp_avg f4 [4]
7.8686644e-05 1.7582613e-08 0.00026755227 -2.125293e-05
00000000: 9204 a538 9308 9732 4246 8c39 5248 b2b7

exp_avg_sq f4 [4]
5.0387033e-10 1.9859067e-10 3.4615832e-09 3.928985e-10
00000000: b980 0a30 4e5a 5a2f d1e0 6d31 8cff d72f

exp_avg f4 [4, 1]
0.00022568175 1.7609808e-07 0.00023258227 -3.490733e-05
00000000: fca4 6c39 7915 3d34 54e1 7339 7669 12b8

exp_avg_sq f4 [4, 1]
2.3656264e-09 1.0257906e-09 3.4905598e-09 5.8753202e-09
00000000: 8a90 2231 ccfb 8c30 94de 6f31 dddf c931

exp_avg f4 [4, 12]
-6.86371e-05 -5.7350753e-05 -5.8500522e-05 -3.4681158e-05 -3.785323e-05 0.00016153204 0.00046219726 0.00010530163
6.0757895e-05 0.00012626512 0.00010871169 -4.5928282e-05 -9.143459e-08 -2.8485147e-08 7.718608e-09 -8.1523275e-08
8.340827e-08 3.4435482e-07 -8.3677534e-08 3.2523488e-08 6.833977e-08 6.734935e-08 9.8680975e-09 4.4458176e-08
8.1917846e-05 0.00011175987 0.00010856174 -2.8678201e-05 0.00020029122 0.00040387874 0.0018153079 0.00013997211
0.00028259348 0.00029936104 9.403168e-05 3.4098368e-05 -1.0978036e-05 8.609647e-06 -1.0353789e-05 2.0020184e-06
-2.6532798e-05 -2.3482262e-05 -0.00015159622 -3.7103246e-06 -2.4837003e-05 -1.0560175e-05 5.497794e-06 7.641799e-06
00000000: 43f1 8fb8 e78b 70b8 755e 75b8 9c76 11b8
00000010: 99c4 1eb8 ed60 2939 1153 f239 62d5 dc38
00000020: 4bd6 7e38 0966 0439 25fc e338 1ea3 40b8
00000030: b35a c4b3 80af f4b2 cc9a 0432 e511 afb3
00000040: 2e1e b333 c4df b834 36b2 b3b3 f4af 0b33
00000050: 30c2 9233 b2a1 9033 5a88 2932 48f2 3e33
00000060: 4fcb ab38 a060 ea38 a4ab e338 f891 f0b7
00000070: 4405 5239 b0bf d339 a0ef ed3a 7ac5 1239
00000080: 0e29 9439 8ff3 9c39 e032 c538 d804 0f38
00000090: 4e2e 38b7 2772 1037 2fb5 2db7 6a5a 0636
000000a0: c092 deb7 c6fb c4b7 cdf5 1eb9 e4fe 78b6
000000b0: 0f59 d0b7 9b2b 31b7 b179 b836 4735 0037

exp_avg_sq f4 [4, 12]
2.2125923e-10 1.4829885e-10 1.6235284e-10 5.4140532e-11 3.4035244e-10 1.34497515e-08 1.2036121e-08 1.0419201e-09
3.3832379e-10 1.0335037e-09 6.3800415e-10 9.794098e-11 2.808703e-10 1.7769735e-11 7.1813827e-12 2.2158302e-10
6.4565525e-10 1.4529885e-08 3.995114e-09 2.9966815e-10 4.606595e-10 5.261386e-10 5.55404e-11 6.722777e-11
4.4945614e-10 8.5318885e-10 6.043197e-10 5.29096e-11 2.6737983e-09 1.694624e-08 1.3600739e-07 2.157166e-09
4.315614e-09 4.606047e-09 3.8860218e-10 7.0995834e-11 5.388752e-10 3.1518882e-10 2.1240706e-10 2.9278326e-11
4.0389185e-09 1.9388473e-08 5.892626e-09 3.6073575e-11 8.1944096e-10 9.166743e-11 4.862615e-10 2.719658e-10
00000000: f046 732f 6a0e 232f 4382 322f d21c 6e2e
00000010: 591c bb2f a210 6732 6cc7 4e32 4e33 8f30
00000020: d7fe b92f 2e0b 8e30 8d5f 2f30 df5f d72e
00000030: fb68 9a2f e34d 9c2d 25ac fc2c 13a2 732f
00000040: f379 3130 1c9f 7932 6545 8931 8bbe a42f
00000050: 1040 fd2f b69f 1030 ee44 742e dfd5 932e
00000060: 5417 f72f d485 6a30 381d 2630 eab2 682e
00000070: f5bd 3731 2d91 9132 6d09 1234 443d 1431
00000080: 8b48 9431 3843 9e31 e5a2 d52f 1a1f 9c2e
00000090: f91f 1430 e246 ad2f 468b 692f 77c4 002e
000000a0: b4c6 8a31 b48b a632 1678 ca31 3ca7 1e2e
000000b0: 083f 6130 2d94 c92e 9ca9 0530 c983 952f

exp_avg f4 [4]
0.00056016777 3.177351e-06 4.7157046e-06 -0.0005572306
00000000: 39d8 123a 793a 5536 983b 9e36 1d13 12ba

exp_avg_sq f4 [4]
1.5811667e-08 5.128812e-13 1.0750257e-12 1.4879005e-08
00000000: 39d2 8732 fc5c 102b e24b 972b 8e9e 7f32

exp_avg f4 [4, 1]
0.0008238673 -4.594671e-06 -5.1340485e-06 -0.00041686452
00000000: ccf8 573a ec2b 9ab6 2445 acb6 9c8e dab9

exp_avg_sq f4 [4, 1]
3.143405e-08 1.2891458e-12 1.107239e-12 6.96912e-09
00000000: 1a02 0733 5f6e b52b 7dd4 9b2b 0775 ef31

exp_avg f4 [4, 4]
0.00016706318 0.00040986575 0.0002484356 0.00014823116 2.9254104e-06 3.4951364e-07 -3.7159413e-08 -3.426414e-07
2.21472e-06 4.030383e-06 2.2280744e-06 4.633348e-06 -0.00052327436 -0.00019210395 -0.00059860235 -0.00044002233
00000000: ae2d 2f39 40e3 d639 7640 8239 806e 1b39
00000010: 2b52 4436 caa4 bb34 3599 1fb3 47f4 b7b4
00000020: 9aa0 1436 ba3c 8736 0786 1536 2878 9b36
00000030: 592c 09ba 836f 49b9 86eb 1cba ccb2 e6b9

exp_avg_sq f4 [4, 4]
1.8007669e-09 8.925632e-09 4.370307e-09 3.0536622e-09 3.564774e-13 7.293859e-14 9.4106944e-15 7.148825e-15
2.1504673e-13 6.871655e-13 2.9288055e-13 1.1529744e-12 1.1524658e-08 2.3590618e-09 1.810287e-08 1.442125e-08
00000000: da7e f730 5857 1932 a029 9631 98d8 5131
00000010: cfad c82a 3c3e a429 2b87 2928 23c8 0028
00000020: 001f 722a 7e6b 412b 89e0 a42a 4844 a22b
00000030: fbfd 4532 0e1d 2231 a280 9b32 54c1 7732

exp_avg f4 [4]
-0.0019127801 -8.161536e-06 -2.7326692e-05 1.3660347e-06
00000000: 40b6 faba 88ed 08b7 a03b e5b7 9858 b735

exp_avg_sq f4 [4]
1.7636587e-07 3.1117279e-12 4.629434e-09 2.0697884e-12
00000000: 155f 3d34 e8f7 5a2c ef10 9f31 fea5 112c

exp_avg f4 [4, 1]
-0.00015554178 6.75255e-06 1.1352945e-05 -3.3772903e-07
00000000: ee18 23b9 f693 e236 8778 3e37 2051 b5b4

exp_avg_sq f4 [4, 1]
1.5609563e-09 2.544726e-12 3.0686223e-10 1.830675e-13
00000000: 4489 d630 b511 332c 05b3 a82f 9d1d 4e2a

exp_avg f4 [4, 4]
-0.0011318682 -2.9834666e-05 -5.7463927e-05 -0.0011854536 -2.0492334e-06 -1.6132768e-06 -3.4844188e-06 -2.1211113e-06
2.4050355e-06 5.1631414e-06 3.420606e-08 -4.4124886e-06 5.8841204e-07 -1.1222123e-07 -1.748915e-07 1.0573673e-06
00000000: 325b 94ba 7545 fab7 6c05 71b8 3961 9bba
00000010: 9085 09b6 c587 d8b5 dcd5 69b6 6a58 0eb6
00000020: 3266 2136 0c3f ad36 f6e9 1233 fd0e 94b6
00000030: 5ef3 1d35 46fe f0b3 cfc9 3bb4 ddea 8d35

exp_avg_sq f4 [4, 4]
5.547172e-08 1.212183e-10 3.260234e-10 5.9687885e-08 3.7705893e-13 1.419977e-13 6.7423383e-13 1.6395897e-13
7.216311e-10 7.646262e-11 9.228603e-14 1.392317e-10 2.5966997e-13 2.2033187e-14 4.561885e-14 4.4368445e-13
00000000: cd3f 6e33 eb47 052f b73b b32f c32d 8033
00000010: eb43 d42a 0de0 1f2a abc7 3d2b f599 382a
00000020: 465c 4630 a124 a82e 46cf cf29 3d16 192f
00000030: 632e 922a 1275 c628 f472 4d29 abc5 f92a

exp_avg f4 [4]
2.5761472e-06 0.00068082777 -0.0008212296 3.4648447e-06
00000000: dfe1 2c36 9479 323a c947 57ba 9485 6836

exp_avg_sq f4 [4]
9.934662e-13 2.2561975e-08 3.0549653e-08 9.612251e-11
00000000: 64d1 8b2b 4fce c132 b335 0333 2a60 d32e

exp_avg f4 [4, 1]
-9.807183e-06 0.000603126 -0.0011335877 -9.155219e-06
00000000: 8889 24b7 1a1b 1e3a e494 94ba 5e99 19b7

exp_avg_sq f4 [4, 1]
7.2072717e-12 3.38023e-08 5.509869e-08 1.0447318e-11
00000000: 5595 fd2c 062e 1133 a6a5 6c33 8aca 372d

exp_avg f4 [4, 16]
2.8691427e-06 -9.714804e-07 4.4942967e-06 -1.7062582e-08 1.8332703e-06 6.1710025e-06 1.8173941e-05 -3.6426384e-06
-3.1253699e-06 1.5988244e-06 1.0307068e-06 1.0059222e-06 -2.0556135e-06 -7.073761e-07 2.6850555e-06 1.5696153e-06
-6.6594774e-05 -5.4112996e-05 3.8260812e-05 -3.0496962e-05 0.00033359116 0.0011694188 0.004705494 0.0005272235
6.4263104e-06 1.9191722e-05 0.00012274523 -5.716953e-05 0.00069135154 0.00085319823 0.00044592394 0.00024520062
-0.00020389722 0.00031653704 0.00014885893 0.0002914856 -0.0008572518 -0.0019806102 -0.0076979464 -0.00029571424
0.00026309275 -1.6606242e-05 0.000447984 -0.00015656053 -0.0012032468 -0.001008878 -0.00084397406 0.0004228139
-2.6337777e-06 1.9575896e-06 2.673672e-06 -2.440233e-06 2.7620201e-06 8.8749075e-06 2.7034044e-05 -1.5996045e-06
-3.375496e-07 -3.3383137e-06 1.0793034e-06 3.9237725e-06 3.8716084e-06 3.5440876e-06 1.4440222e-06 3.4669629e-06
00000000: 7f8b 4036 d063 82b5 b7cd 9636 0491 92b2
00000010: b00e f635 8210 cf36 3e74 9837 0d74 74b6
00000020: 72bd 51b6 3097 d635 d156 8a35 3903 8735
00000030: 2cf3 09b6 84e2 3db5 e730 3436 92ab d235
00000040: cca8 8bb8 63f7 62b8 3c7a 2038 bad3 ffb7
00000050: d9e5 ae39 2f47 993a 8b30 9a3b 5f35 0a3a
00000060: 96a1 d736 e9fd a037 2cb5 0039 51c9 6fb8
00000070: d13b 353a 2aa9 5f3a e6ca e939 458e 8039
00000080: 3ecd 55b9 e2f4 a539 0417 1c39 89d2 9839
00000090: 32b9 60ba 20cd 01bb 0e3f fcbb 180a 9bb9
000000a0: b6ef 8939 a24d 8bb7 65df ea39 662a 24b9
000000b0: 43b6 9dba 543c 84ba 243e 5dba 1fad dd39
000000c0: f5bf 30b6 225f 0336 566d 3336 e2c2 23b6
000000d0: 255b 3936 70e5 1437 2bc7 e237 feb1 d6b5
000000e0: 7738 b5b4 cb07 60b6 95dc 9035 f3a8 8336
000000f0: dde8 8136 f6d6 6d36 3ad0 c135 f8a9 6836

exp_avg_sq f4 [4, 16]
6.2687903e-13 7.270853e-14 1.4030253e-12 6.881174e-15 1.2332976e-12 2.9289658e-11 2.5075279e-11 1.1768108e-12
7.516863e-13 2.1827235e-13 1.2063999e-13 1.02830945e-13 1.9120408e-13 1.8312568e-13 7.424601e-13 2.1472583e-13
4.1038847e-10 2.6428174e-10 2.0995171e-10 1.1054531e-10 1.10128235e-08 4.325622e-07 1.1361658e-06 3.8544695e-08
9.604378e-10 2.3368208e-11 1.4757792e-09 2.7075753e-10 2.6143836e-08 4.2986006e-08 1.4066412e-08 6.2134924e-09
1.7788028e-09 4.09212e-09 1.1452108e-09 3.5328729e-09 3.208766e-08 4.9748337e-07 2.6296925e-06 4.0240018e-08
3.9288404e-09 2.0516058e-11 8.339735e-09 1.064546e-09 6.1295026e-08 4.411304e-08 2.877715e-08 7.44811e-09
1.4176841e-12 1.2940131e-12 4.511101e-13 8.608306e-13 4.8550386e-10 8.066833e-09 1.0745379e-09 5.6072296e-11
9.885101e-13 1.2290098e-12 2.2723514e-12 1.8777371e-12 4.6498475e-11 9.690351e-11 4.783032e-11 1.3081143e-12
00000000: 6573 302b 9db9 a329 5075 c52b a1eb f727
00000010: 3b92 ad2b 39d1 002e 8290 dc2d 149f a52b
00000020: b594 532b b9c0 752a 1cd4 072a 018e e729
00000030: d346 572a 622e 4e2a e3fb 502b 82c2 712a
00000040: 0b9d e12f 594a 912f 27d8 662f 7a17 f32e
00000050: e932 3d32 e53a e834 5c7e 9835 578c 2533
00000060: 6700 8430 878c cd2d 5dd4 ca30 bcd9 942f
00000070: e792 e032 9d9f 3833 bca8 7132 757e d531
00000080: 0f7a f430 ab9a 8c31 8665 9d30 f5c6 7231
00000090: c1d0 0933 cc8a 0535 c679 3036 5ed4 2c33
000000a0: 72fe 8631 0e76 b42d 8b46 0f32 624f 9230
000000b0: 4ca1 8333 cd76 3d33 9f31 f732 45ea ff31
000000c0: 7485 c72b bc1d b62b d1f3 fd2a 624d 722b
000000d0: 4c74 0530 4f96 0a32 f1ae 9330 cb9b 762e
000000e0: d41e 8b2b bff7 ac2b 0be7 1f2c 4e22 042c
000000f0: a180 4c2e d417 d52e 275c 522e c919 b82b

exp_avg f4 [4]
-0.0017798407 -0.00081293914 9.65926e-06 3.193415e-05
00000000: 8b49 e9ba 6c1b 55ba 350e 2237 08f1 0538

exp_avg_sq f4 [4]
1.5808386e-07 3.1141646e-08 2.0937643e-08 1.830332e-08
00000000: c3bd 2934 9ac0 0533 5dda b332 6d39 9d32

exp_avg f4 [4, 1]
-0.0003146218 -0.0004093612 1.3431627e-06 -1.6645185e-05
00000000: d3f3 a4b9 889f d6b9 b846 b435 43a1 8bb7

exp_avg_sq f4 [4, 1]
3.941545e-09 8.001274e-09 8.300296e-09 1.3753441e-09
00000000: 326e 8731 fa75 0932 1699 0e32 9e06 bd30

exp_avg f4 [4, 4]
-7.499767e-05 -0.0011436291 -0.0011889314 -6.167002e-05 2.1775193e-05 -0.00080952107 -0.0005863383 -0.00012365245
-3.4333533e-07 9.80115e-06 1.0810007e-05 -8.2326466e-07 1.0808547e-05 8.303777e-06 1.1641346e-05 4.842045e-06
00000000: 1148 9db8 d3e5 95ba ebd5 9bba d754 81b8
00000010: dfa9 b637 0a36 54ba 7fb4 19ba b4a8 01b9
00000020: a653 b8b4 9e6f 2437 a05c 3537 51fe 5cb5
00000030: 5b56 3537 7350 0b37 334f 4337 da78 a236

exp_avg_sq f4 [4, 4]
2.5471436e-10 5.5477276e-08 6.107673e-08 1.6688434e-10 2.8456158e-11 3.494491e-08 1.8750203e-08 7.4589185e-10
9.431226e-11 8.3395015e-09 5.1605427e-09 2.005812e-09 5.859372e-10 8.923034e-10 2.4910157e-10 1.3540948e-10
00000000: dc07 8c2f e945 6e33 4a29 8333 c47d 372f
00000010: 924d fa2d 5616 1633 2210 a132 7907 4d30
00000020: 1565 cf2e 8445 0f32 9d50 b131 9ed6 0931
00000030: aa0f 2130 4546 7530 eef1 882f 61e2 142f

exp_avg f4 [4]
0.005556846 0.002405375 -7.103528e-05 -0.00053640245
00000000: 3416 b63b 7fa3 1d3b c7f8 94b8 5c9d 0cba

exp_avg_sq f4 [4]
3.957142e-06 1.936e-06 2.21677e-06 1.5657239e-08
00000000: 97c7 8436 3aec 0136 d2c3 1436 a27e 8632

exp_avg f4 [4, 1]
0.0022230134 0.00073080533 -0.00014805663 -0.00021458468
00000000: faaf 113b 8493 3f3a a63f 1bb9 2302 61b9

exp_avg_sq f4 [4, 1]
1.1160695e-06 4.03995e-07 1.1164652e-08 2.6374487e-09
00000000: dbcb 9535 a6e4 d834 a9ce 3f32 7d3e 3531

exp_avg f4 [4, 12]
0.0009986698 0.00055672595 0.0014387767 -0.0006196337 0.0014423144 0.001233486 -0.00011638674 9.551002e-05
0.0040870514 0.004363735 0.0016996593 0.00021151832 0.00019182646 0.0001198349 0.00076153997 0.00036591134
0.0004381262 0.00013073544 -0.00019138254 7.2173614e-05 0.0016567172 0.0019467673 0.0010889858 0.000194279
-0.00019953998 -0.00014712992 -0.00013931199 2.8033233e-05 -0.00014388999 0.00021048676 6.164103e-05 -0.00020182098
-0.00025399358 -7.183276e-05 6.7332825e-05 -5.1322815e-05 6.222176e-05 -0.0001542446 -0.0002819388 -2.0595971e-05
6.385534e-05 -0.00010543204 -5.1759616e-05 -4.5168264e-05 -0.00042062363 -0.00050806603 -0.00031857975 5.1325158e-05
00000000: cce5 823a 3ff1 113a 5695 bc3a ea6e 22ba
00000010: 0a0c bd3a ecac a13a a814 f4b8 8d4c c838
00000020: acec 853b aafd 8e3b 1ac7 de3a 04cb 5d39
00000030: 0625 4939 df4f fb38 15a2 473a cad7 bf39
00000040: 4eb4 e539 0716 0939 dcad 48b9 ea5b 9738
00000050: 3426 d93a ac2a ff3a 4dbc 8e3a 5fb7 4b39
00000060: 9b3b 51b9 e346 1ab9 4714 12b9 e928 eb37
00000070: 2de1 16b9 1cb6 5c39 4745 8138 e89f 53b9
00000080: 712a 85b9 eba4 96b8 0935 8d38 7443 57b8
00000090: 0e7d 8238 b8bc 21b9 2fd1 93b9 83c5 acb7
000000a0: 13ea 8538 651b ddb8 7718 59b8 0e73 3db8
000000b0: 2687 dcb9 bc2f 05ba 0d07 a7b9 f845 5738

exp_avg_sq f4 [4, 12]
2.1250587e-07 1.0701103e-07 3.790252e-07 6.036248e-08 1.8801771e-07 2.2478493e-07 1.5431725e-09 4.797768e-08
2.2085862e-06 2.316413e-06 3.0532024e-07 6.701277e-09 5.5314192e-08 2.3877675e-08 1.3853092e-07 9.879525e-08
5.1870092e-08 1.5016202e-08 1.7775923e-08 5.116599e-08 1.0133557e-06 1.2412161e-06 5.0035493e-07 2.8548381e-08
7.280917e-09 1.1184656e-07 7.663501e-08 1.5662064e-08 1.6384202e-08 1.5791779e-08 9.279273e-09 5.7660966e-08
1.6301565e-06 2.3661562e-06 6.829962e-07 1.4590921e-09 1.7091341e-10 9.441231e-10 4.2407193e-09 1.9079559e-10
3.5407227e-10 5.300663e-10 1.5629016e-10 1.05442814e-10 8.946263e-09 1.3973277e-08 6.111984e-09 1.5048882e-10
00000000: 2b2d 6434 f0cd e533 d47c cb34 a0a0 8133
00000010: eae1 4934 695c 7134 8e17 d430 0410 4e33
00000020: 3937 1436 ac73 1b36 e5ea a334 0e41 e631
00000030: 9992 6d33 901b cd32 17bf 1434 4329 d433
00000040: c5c7 5e33 fafc 8032 abb1 9832 9ac1 5b33
00000050: a302 8835 dc97 a635 2150 0635 8e3a f532
00000060: a02b fa31 4c30 f033 8b92 a433 3e89 8632
00000070: 3ebd 8c32 7da6 8732 ad6a 1f32 e7a6 7733
00000080: c0cb da35 41ca 1e36 2457 3735 3d89 c830
00000090: d9eb 3b2f 61c2 8130 c3b5 9131 2fc8 512f
000000a0: 3ea7 c22f 1ab4 1130 c5d7 2b2f 07df e72e
000000b0: 15b2 1932 1f0f 7032 9401 d231 d676 252f

exp_avg f4 [4]
0.000304874 0.018236175 -0.011033751 0.021193441
00000000: 7fd7 9f39 0864 953c e8c6 34bc de9d ad3c

exp_avg_sq f4 [4]
8.146794e-09 5.597652e-05 1.7992425e-05 4.2782824e-05
00000000: fbf5 0b32 55c8 6a38 70ee 9637 b571 3338

exp_avg f4 [4, 1]
-9.802031e-05 0.0009541843 -0.0006190711 0.0040889573
00000000: 4190 cdb8 3922 7a3a 2949 22ba a9fc 853b

exp_avg_sq f4 [4, 1]
1.3653627e-09 2.2938812e-07 1.8061082e-08 3.8263565e-06
00000000: 6ea7 bb30 ba4d 7634 bd24 9b32 2764 8036

exp_avg f4 [4, 4]
4.6240366e-05 -2.5844984e-05 2.823669e-05 -4.899862e-05 0.005942821 0.0013781548 0.002715499 0.00022667187
-0.0026636594 -0.0007113569 -0.0016988561 0.00042242245 0.003763208 0.0022327462 0.0054964935 -0.0017178312
00000000: 37f2 4138 aecd d8b7 d4dd ec37 de83 4db8
00000010: ffbb c23b 34a3 b43a 83f6 313b c4ae 6d39
00000020: ca90 2ebb 5a7a 3aba 27ac deba 9578 dd39
00000030: 27a0 763b 4453 123b ee1b b43b da28 e1ba

exp_avg_sq f4 [4, 4]
3.6476294e-10 5.3695905e-11 5.0816396e-11 3.5324033e-10 1.2761723e-05 1.6385002e-06 1.3189986e-06 5.8466703e-09
2.7604171e-06 4.8701173e-07 6.031948e-07 8.774532e-09 1.6419716e-06 1.1822435e-06 3.8874255e-06 6.259197e-07
00000000: d287 c82f 3728 6c2e 2d7e 5f2e 2832 c22f
00000010: 2f1b 5637 70ea db35 7208 b135 dbe3 c831
00000020: 9b3f 3936 31bb 0235 3beb 2135 cdbe 1632
00000030: b761 dc35 94ad 9e35 bb70 8236 e004 2835

exp_avg f4 [11]
0.0135109825 -0.008350417 -0.065562725 -0.03612192 0.0074554244 -0.03201336 -0.008067275 0.01927609
0.015835846 0.012546609 0.02108859
00000000: 2b5d 5d3c 30d0 08bc c045 86bd 94f4 13bd
00000010: a24c f43b 7120 03bd 9b2c 04bc e4e8 9d3c
00000020: 2dba 813c 4b90 4d3c fbc1 ac3c

exp_avg_sq f4 [11]
3.5627494e-05 6.066119e-05 0.0005004109 8.968888e-05 4.159295e-06 7.195962e-05 8.233897e-06 2.8119626e-05
1.9330098e-05 1.1676368e-05 2.987782e-05
00000000: bb6e 1538 756e 7e38 022e 033a 5a17 bc38
00000010: 1290 8b36 07e9 9638 5124 0a37 70e2 eb37
00000020: 1227 a237 9ee5 4337 21a2 fa37

exp_avg f4 [11, 1]
0.007335191 0.00020005388 -0.0117641 0.016470185 0.003738649 -0.0014203878 -0.005741174 0.0058470457
-0.0025945173 -0.00314688 -0.013970876
00000000: 0b5c f03b 8ec5 5139 36be 40bc 7bec 863c
00000010: 1f04 753b 4e2c baba 7520 bcbb 9398 bf3b
00000020: c708 2abb e33b 4ebb 1ae6 64bc

exp_avg_sq f4 [11, 1]
1.5040578e-05 1.5134383e-06 1.4354873e-05 1.9957495e-05 1.1928281e-06 8.359144e-07 1.6079724e-06 5.7684374e-06
3.4343734e-07 3.6623544e-07 1.298715e-05
00000000: ca56 7c37 5821 cb35 b6d5 7037 656a a737
00000010: 4319 a035 9a63 6035 83d1 d735 808e c136
00000020: ab61 b834 049f c434 62e3 5937

exp_avg f4 [11, 4]
-0.0019621311 -0.008591429 -0.000685318 0.008092741 -0.0010536172 0.0009934056 -0.006975794 -0.0012824666
-0.0062171286 -0.026342196 -0.04916123 -0.027440965 0.0070724897 -0.012859432 -0.009851793 -0.009608882
0.0024703608 -0.00026939498 0.0038469252 0.0020736973 -0.0008221871 -0.00858475 -0.022609899 -0.014746462
-0.0036486688 -0.0012955483 -0.010719586 -0.0074306284 -0.0012280138 -0.00047663262 0.01439829 0.006406585
-0.0014853764 0.004903094 0.009959448 0.008123357 -0.00022059074 0.0022221315 0.006459081 0.008058637
-0.0032352833 0.006709143 0.011909 -0.0026777769
00000000: 1997 00bb 11c3 0cbc eaa6 33ba 6a97 043c
00000010: 8719 8aba 2935 823a 3495 e4bb 7018 a8ba
00000020: 0eb9 cbbb 97cb d7bc 495d 49bd e0cb e0bc
00000030: 58c0 e73b 5eb0 52bc 6a69 21bc 926e 1dbc
00000040: c7e5 213b 953d 8db9 b21c 7c3b dee6 073b
00000050: 0b88 57ba 0da7 0cbc 6538 b9bc 259b 71bc
00000060: 811e 6fbb 63cf a9ba 34a1 2fbc a17c f3bb
00000070: 4ef5 a0ba 8ce4 f9b9 cee6 6b3c 55ee d13b
00000080: f6b0 c2ba 22aa a03b f42c 233c d417 053c
00000090: 604e 67b9 2ea1 113b b3a6 d33b 6008 043c
000000a0: 0c07 54bb 5fd8 db3b f71d 433c a47d 2fbb

exp_avg_sq f4 [11, 4]
1.0738853e-06 2.4189705e-05 1.1066112e-06 1.2460073e-05 1.3496598e-06 4.985294e-06 3.480302e-05 2.133629e-05
4.242913e-06 7.552334e-05 0.00023921796 0.0001463148 3.386098e-06 1.3151804e-05 4.736851e-06 9.215828e-06
5.064843e-07 6.660725e-08 7.142357e-07 4.4168587e-07 4.8105574e-07 1.1552061e-05 2.8209528e-05 1.6666532e-05
6.282554e-07 1.0946695e-06 9.520386e-06 5.180012e-06 2.0975882e-07 1.5995614e-07 1.3285837e-05 3.384126e-06
1.2138055e-07 1.7463939e-06 7.0821484e-06 6.0987923e-06 2.9039446e-09 7.427476e-07 3.3939507e-06 4.4550416e-06
7.7574373e-07 4.2736556e-06 7.138085e-06 2.5548417e-07
00000000: 6b22 9035 ffea ca37 df86 9435 9b0b 5137
00000010: f525 b535 5947 a736 75f9 1138 55fb b237
00000020: 585e 8e36 4962 9e38 95d6 7a39 146c 1939
00000030: b83c 6336 91a6 5c37 3ef1 9e36 ae9d 1a37
00000040: 56f5 0735 b909 8f33 e7b9 3f35 d820 ed34
00000050: e621 0135 b9cf 4137 80a3 ec37 1bcf 8b37
00000060: 62a5 2835 8fec 9235 bfb9 1f37 f7cf ad36
00000070: 113a 6134 69c0 2b34 3ce6 5e37 d81a 6336
00000080: d554 0234 a365 ea35 31a3 ed36 3aa4 cc36
00000090: bc8e 4731 3a61 4735 a1c3 6336 847c 9536
000000a0: b43c 5035 6c66 8f36 af83 ef36 7a29 8934

exp_avg f4 [2]
-0.64560455 -0.740826
00000000: 5746 25bf c6a6 3dbf

exp_avg_sq f4 [2]
0.027676288 0.036950972
00000000: 62b9 e23c e759 173d
