tests/output/multimodal-jets/a4e55223e6f34516af890204cef75ebf/checkpoints/best-epoch=03-val_loss_continuous=411.2412.ckpt (torch, 80890 bytes, 160 tensors)

embedder.embedding_continuous.embedding.weight f4 [4, 3]
00000000: d5a8 f0be ff74 f03e 831b 113e e49c a6bd
00000010: ce52 98be 144d 8bbe 034b 003f 634f b23e
00000020: aca8 5cbd 081d 883e 2e48 a3be 3a7f eebe
-0.4700381 0.4696426 0.14170651 -0.08135393 -0.29750675 -0.27207243 0.5011446 0.34826192
-0.053871796 0.2658465 -0.31891006 -0.4658144

embedder.embedding_continuous.embedding.bias f4 [4]
00000000: 59f5 3f3e 1971 07be 06c0 e73e 6dad e6be
0.18745936 -0.13226737 0.4526369 -0.45054188

embedder.embedding_discrete.embedding.weight f4 [8, 4]
00000000: ae13 51bf a1ca 93be 0a2b 99bf fe06 0ebf
00000010: 6498 b1bd 4711 c83f 8e71 ab3f 8fa9 a83f
00000020: 0312 0abf faa1 05c0 a1ef 323f 0b6e 6c3f
00000030: 3cec 03c0 68c0 e8bf 8a93 6cbf 743c ca3f
00000040: 9785 39bc af7a bdbe 7141 00bf 054d 73bf
00000050: 8135 c23e fb76 ffbd d465 c23f 5970 97be
00000060: 13a7 c9be 3c65 46bf d966 4dbf d67a 49bf
00000070: 1119 e8be fec0 48be dfae 00bf 7ea5 493f
-0.81670654 -0.2886553 -1.196626 -0.5547942 -0.08671644 1.5630273 1.3394029 1.3176745
-0.53933734 -2.0880113 0.69896895 0.9235541 -2.0612936 -1.8183718 -0.92412627 1.5799699
-0.011323354 -0.37007663 -0.50099856 -0.950394 0.37931445 -0.124738656 1.5187325 -0.29577902
-0.3938528 -0.7749822 -0.8023506 -0.7870306 -0.45331624 -0.1960487 -0.5026683 0.78768146

encoder.multimode_epic.epic_proj.local_0.bias f4 [4]
00000000: 844c 60be fe5a ce3c a8d9 76be 577a 493e
-0.21904188 0.025189873 -0.24106467 0.19675575

encoder.multimode_epic.epic_proj.local_0.weight_g f4 [4, 1]
00000000: 3dae 2e3f a854 1f3f ba67 1b3f e9d0 103f
0.68234617 0.6223855 0.6070515 0.5656877

encoder.multimode_epic.epic_proj.local_0.weight_v f4 [4, 12]
00000000: 7e79 ab3c 1bab 89be 3499 843e a9b0 4bbc
00000010: 9da3 913e 9877 5b3d 19b1 14be eea0 3f3e
00000020: 8419 78bd 8f3a 723e 6c37 853e 0953 cebd
00000030: 3811 92be 2193 34bd a2f8 ebbd 66ee 83be
00000040: 4300 1abe 1f92 3b3e 0ff9 42bd b6c4 1f3e
00000050: 957b 363e 201b 54be 3a5e 8f3e 71e8 59be
00000060: e99c fa3d 77a2 403e 079d 503e e210 043c
00000070: 3de6 6c3e 0b3c 5b3e 7a72 35be 093a aebd
00000080: ded0 7d3d 674a 0abe 08ab 0dbe c76f 923e
00000090: 2373 0a3e 8f06 0e3c a177 d1bd 6067 57be
000000a0: 3cb6 37bd 3e8a 3d3e 9363 61bd 445b 9a3e
000000b0: 013a 13be 6192 3ebe 3b05 7e3e 3476 173d
0.020931955 -0.26888356 0.25898135 -0.012432256 0.2844514 0.05358085 -0.14520682 0.18713734
-0.06057121 0.23655151 0.26018846 -0.100744314 -0.28528762 -0.044085626 -0.11522032 -0.2576782
-0.15039162 0.1831746 -0.047600802 0.15602383 0.1782058 -0.20713472 0.28001577 -0.21280076
0.122369595 0.18811975 0.20372401 0.008060666 0.23134704 0.21409623 -0.1771945 -0.08507163
0.06196677 -0.13504945 -0.13834774 0.28600904 0.13520484 0.008668556 -0.102278955 -0.21035528
-0.044851527 0.18509766 -0.055026602 0.30147755 -0.14377595 -0.18610527 0.24806683 0.03697796

encoder.multimode_epic.epic_proj.global_0.bias f4 [4]
00000000: e7c4 adbb f4b4 443e 12cd 3ebe fb11 ec3d
-0.0053030136 0.19209653 -0.18632916 0.11526867

encoder.multimode_epic.epic_proj.global_0.weight_g f4 [4, 1]
00000000: a3e4 0e3f 98d8 0d3f 2599 063f dc04 233f
0.5581762 0.5540862 0.5257743 0.6367929

encoder.multimode_epic.epic_proj.global_0.weight_v f4 [4, 12]
00000000: 3be9 173d 8f99 8d3e c38e 983d 6f7a 993d
00000010: dd71 78be 0eae f33d 2796 05be 3aa4 37bd
00000020: 0814 46be 4910 0dbe 4ebd 7abd ac09 5bbe
00000030: b376 9a3c b00a 143e 639c 373e 4b47 0fbe
00000040: 223d 96bd d49b 8ebe 02ed 573e 94bc 4b3d
00000050: 6d13 88bd ba89 2dbe 271f d3bd 0840 523e
00000060: 1e2b f73c 6506 cebd 6a16 83bd 32dc 8bbe
00000070: 3d53 9ebd 6ef5 03be 4ab6 fc3d 9d8e 7abe
00000080: 67f0 d03c 6e63 833e 642a 6bbe da56 99bc
00000090: 0953 7ebe ff03 21be bcc4 59be 3afb 7ebe
000000a0: 1767 16be 0247 923b 761e 703e 6dee 7dbe
000000b0: 91ce 34bd fa77 febd a93d 97bd ea5a 703d
0.03708766 0.27656218 0.07449105 0.074940555 -0.24262185 0.11898433 -0.1304556 -0.044834353
-0.19343579 -0.13775744 -0.06121569 -0.21390408 0.018855428 0.14457202 0.1793075 -0.1399204
-0.07335879 -0.27853262 0.21086505 0.04974039 -0.0664433 -0.1694707 -0.10308676 0.20532238
0.030171927 -0.100598134 -0.064007595 -0.27316433 -0.0773072 -0.12886593 0.123394564 -0.24468465
0.025505258 0.25661796 -0.2296539 -0.018718172 -0.24836363 -0.1572418 -0.21266454 -0.24900523
-0.14687763 0.004464031 0.2344912 -0.24797983 -0.04414231 -0.124252275 -0.073848076 0.058680452

encoder.multimode_epic.epic_proj.global_1.bias f4 [4]
00000000: 21d1 503d 934c dfbd b3bd e43d a9f7 4d3e
0.05098069 -0.10903277 0.11168995 0.20114006

encoder.multimode_epic.epic_proj.global_1.weight_g f4 [4, 1]
00000000: a171 073f 2d86 eb3e a90f 013f f8b9 b23e
0.5290776 0.46000805 0.5041452 0.34907508

encoder.multimode_epic.epic_proj.global_1.weight_v f4 [4, 4]
00000000: 93f9 333d a5c4 e53e 3800 793d 97d6 7f3e
00000010: 297b 0f3e 3230 13be e2cb e13d 7c78 c53e
00000020: 2173 033e 7bcb 033e e201 53bd e44a f93e
00000030: af5f 593e 581b 86be ad07 6bbd b550 92bc
0.043939184 0.4487659 0.060791224 0.24984203 0.14011826 -0.14373854 0.11025216 0.38568485
0.12836887 0.1287059 -0.051515467 0.4868995 0.21227907 -0.26192737 -0.057380367 -0.01786075

encoder.multimode_epic.epic_proj.global_2.bias f4 [4]
00000000: 439e 6cbc 3203 7bbb cd9b ca3d a732 c5be
-0.014442029 -0.0038301465 0.09892998 -0.38515207

encoder.multimode_epic.epic_proj.global_2.weight_g f4 [4, 1]
00000000: b480 033f bd9b b93e fe05 143f 5e17 ea3e
0.5136826 0.3625163 0.57821643 0.45720953

encoder.multimode_epic.epic_proj.global_2.weight_v f4 [4, 4]
00000000: ab9d 933d aac3 593e 6b45 cbbe b8ea 663e
00000010: 8a21 8e3d 3524 41be 31ae 313d 9939 94be
00000020: c19c 19be b751 aebd e17f 953e 724e eabe
00000030: 323f a13d 2401 d9be 244e 833d 1c10 2d3e
0.07207807 0.21266046 -0.397014 0.22550476 0.06939991 -0.18861468 0.043379012 -0.28950194
-0.15001203 -0.085116796 0.29199126 -0.45762974 0.07873382 -0.42383683 0.064113885 0.16900676

encoder.multimode_epic.epic_layers.0.fc_global1.bias f4 [4]
00000000: b1e1 f8bd e286 c8bd 1dad 30be cd1d 44be
-0.12152422 -0.09791352 -0.17253537 -0.19151993

encoder.multimode_epic.epic_layers.0.fc_global1.weight_g f4 [4, 1]
00000000: 46be 053f 9d3c 023f ed6b 333f 4c88 0d3f
0.5224346 0.5087374 0.70086557 0.552861

encoder.multimode_epic.epic_layers.0.fc_global1.weight_v f4 [4, 16]
00000000: a2b9 b6bd bbf9 b03d a17d 083e 5d72 603e
00000010: f303 e53d 14b2 413e 4893 dfbd 3f78 5b3e
00000020: e365 f0ba dd8b 38be f1a6 5b3b 7e44 1dbb
00000030: 3692 a13d 72e4 3bbd b138 a13c d0fd 1a3e
00000040: 30ff 013e 59ee 43bd eea6 1abe d3e2 f1ba
00000050: e160 68be 08de 27bc f671 1abd 814f 0bbe
00000060: 6a1a 8bbb 16cf cabd 3151 033e 0fe7 3bbe
00000070: bfa6 25be d2af ec3d 661a 7fbe 5c1f 2cbe
00000080: 309b 003e 9062 7bbe 4418 723e 6424 513e
00000090: 2638 083e 2a02 163d d155 293e 943f 6d3e
000000a0: 0eb3 6d3e 20d1 823d ba13 683e e248 413e
000000b0: 6736 523e b7d4 11be 6bfa 54be 5dbc 1c3e
000000c0: afed 6e3e 9b85 f5bd e110 543e ad81 0abe
000000d0: 4bf7 f83c 3eb5 533e 6388 1bbc 06a3 d23d
000000e0: bc36 5cbe 9531 a43d 8cf7 3e3e cae5 1b3e
000000f0: ab25 debd facf 353c 6bdc 793c c0f6 043e
-0.089221254 0.08641382 0.13329174 0.21918626 0.11182394 0.18915588 -0.109167635 0.21432589
-0.0018340911 -0.18022104 0.0033516253 -0.0023997123 0.07889216 -0.04587216 0.019680353 0.15135884
0.12695003 -0.047834728 -0.15102741 -0.001845444 -0.22693206 -0.0102458075 -0.037706338 -0.13604547
-0.004245092 -0.0990278 0.12823941 -0.1834986 -0.1617689 0.115569726 -0.24912414 -0.16808838
0.125592 -0.24549317 0.23642069 0.20424038 0.13302669 0.036623158 0.16536643 0.23168784
0.23212835 0.06387544 0.22663775 0.18875459 0.20528565 -0.142413 -0.20798652 0.1530623
0.23332857 -0.11988374 0.20709564 -0.1352603 0.030391356 0.20674607 -0.009492966 0.102850005
-0.21505255 0.080172695 0.18649119 0.15224376 -0.10847028 0.011096949 0.015250306 0.12984753

encoder.multimode_epic.epic_layers.0.fc_global2.bias f4 [4]
00000000: 59c7 bebe 4e0d 0f3c c76c e9be c2ee a7bd
-0.37261465 0.008731199 -0.45590803 -0.08199836

encoder.multimode_epic.epic_layers.0.fc_global2.weight_g f4 [4, 1]
00000000: b2b8 1f3f ae23 fd3e d063 363f be3b ea3e
0.623912 0.49441284 0.7124605 0.45748705

encoder.multimode_epic.epic_layers.0.fc_global2.weight_v f4 [4, 4]
00000000: 1b87 cabe 04df 5f3e 7005 6cbe 432f c2be
00000010: 6820 66bd 8606 63be 8466 dc3e 2f73 06be
00000020: 0a90 92be 3b37 d9be b1f6 69be fd0a d13e
00000030: 04aa b0be 16af 843d 0743 383e 9795 7a3e
-0.39556202 0.21862417 -0.23048949 -0.37926683 -0.05618325 -0.22170457 0.43046963 -0.13129877
-0.28625518 -0.4242495 -0.22848012 0.40828696 -0.34504712 0.064787075 0.17994319 0.24471126

encoder.multimode_epic.epic_layers.0.fc_local1.bias f4 [4]
00000000: 8ee9 4fbd e0e7 713d c9df 933c b1a6 033a
-0.050759844 0.059059024 0.018051045 0.00050220924

encoder.multimode_epic.epic_layers.0.fc_local1.weight_g f4 [4, 1]
00000000: 2e70 213f 06ce 0d3f 3579 fb3e d106 2f3f
0.630618 0.5539249 0.4911591 0.68369776

encoder.multimode_epic.epic_layers.0.fc_local1.weight_v f4 [4, 12]
00000000: 688a 4e3d 495f d0bd e966 8c3e ee48 973d
00000010: 7fb4 82be b349 29be 20c1 60bb f522 743d
00000020: 0ac6 8c3e f631 1a3e 68ac 11be 19c9 81be
00000030: 1bc4 683e 8a79 06be 6041 12be 5f00 51be
00000040: 59f4 8f3c 185c 10be 206e c63d 7b93 613e
00000050: 06ad 583e 166d c23c 7a52 dfbd 98ee cfbd
00000060: 7bd5 9e3c 16c5 07be f704 8abe 5449 c33c
00000070: 4a04 543c fe2a 973c 9a96 22bd c757 5b3e
00000080: 8b97 bd3d 704d 83be 02bf 103c ab90 913d
00000090: e3f2 d13c 0e6f 2cbe c97d 2ebe f0f8 adbc
000000a0: 67a1 babd 1f82 c9bd b357 66be 48f0 883e
000000b0: 1835 8cbe d4ba 87be 6b06 8abe 94d2 aebd
0.050424963 -0.10174424 0.27422264 0.07386957 -0.25528333 -0.1653202 -0.00342948 0.05960365
0.27494842 0.15058121 -0.14225924 -0.25348738 0.22731058 -0.13132301 -0.14282751 -0.20410298
0.017572569 -0.14097631 0.096889734 0.22028916 0.21159753 0.023733657 -0.10904403 -0.1015293
0.019388905 -0.13258776 -0.26956913 0.023838677 0.012940476 0.018453117 -0.039694406 0.21420203
0.0925742 -0.25645018 0.008834602 0.07107671 0.025628513 -0.16839239 -0.1704017 -0.021236867
-0.09112816 -0.09839272 -0.22494392 0.2674582 -0.27384257 -0.26509726 -0.26958022 -0.08536258

encoder.multimode_epic.epic_layers.0.fc_local2.bias f4 [4]
00000000: b2d2 65bd 0389 51be 0c45 dabe 7a46 e6be
-0.056109138 -0.20462422 -0.42630804 -0.44975644

encoder.multimode_epic.epic_layers.0.fc_local2.weight_g f4 [4, 1]
00000000: a49f 333f 8dee bb3e 1ddb 353f b960 0b3f
0.7016547 0.36705437 0.71037465 0.5444446

encoder.multimode_epic.epic_layers.0.fc_local2.weight_v f4 [4, 4]
00000000: f810 c03e a709 b9be b05f 8bbd b8e6 f73e
00000010: 2c49 d6bd 4162 7f3e b3f1 bd3d 420b 483e
00000020: 3db3 e1be 395f bc3e 0eac b2be 78e5 863e
00000030: fedb a4be 9bd3 76bd 853c d83e a59b c73c
0.37512946 -0.36140177 -0.0680536 0.48418212 -0.10463175 0.24939825 0.09274616 0.19535545
-0.4408206 0.367914 -0.34896892 0.26346946 -0.3219909 -0.060260396 0.42233673 0.02436621

encoder.multimode_epic.epic_layers.1.fc_global1.bias f4 [4]
00000000: ef54 dc3d bbdd 08be c58b d8bc ec03 80bd
0.10758387 -0.13365833 -0.026433835 -0.06250748

encoder.multimode_epic.epic_layers.1.fc_global1.weight_g f4 [4, 1]
00000000: df7a 193f c4f7 0f3f 3cea 0e3f 1e14 253f
0.5995311 0.56237435 0.55826163 0.6448382

encoder.multimode_epic.epic_layers.1.fc_global1.weight_v f4 [4, 16]
00000000: d97d 2abc 0919 9c3c 4f22 913d 5e4c 503e
00000010: 079d 76be ded8 af3d a8cd 983d df09 11bd
00000020: 5b28 82bc f08b 26be 5fd2 64be 55de 653e
00000030: b545 f3bd c8ba 3bbe a933 4abe a9b2 19bd
00000040: 6057 283e 3cbf 6cbe 7aa2 ba3c d682 5e3e
00000050: 7bfc 663e 99f8 373e c94e a0bd 1fdc 0ebe
00000060: e45a f53c 47df 053e 9b3a 5b3d 2130 713e
00000070: 31e2 04bd 9b5a 743d 4a4f b93d 2a69 2f3e
00000080: ef14 7e3e d486 d9bd 98bb f2bd 47d1 7e3e
00000090: f663 a83d 41ca aa3c b5c3 2cbd 0914 663e
000000a0: bae6 cebc 30f0 303d c16f 59be 8a19 653e
000000b0: 0f92 14be dfcb bb3d fbd9 fa3d 6fd6 43bd
000000c0: b3a6 7f3d fa4e 48be b387 fe3d cc99 1b3e
000000d0: 6c02 73be ddc6 b03d 8904 693e 9e65 63be
000000e0: 702c ddbd 77a0 c73d 80f4 7bbb a03a 2ebe
000000f0: 9525 87bc 682f 6bbe ae62 ebbc 745e c93d
-0.010405981 0.019054906 0.07086622 0.20341632 -0.24083339 0.08586286 0.07461101 -0.035409804
-0.015888384 -0.1626432 -0.22345875 0.22448094 -0.1187853 -0.1833297 -0.1974627 -0.0375239
0.16439581 -0.23119825 0.022782553 0.21729597 0.22557251 0.17965926 -0.07827527 -0.13951157
0.029950567 0.13073455 0.053522687 0.23553516 -0.032442275 0.05965672 0.09048326 0.1712996
0.24812673 -0.106214195 -0.11852187 0.2488452 0.08222191 0.020848395 -0.04217883 0.2246858
-0.025256503 0.04319781 -0.21234037 0.22373024 -0.14508842 0.09169745 0.12248608 -0.04781192
0.062414836 -0.19561377 0.12428226 0.15195388 -0.23731393 0.0863168 0.22755636 -0.22206733
-0.107994914 0.09747403 -0.0038445294 -0.17014551 -0.016497413 -0.22967303 -0.028733578 0.09832469

encoder.multimode_epic.epic_layers.1.fc_global2.bias f4 [4]
00000000: ca50 38be 66aa 40bc 8c59 efbe 9a42 833e
-0.17999569 -0.011759376 -0.46748006 0.2563675

encoder.multimode_epic.epic_layers.1.fc_global2.weight_g f4 [4, 1]
00000000: c855 d43e 6ece 133f 323b 013f 9e27 2c3f
0.41471696 0.5773686 0.5048095 0.6724795

encoder.multimode_epic.epic_layers.1.fc_global2.weight_v f4 [4, 4]
00000000: f911 63be 3c48 32be 07d6 8d3e 0b4d 2dbc
00000010: b526 0c3e dc62 29be afd3 d9be 1538 b63e
00000020: 47c6 debe 5b9c 903c 4bd6 8e3e d30f 783d
00000030: 98b7 613d db07 c33e 70e0 f3be 3ac0 a0be
-0.22174825 -0.17410368 0.27702352 -0.0105774505 0.1368664 -0.16541618 -0.42544314 0.35589662
-0.4351065 0.017652681 0.27897868 0.060561966 0.05510673 0.3809193 -0.4763217 -0.31396657

encoder.multimode_epic.epic_layers.1.fc_local1.bias f4 [4]
00000000: 6439 92bc d6f1 b3bd 6601 f13d 5935 5f3e
-0.017849632 -0.08786361 0.11767845 0.21797694

encoder.multimode_epic.epic_layers.1.fc_local1.weight_g f4 [4, 1]
00000000: 0e35 083f 6590 263f 0460 f93e 8192 d53e
0.53205955 0.6506408 0.48706067 0.41713336

encoder.multimode_epic.epic_layers.1.fc_local1.weight_v f4 [4, 12]
00000000: 189f 88be 05af 613c fd77 c53d fae3 45be
00000010: 0c61 ad3d 44f2 d2bd b26a 2e3e 73f8 4bbe
00000020: 9307 243e dd1a 823e 2df6 c93c 70ba 08bd
00000030: 2ea1 4d3b c67b 993e 007c 26be 59a6 973e
00000040: 2ba2 4e3e 4784 bbbd 62e5 783e 833e 52bb
00000050: acb2 883d 993f 63be feb5 ff3d 0152 f83d
00000060: 5e19 05be 1d46 29be 47c7 52be b37b 893d
00000070: d84a c93d 6ded 6b3e 1df0 793c 6efb d0bd
00000080: 85d2 69bd 10d9 61be 1217 2d3e 5406 1dbe
00000090: 5396 42be 7e5b 3c3e 904a f0bd 2d8e 8c3d
000000a0: 2517 81bd 697d 18bd 679e 863d a496 7f3d
000000b0: 5a04 c8bc dc4c 103e ecf7 7e3e 8191 093e
-0.2668388 0.013774638 0.096420266 -0.19325247 0.08465776 -0.10300115 0.17032889 -0.19918995
0.16018514 0.2541112 0.024653519 -0.033380926 0.0031376588 0.29977244 -0.1625824 0.296191
0.2017905 -0.09156089 0.24306253 -0.0032080717 0.06674704 -0.2219223 0.12485884 0.12125016
-0.12997958 -0.16530652 -0.20583831 0.06713047 0.098287284 0.2303979 0.015255001 -0.102042064
-0.057085533 -0.22055459 0.16903332 -0.15334445 -0.19002657 0.18394276 -0.11732972 0.068630554
-0.063032426 -0.037228975 0.065731816 0.06239952 -0.024416137 0.1409182 0.24899262 0.13434412

encoder.multimode_epic.epic_layers.1.fc_local2.bias f4 [4]
00000000: d1d2 c7be cccd 553e 86c0 df3e a6f3 97be
-0.39028028 0.20879287 0.4370157 -0.29678077

encoder.multimode_epic.epic_layers.1.fc_local2.weight_g f4 [4, 1]
00000000: 62b3 0c3f 6df5 1e3f d8bd 4a3f 6e29 2c3f
0.54961216 0.6209324 0.7919593 0.67250717

encoder.multimode_epic.epic_layers.1.fc_local2.weight_v f4 [4, 4]
00000000: 506e ce3e ee62 d33c 6311 22bd 29bc c73e
00000010: 9223 e73e 8fa9 2dbe f72a 1fbe bca0 c23e
00000020: ecd0 f83e 90a0 e43e efc1 ee3e adfb 9bbd
00000030: a3c4 debe 2851 82be f351 cabd acd7 d83e
0.40318537 0.02580401 -0.039567363 0.39010742 0.45144325 -0.16959213 -0.15543734 0.38013256
0.48596895 0.4465375 0.46632335 -0.07616363 -0.43509397 -0.25452542 -0.09878912 0.42352045

encoder.multimode_epic.continuous_head.0.weight f4 [2, 2]
00000000: 922a 27bf 0d9a be3e 1614 f43e 8c7e b13e
-0.6529933 0.37226906 0.47671574 0.3466686

encoder.multimode_epic.continuous_head.0.bias f4 [2]
00000000: 103c 20be 1f40 2dbf
-0.15647912 -0.67675966

encoder.multimode_epic.continuous_head.2.weight f4 [3, 2]
00000000: fea5 1d3f 47cb a93e 5456 aabe 0fb4 2fbf
00000010: 01ab 1c3e fb27 c0be
0.6158141 0.331629 -0.33268988 -0.6863412 0.15299608 -0.37530503

encoder.multimode_epic.continuous_head.2.bias f4 [3]
00000000: 28fb ac3e b98f e13e a6fb e73d
0.33785367 0.44054964 0.11327295

encoder.multimode_epic.discrete_head.0.weight f4 [2, 2]
00000000: 22b0 b33d ab82 cdbe 8462 ab3e 6cb5 e93e
0.08773829 -0.40138754 0.334736 0.45646226

encoder.multimode_epic.discrete_head.0.bias f4 [2]
00000000: 8b67 02bf 6d36 27be
-0.50939244 -0.16329356

encoder.multimode_epic.discrete_head.2.weight f4 [8, 2]
00000000: 32f1 e03d dbab b0be b43c ec3e 3e8e ac3e
00000010: 1a8f d33d 7767 d43d 0996 073f bd23 abbe
00000020: d42b 4cbe 7d09 0bbf 582d 433e c2e4 babe
00000030: c200 153d 3fed 173d 01ae 73be 6d54 23bf
0.10983504 -0.34506115 0.46140063 0.33702272 0.10330029 0.10371297 0.5296331 -0.33425704
-0.19938594 -0.5431135 0.19060266 -0.36502653 0.036377676 0.03709149 -0.23796846 -0.638007

encoder.multimode_epic.discrete_head.2.bias f4 [8]
00000000: eebd 003d 89d7 ee3e a6dc 583d fe8c ea3e
00000010: 85b3 1fbd 0aa3 0cbf 5cf1 9abe 10b7 04bf
0.03143113 0.46648815 0.0529448 0.45810694 -0.038989563 -0.5493628 -0.30262268 -0.5184183

encoder.multimode_epic.continuous_output.bias f4 [3]
00000000: 660e 623e 1e09 dcbe 203b e93e
0.22075805 -0.42975706 0.4555292

encoder.multimode_epic.continuous_output.weight_g f4 [3, 1]
00000000: 53b2 0b3f 3bbd 353f 3031 3e3f
0.54568976 0.7099187 0.74293804

encoder.multimode_epic.continuous_output.weight_v f4 [3, 3]
00000000: 43c2 59be 45f0 a03d 4b5d 043f cc08 eb3e
00000010: 2f72 a93d 0535 0d3f df34 72be 925c f33e
00000020: c218 093f
-0.21265511 0.07858328 0.51704854 0.4590515 0.08273732 0.55159026 -0.23652981 0.47531563
0.535534

encoder.multimode_epic.discrete_output.bias f4 [8]
00000000: dc31 f1bc 95d8 8a3e 401b c8bd 38e2 333e
00000010: 8874 a03c 2aa4 b0bd 6c0c 90be 5735 e73d
-0.02944272 0.27118364 -0.097708225 0.17566764 0.019586816 -0.08625062 -0.28134477 0.11289471

encoder.multimode_epic.discrete_output.weight_g f4 [8, 1]
00000000: 44b9 413f e5e1 1f3f c346 213f e521 0d3f
00000010: 111d 203f 296a 0d3f 3839 123f 1269 cc3e
0.7567332 0.6245406 0.629986 0.55129844 0.6254435 0.5524011 0.5711856 0.39923912

encoder.multimode_epic.discrete_output.weight_v f4 [8, 8]
00000000: 7aed 81be e999 ae3e 73b8 ea3d f6ad 95be
00000010: 3691 853e 3f5a 1c3e 7216 90be e11c a6be
00000020: 6301 0dbe 144b 493e ef19 9cbd 959e a4be
00000030: 338e af3e 13a4 5b3e 786e 69be 0a81 3f3a
00000040: 99f9 3dbe 38d8 3c3e 385c 0abe 58b4 903e
00000050: 2196 163e 7ad3 833e d8e2 a4be 2d9a 773e
00000060: da2a 3f3e 7037 abbe 8515 6bbe cbde 0fbe
00000070: fe6b 82bd de4e 41bd 135f 913e adfa abbd
00000080: 3f3f a23e c3a7 8fbe b050 193c ce14 293e
00000090: b014 683e 8b89 663e 598e 57be 3948 173e
000000a0: a6d4 3c3e 222d 143e dfda 9fbd 5790 4a3e
000000b0: 7651 49be 2e90 2c3e ba43 a13e 07e2 67be
000000c0: 9d23 c03d a6bc c63d e485 943e 3ac5 9abe
000000d0: 2ee6 74bd 11fc 8c3d 9c47 51be 4193 843e
000000e0: fd59 013e 4222 d2bd 9ad7 6f3e 3cab d1bd
000000f0: 96fb 47be 7eee 00be 2d69 f93d a186 863d
-0.25376493 0.341018 0.11460962 -0.29234284 0.2608735 0.15268801 -0.28142124 -0.32443908
-0.1377006 0.19657546 -0.07622134 -0.32152238 0.34288177 0.21449308 -0.22796047 0.00073053
-0.18552245 0.18441856 -0.13511741 0.2826259 0.14705707 0.2574728 -0.32204318 0.24179907
0.1866869 -0.33440733 -0.22957428 -0.14049833 -0.06368254 -0.047194354 0.28392848 -0.08397422
0.31688878 -0.2805768 0.009357616 0.16511843 0.22664142 0.22513406 -0.21050395 0.14773645
0.18440494 0.14470342 -0.07805418 0.19781624 -0.19659981 0.16851875 0.31496984 -0.22644816
0.09381793 0.097039506 0.290084 -0.30228597 -0.05978983 0.06884015 -0.20437473 0.25893596
0.12631984 -0.102604404 0.23422089 -0.102377385 -0.19529566 -0.12590978 0.12178264 0.06568647

loss_multimode.loss_weights f4 [2]
00000000: 10a1 713c dcbb 5b3c
0.014747873 0.013411488

exp_avg f4 [4, 3]
00000000: d44c 4bbd e751 0836 7792 9d38 c631 663d
00000010: 3733 53b7 54f8 bfb8 d6e6 5abc 5a98 a736
00000020: 6582 c037 59f0 4f3d 304e 95b7 aa9f b3b8
-0.049633816 2.0313253e-06 7.5136246e-05 0.05619981 -1.2588504e-05 -9.1538444e-05 -0.0133607 4.994724e-06
2.2948903e-05 0.050766323 -1.7798593e-05 -8.565125e-05

exp_avg_sq f4 [4, 3]
00000000: 0bca 9538 2889 1b2f ff80 ec2f e8a3 b538
00000010: 24a4 3b2f 8ee6 2230 08f6 9636 2b76 2a2d
00000020: 0248 1b2e 546d 9e38 24f0 212f f19c 1030
7.142507e-05 1.4145896e-10 4.3019807e-10 8.6612825e-05 1.7065865e-10 5.9262895e-10 4.49899e-06 9.68962e-12
3.5306875e-11 7.554391e-05 1.472818e-10 5.260992e-10

exp_avg f4 [4]
00000000: ce69 8cba c0ad a33a 775b 9bb9 d0bc 9d3a
-0.0010712685 0.0012487695 -0.0002963205 0.001203442

exp_avg_sq f4 [4]
00000000: 4ee1 2733 af02 6533 3091 4131 5ee6 6f33
3.908763e-08 5.3320658e-08 2.8167726e-09 5.585604e-08

exp_avg f4 [4]
00000000: 8bc3 0e38 6731 e63b 3c6c 6eb8 72f0 b139
3.403755e-05 0.007024932 -5.6844423e-05 0.00033939217

exp_avg_sq f4 [4]
00000000: 625c 402e e4c9 cf35 0922 f52e 5658 9e32
4.3737798e-11 1.548146e-06 1.1147356e-10 1.8433791e-08

exp_avg f4 [4, 1]
00000000: 75c6 99b9 0eee 1b3d 5f99 e7b7 5ed6 70b9
-0.00029330296 0.038068824 -2.7608765e-05 -0.00022968042

exp_avg_sq f4 [4, 1]
00000000: 784b 1031 4732 3d38 bb26 142e 4309 bd31
2.0997657e-09 4.5107936e-05 3.3685704e-11 5.501677e-09

exp_avg f4 [4, 12]
00000000: 997d 2538 7286 c1b8 0623 1539 4a04 04b7
00000010: ff55 edb9 7e3f 96b8 f924 123a 7dff d739
00000020: 15a2 26b8 baca d238 3e67 0439 30cd 17b8
00000030: c4a5 ab3c 1ea8 113c ce43 223c e5ae 673c
00000040: 7a6e 12be 8b31 0fbd 198e 283e 0571 9a3d
00000050: 7a57 3fbc 78c5 e93b ab5c 82bc 2e63 583c
00000060: 8135 1cb8 e18b 4db8 5bf7 c9b7 0b78 f533
00000070: ce9b ab37 bc2b b937 a86d 66b8 7058 5237
00000080: b9d9 d937 6ccf a6b7 b786 1538 9e8d 65b5
00000090: a118 a839 633d b239 f497 1639 2de5 adb8
000000a0: 92da 183b d1c2 e039 fca2 17bb 4464 adba
000000b0: 8701 c4b9 0def 07ba a820 5239 7f6a 5539
3.9456037e-05 -9.2279995e-05 0.00014222795 -7.868812e-06 -0.00045268235 -7.164384e-05 0.00055749674 0.0004119835
-3.9728435e-05 0.00010051341 0.00012626962 -3.61923e-05 0.020953067 0.00889018 0.009903861 0.014140819
-0.14299956 -0.034959357 0.16460456 0.07541088 -0.011678571 0.007134136 -0.015913328 0.01320724
-3.7243128e-05 -4.900608e-05 -2.4076251e-05 1.1430537e-07 2.045734e-05 2.2074084e-05 -5.49384e-05 1.2537566e-05
2.59698e-05 -1.988533e-05 3.564983e-05 -8.551523e-07 0.00032061807 0.00033996542 0.00014361722 -8.29197e-05
0.0023323637 0.0004286976 -0.0023137918 -0.0013228734 -0.0003738517 -0.00051854627 0.00020039326 0.00020352936

exp_avg_sq f4 [4, 12]
00000000: c40c 5c2e b090 542f e691 0d30 eaf3 022c
00000010: ffbc b431 600b 092f c40a 0632 06a7 9131
00000020: 4571 422e b18d 842f e0af d92f 5a8f 0a2e
00000030: 8486 6937 4be3 2436 a004 5236 6ccb d536
00000040: 7ee0 153a 89c6 0d38 b632 453a a327 2639
00000050: 33e1 9736 f98e d135 f220 0837 a580 bc36
00000060: c5ab 442e b7fe ae2e 4933 c82d f662 3627
00000070: 3502 822d b673 a22d d220 dc2e 19ba f42c
00000080: 5444 f62d a638 b82d 057a 382e d4e8 4b2b
00000090: 16c9 1032 1057 9932 6035 0d32 a4b3 5130
000000a0: 47bb ff33 1cee af31 bd88 0234 0b46 3e33
000000b0: 8f26 1a32 5682 8d32 a318 9130 548d 8331
5.0033547e-11 1.9332691e-10 5.1502835e-10 1.860951e-12 5.260176e-09 1.2464119e-10 7.802274e-09 4.239044e-09
4.4211097e-11 2.4111338e-10 3.9597037e-10 3.150489e-11 1.3919202e-05 2.4570206e-06 3.129513e-06 6.371576e-06
0.0005717351 3.380192e-05 0.000752251 0.0001584576 4.5263673e-06 1.5613324e-06 8.113902e-06 5.617813e-06
4.4717802e-11 7.9578504e-11 2.2760143e-11 2.531122e-15 1.4780269e-11 1.8468654e-11 1.0010272e-10 6.955558e-12
2.7997306e-11 2.0943535e-11 4.194513e-11 7.24432e-13 8.427625e-09 1.7851136e-08 8.219416e-09 7.628904e-10
1.19084284e-07 5.1202402e-09 1.2156939e-07 4.4301526e-08 8.972747e-09 1.647383e-08 1.0557141e-09 3.828669e-09

exp_avg f4 [4]
00000000: 5ba4 dab5 9510 1836 4241 99b2 dcd1 5534
-1.62901e-06 2.2659417e-06 -1.784122e-08 1.9913517e-07

exp_avg_sq f4 [4]
00000000: cadf 1e2a 812b 0d2b c530 7323 8014 e726
1.4110861e-13 5.0153637e-13 1.3183384e-17 1.6034401e-15

exp_avg f4 [4, 1]
00000000: 2157 d8b5 8d58 30b6 7aa7 7834 34ad e8b5
-1.6118612e-06 -2.6277587e-06 2.3157727e-07 -1.7335756e-06

exp_avg_sq f4 [4, 1]
00000000: 87bf 092a ae15 892a 41a5 2a27 33ce 0d2a
1.2234494e-13 2.4351132e-13 2.3681824e-15 1.2594855e-13

exp_avg f4 [4, 12]
00000000: c6d8 2b34 6603 f8b1 4d2a 3034 5879 80b5
00000010: 558d cd34 1b65 f3b7 ddc6 5bb6 d255 2db8
00000020: 440a edb5 e30f 0db6 bbb7 b7b5 d121 37b5
00000030: 8a0b a733 539a 9535 d54d 8f35 b2ef dc34
00000040: bce0 cbb5 8af3 7837 06c3 cd36 46fd 3c38
00000050: 1f8a e335 bde9 c435 54fc 1d35 d4ef 8c35
00000060: 2a11 36b2 5ee3 1333 f1a2 c532 5a1e d833
00000070: bd83 2a33 e82b 09b4 7801 04b4 5718 b0b4
00000080: 7f23 c6b2 fb86 01b4 6b83 b533 dd9e d931
00000090: 147a 49b5 f01f e6b4 825c 28b5 49fa 2bb5
000000a0: b3f6 19b5 de7d 1436 260c c435 d4e8 9236
000000b0: acd3 5c33 f11b 3bb4 325a 05b4 b31f 4b34
1.6004478e-07 -7.2181363e-09 1.6406666e-07 -9.572059e-07 3.8287058e-07 -2.9014938e-05 -3.2749297e-06 -4.132634e-05
-1.7660864e-06 -2.1019885e-06 -1.3688035e-06 -6.822202e-07 7.7786424e-08 1.1146279e-06 1.0676982e-06 4.1152595e-07
-1.5190085e-06 1.4838655e-05 6.13218e-06 4.5058572e-05 1.6953016e-06 1.4671165e-06 5.8854243e-07 1.0500612e-06
-1.0597697e-08 3.4432894e-08 2.3007916e-08 1.0063805e-07 3.9701025e-08 -1.2775092e-07 -1.2293992e-07 -3.2800264e-07
-2.3066375e-08 -1.2063167e-07 8.452374e-08 6.333592e-09 -7.505598e-07 -4.2864076e-07 -6.2719494e-07 -6.4066677e-07
-5.7355936e-07 2.2126983e-06 1.4606674e-06 4.378244e-06 5.1415256e-08 -1.7425897e-07 -1.2419403e-07 1.891738e-07

exp_avg_sq f4 [4, 12]
00000000: d6cd b126 65b0 d527 241e ed26 5b00 5e29
00000010: 9ae4 9328 6f3d 4c2e b29b 2c2b 5050 c42e
00000020: 0be7 222a 8b18 752a 14b7 dd29 7309 c528
00000030: 28a1 be25 358d 4a29 e6de 2929 4b7b c829
00000040: 249e 1f2a 0a3c b42d 73c3 bf2c 6059 742f
00000050: 5035 db2a d9c9 f82a 1183 9d29 98da 2e29
00000060: 10f4 a122 c175 7124 19b1 d023 edb5 0426
00000070: 6eb4 9624 3a03 5526 20fe 2426 1b16 a027
00000080: 9dd8 c323 134b 3a26 69f0 b825 54b6 d921
00000090: 071c ce28 4ee2 0828 fec1 9128 d027 9828
000000a0: aa0c 7028 8785 802a 2b08 ad29 702e 652b
000000b0: 6116 3525 c06c c826 470b 4726 0401 e226
1.2337634e-15 5.9310623e-15 1.6453348e-15 4.929421e-14 1.6419419e-14 4.6438794e-11 6.1322746e-13 8.9273144e-11
1.446865e-13 2.1768886e-13 9.8461305e-14 2.1875492e-14 3.306895e-16 4.4975488e-14 3.7718872e-14 8.903172e-14
1.4176903e-13 2.0490293e-11 5.4502457e-12 2.2223423e-10 3.8939208e-13 4.419371e-13 6.994937e-14 3.882536e-14
4.389755e-18 5.2358286e-17 2.2626409e-17 4.6043255e-16 6.535779e-17 7.3903593e-16 5.7243334e-16 4.4432888e-15
2.1233682e-17 6.463346e-16 3.208182e-16 1.4752754e-18 2.288275e-14 7.5985886e-15 1.6182365e-14 1.6892656e-14
1.3325422e-14 2.283002e-13 7.68416e-14 8.142159e-13 1.570683e-16 1.3907265e-15 6.905728e-16 1.5682176e-15

exp_avg f4 [4]
00000000: d7aa d1b7 3a6d 0fb6 bf46 6b38 7ae1 82b8
-2.4994295e-05 -2.1372239e-06 5.6094254e-05 -6.240881e-05

exp_avg_sq f4 [4]
00000000: 4e91 c52d 3cac 4d2a 9cf7 042f ac5a 432f
2.2460835e-11 1.8267413e-13 1.2093299e-10 1.776736e-10

exp_avg f4 [4, 1]
00000000: 9b13 1ab7 f78f 85b5 75f8 b336 e516 5ab5
-9.18368e-06 -9.951171e-07 5.36354e-06 -8.1244644e-07

exp_avg_sq f4 [4, 1]
00000000: 908f 192c a2ca 7c29 f88a 722b 368d 2c2b
2.18223e-12 5.6130996e-14 8.616853e-13 6.1302645e-13

exp_avg f4 [4, 4]
00000000: 4b75 b8b5 a565 76b6 8390 3f36 6f5a c436
00000010: 17d2 70b6 d227 81b4 6599 0235 75bc 8935
00000020: 073f 0337 5160 9e37 eaf9 61b6 e90d 03b7
00000030: 9e75 dfb6 93bd ceb6 8e10 9636 68f5 6236
-1.3743205e-06 -3.6716021e-06 2.8545335e-06 5.851783e-06 -3.5885075e-06 -2.4057096e-07 4.865199e-07 1.0262144e-06
7.822883e-06 1.8879919e-05 -3.3673082e-06 -7.811447e-06 -6.6596103e-06 -6.1613478e-06 4.4722756e-06 3.381947e-06

exp_avg_sq f4 [4, 4]
00000000: f0bf 322a b500 d82a aabd 962a c6b5 812b
00000010: d918 452b b3dd 5027 83f0 5e28 b6ad 8029
00000020: 2745 472c b6ee 3b2d 50e3 202b 2aaa 022c
00000030: a50a f32b cbd7 c02b b606 952b c6ac 152b
1.5876168e-13 3.8369798e-13 2.6776958e-13 9.216454e-13 7.002294e-13 2.8985982e-15 1.2375628e-14 5.714476e-14
2.8317988e-12 1.0682724e-11 5.715888e-13 1.8568571e-12 1.7269143e-12 1.3702315e-12 1.0588949e-12 5.3175205e-13

exp_avg f4 [4]
00000000: 5e68 85b7 137b a9b6 542b 2e39 0773 6433
-1.5903435e-05 -5.05092e-06 0.00016610074 5.3190004e-08

exp_avg_sq f4 [4]
00000000: 28a4 072d 23c0 a52b e15a a630 45b6 2526
7.7103116e-12 1.1777284e-12 1.2103919e-09 5.7492896e-16

exp_avg f4 [4, 1]
00000000: 78b4 78b5 74cd e7b5 6351 70b7 25e6 1232
-9.2649816e-07 -1.7270636e-06 -1.4324064e-05 8.550647e-09

exp_avg_sq f4 [4, 1]
00000000: 285b 1529 e0fa 012a 6331 242d 3f89 0a23
3.316371e-14 1.1544541e-13 9.333287e-12 7.510058e-18

exp_avg f4 [4, 4]
00000000: 1170 4bb5 0432 4ab5 0686 96b6 9e1f efb6
00000010: 3d80 e8b6 1e47 71b5 2b35 1db6 2d82 b1b5
00000020: 572b 0d38 6ea0 31b6 815f 0f38 f857 4e37
00000030: 4803 0733 3625 0432 17a4 6532 dd51 fab0
-7.578647e-07 -7.5323646e-07 -4.4859507e-06 -7.126436e-06 -6.9290677e-06 -8.9882985e-07 -2.342577e-06 -1.3225414e-06
3.3657383e-05 -2.6468438e-06 3.41828e-05 1.2299039e-05 3.143512e-08 7.691872e-09 1.3366864e-08 -1.8213161e-09

exp_avg_sq f4 [4, 4]
00000000: f7d7 b528 eaea 8229 342b 622b 477c 062c
00000010: a1a8 082c ea17 0c29 845e 812a 1621 9f29
00000020: 5ff3 072e 77cd b82a 6494 502e 004a 362d
00000030: 2976 4324 8898 d522 d8e8 6d23 401d 9f22
2.0188697e-14 5.813911e-14 8.0351286e-13 1.9111533e-12 1.942037e-12 3.1106987e-14 2.2980587e-13 7.066758e-14
3.0911603e-11 3.2827536e-13 4.7425522e-11 1.03619335e-11 4.238397e-17 5.7895264e-18 1.2897102e-17 4.3128006e-18

exp_avg f4 [4]
00000000: ecbd c0b5 3aa2 c2b2 5d40 5136 bf47 4035
-1.4360389e-06 -2.2658345e-08 3.1180891e-06 7.162998e-07

exp_avg_sq f4 [4]
00000000: badd e22a 1239 1a24 dab7 992b c957 072a
4.0299518e-13 3.3441767e-17 1.0922333e-12 1.2020865e-13

exp_avg f4 [4, 1]
00000000: 37ac a0b7 a10d 2e34 d5e3 ef37 8fb7 9b36
-1.915368e-05 1.6209971e-07 2.8597113e-05 4.640729e-06

exp_avg_sq f4 [4, 1]
00000000: a900 ff2e 863c 0027 d395 f82e 746c 6f2d
1.1596175e-10 1.7796378e-15 1.13043484e-10 1.36096585e-11

exp_avg f4 [4, 16]
00000000: 22f5 6fb6 900c 5836 43f4 ac36 175e 0337
00000010: 6c0b b136 ab78 d9b6 d8c1 33b7 eb1a feb7
00000020: 6e08 7cb4 2fd6 edb6 c6e3 4634 7f81 88b4
00000030: f34e 0136 78f9 64b6 66a8 a4b3 1aba c736
00000040: ed5b 16b3 c15b a631 c428 3233 9e4d 47b2
00000050: 6d33 a933 5abb a7b4 bdca 87b2 d50f 04b5
00000060: ec5b 7530 7df3 ed32 2c77 1db3 69f7 5e33
00000070: 8343 fb32 c5f3 66b3 83ef 7233 52a9 4a33
00000080: 5ab7 9cb6 8ce2 2e37 001f 14b7 4114 c1b6
00000090: b65b e8b6 bfee 3838 199e 77b6 8e92 8d38
000000a0: 9eff 12b7 3565 1ab6 7408 0db7 17ce edb6
000000b0: f537 b6b6 5f8d 0b37 6cb2 2537 fc20 beb6
000000c0: d56b fcb5 83b2 8435 a454 d1b5 cb53 b435
000000d0: 96dd 16b5 e155 b235 1164 da36 f204 9c37
000000e0: c7f2 e735 ed33 18b5 30b4 c2b5 1a8e a3b5
000000f0: 1ba5 cc35 6ddc 1c35 b2e2 bf31 d1a9 8ab5
-3.5756461e-06 3.219382e-06 5.1544353e-06 7.8301155e-06 5.2763407e-06 -6.4811516e-06 -1.0714364e-05 -3.0291694e-05
-2.3472396e-07 -7.0880847e-06 1.852305e-07 -2.5426195e-07 1.9268452e-06 -3.4119857e-06 -7.6674766e-08 5.9523272e-06
-3.5008203e-08 4.841667e-09 4.148093e-08 -1.1600973e-08 7.87903e-08 -3.124249e-07 -1.5808263e-08 -4.919687e-07
8.926111e-10 2.7701157e-08 -3.6662797e-08 5.191342e-08 2.9250947e-08 -5.3772755e-08 5.656285e-08 4.7185786e-08
-4.670507e-06 1.0423955e-05 -8.828705e-06 -5.754206e-06 -6.9248154e-06 4.409137e-05 -3.6897893e-06 6.750702e-05
-8.761794e-06 -2.3006698e-06 -8.406223e-06 -7.0871424e-06 -5.430537e-06 8.317961e-06 9.8763085e-06 -5.666281e-06
-1.8806846e-06 9.88672e-07 -1.5596347e-06 1.3435432e-06 -5.6201804e-07 1.3287028e-06 6.5085555e-06 1.8598952e-05
1.7281499e-06 -5.6699974e-07 -1.4506568e-06 -1.2185803e-06 1.5247236e-06 5.843529e-07 5.584604e-09 -1.0331224e-06

exp_avg_sq f4 [4, 16]
00000000: b6cc 8f2c ef9e 6c2c 0834 152d e20c ac2d
00000010: 4707 162d fa91 9e2d 1692 e32d f176 972f
00000020: f236 0e29 9601 892d 51a1 e728 1683 2029
00000030: a5af e62b c5b6 592c 45a7 5727 03ff 422d
00000040: d5f7 c224 ac99 e421 5075 0825 b255 0523
00000050: b54c ef25 887d 0328 48ca c624 9e65 8828
00000060: 848e 501f 6484 6b24 399f d424 f413 5825
00000070: 3be5 8f24 61a4 6025 47b4 8725 ea3f 3225
00000080: 422e 532c ca60 812d 76a2 3f2d 96cd b92c
00000090: d83c d22c fef0 6d2f 42aa e22b 3200 1a30
000000a0: 2284 3e2d 499c 362b 70ba 2f2d d4d8 f72c
000000b0: 7b24 9f2c 9e5f 1c2d a71d 5a2d ced2 9d2c
000000c0: d105 212c 61be 382b f9ba f22b 029c 952b
000000d0: 8b64 302a 4e83 e72c fcb7 722c b84d 0e2f
000000e0: 8ab6 072c dd1b 8a2a 93b8 c22b aadb 852b
000000f0: 5d09 862b 9c49 7e29 e01b 6b27 8d5f 3f2b
4.087032e-12 3.3625843e-12 8.481223e-12 1.9559857e-11 8.528129e-12 1.8027347e-11 2.5871787e-11 2.7551253e-10
3.157799e-14 1.5575801e-11 2.5716112e-14 3.5640836e-14 1.6391234e-12 3.0939012e-12 2.992792e-15 1.1084247e-11
8.455393e-17 1.5490558e-18 1.1835867e-16 7.228091e-18 4.151187e-16 7.299181e-15 8.621149e-17 1.5143103e-14
4.41636e-20 5.106964e-17 9.221008e-17 1.8741774e-16 6.2404696e-17 1.9484597e-16 2.3540928e-16 1.5460694e-16
3.0010582e-12 1.4708585e-11 1.0893167e-11 5.280841e-12 5.975314e-12 2.1640642e-10 1.6105522e-12 5.602515e-10
1.0829589e-11 6.487628e-13 9.988996e-12 7.044235e-12 4.523102e-12 8.888805e-12 1.23984495e-11 4.4856124e-12
2.2882705e-12 6.5634135e-13 1.724703e-12 1.0630388e-12 1.5666823e-13 6.5799926e-12 3.44924e-12 1.2942436e-10
1.9285983e-12 2.4533058e-13 1.3835759e-12 9.511187e-13 9.523871e-13 5.6463176e-14 3.2627912e-15 6.7989435e-13

exp_avg f4 [4]
00000000: f2f4 14b5 5336 e736 46cd fb35 8165 1b36
-5.549074e-07 6.8906606e-06 1.87607e-06 2.3155883e-06

exp_avg_sq f4 [4]
00000000: 0f1a ea27 b885 a12c 983c 312a 09ee 132c
6.49763e-15 4.590741e-12 1.5741781e-13 2.1022092e-12

exp_avg f4 [4, 1]
00000000: 1d05 cd36 49c7 b737 d55b 8bb6 11e3 b435
6.1100714e-06 2.19081e-05 -4.1532135e-06 1.347713e-06

exp_avg_sq f4 [4, 1]
00000000: 0986 672b 32a1 7d2e d8cc 482b 8e5f 612b
8.2253697e-13 5.766871e-11 7.133855e-13 8.0068667e-13

exp_avg f4 [4, 4]
00000000: fb0f 65b5 0cf6 07b6 cadb b2b5 9bed 1c35
00000010: 8f53 7338 4f41 1637 b513 c037 3eb0 2f38
00000020: a8ac 4337 1f92 33b6 b28e 3537 33a9 3737
00000030: 9d5b 8537 49a4 95b4 4692 9237 8b09 1437
-8.53324e-07 -2.0259786e-06 -1.3326e-06 5.846029e-07 5.8013535e-05 8.955903e-06 2.289736e-05 4.188739e-05
1.1663105e-05 -2.6758132e-06 1.0821665e-05 1.0947045e-05 1.5897496e-05 -2.7872946e-07 1.747267e-05 8.823709e-06

exp_avg_sq f4 [4, 4]
00000000: 632d 8a28 1876 ca29 6d16 2929 f993 ff27
00000010: 0d6e a02f 77ab 282d bc5f 552e 9910 3d2f
00000020: 0a1a 012d 866a a72a a7df dc2c 6571 e52c
00000030: 9b42 4c2f 872f 2d29 bedd 4c2f 09a7 982e
1.5340761e-14 8.991088e-14 3.754499e-14 7.093715e-15 2.9182026e-10 9.587767e-12 4.8515622e-11 1.7195347e-10
7.338583e-12 2.9739075e-13 6.2776065e-12 6.5211608e-12 1.8577355e-10 3.845494e-14 1.863247e-10 6.941831e-11

exp_avg f4 [4]
00000000: b19c 27b8 aca3 c636 0de6 ad36 231b a036
-3.9961833e-05 5.9199137e-06 5.182583e-06 4.7715307e-06

exp_avg_sq f4 [4]
00000000: 5ec9 552e 728f 072c ba88 432d ee9b 412b
4.8609443e-11 1.9264282e-12 1.1114826e-11 6.878377e-13

exp_avg f4 [4, 1]
00000000: 5487 dfb6 5689 58b7 daa1 15b6 069e 26b7
-6.661672e-06 -1.2906579e-05 -2.229694e-06 -9.931164e-06

exp_avg_sq f4 [4, 1]
00000000: c219 c82b 9ef7 a42c 22a3 2c2a 9a32 4a2c
1.4218004e-12 4.6886514e-12 1.5333267e-13 2.8734016e-12

exp_avg f4 [4, 12]
00000000: 586e 0536 e7a5 33b8 1712 5136 d25f 5cb8
00000010: 5b07 acb5 a96d 77b8 4cbd 2f35 493d 58b3
00000020: aa3b 13b8 9fb7 23b8 f977 65b7 0c91 47b6
00000030: b4dd b036 ea28 a437 dc04 a2b6 722a 6037
00000040: f5ae 8332 7435 f236 392a 2436 4dbb be36
00000050: 60c9 2a37 6be5 e336 6e37 5335 3f66 31b6
00000060: e35b 09b4 e838 f036 2979 bfb5 ea80 1137
00000070: c108 beb4 7589 7037 34d1 b0b4 e0f8 0036
00000080: c92f a136 0df9 8636 c888 3236 e0bc d634
00000090: 3fad 5133 f247 7037 c87a 5bb6 ba29 6637
000000a0: b282 f4b5 04e8 f036 6ec8 76b6 7262 8f36
000000b0: e513 f8b4 2ffd 6835 c398 cab5 6c4e b9b5
1.9882773e-06 -4.2831434e-05 3.1153957e-06 -5.2541327e-05 -1.2817139e-06 -5.8991518e-05 6.5468043e-07 -5.0347158e-08
-3.5103098e-05 -3.903324e-05 -1.3677397e-05 -2.973774e-06 5.2710184e-06 1.9569376e-05 -4.828542e-06 1.3361323e-05
1.5329968e-08 7.218385e-06 2.4462481e-06 5.684246e-06 1.0179676e-05 6.791835e-06 7.8684286e-07 -2.643457e-06
-1.2792547e-07 7.159182e-06 -1.4265871e-06 8.672689e-06 -3.5396627e-07 1.4337119e-05 -3.293477e-07 1.921835e-06
4.803737e-06 4.0225045e-06 2.6603684e-06 3.999803e-07 4.881917e-08 1.4321866e-05 -3.270501e-06 1.37187835e-05
-1.8217454e-06 7.1795675e-06 -3.6773522e-06 4.2731926e-06 -4.6208075e-07 8.6795166e-07 -1.5094632e-06 -1.3806398e-06

exp_avg_sq f4 [4, 12]
00000000: d948 012a 7ef4 812e ade6 ff2a bf3a af2e
00000010: 67bc b129 fb94 de2e 6fee 6028 3964 c528
00000020: 6189 232e a4f6 4a2e 15f9 d02c e01a 9e2a
00000030: d56e 5c2b 4036 582d 9a2b 352b 4f54 a82c
00000040: b107 cb26 bc0c 6a2c 0668 412a 7e21 812b
00000050: f971 882c bf52 202c f650 9d29 fe2d 612a
00000060: 3b8d fc26 8b72 042c b3ee 7c29 168c 202d
00000070: 8ce8 e329 75e3 192f a777 5328 1f97 772b
00000080: 6c4a 0b2d a39c 382d 1036 572c 195f d627
00000090: 4843 3326 02a0 d82c 0b08 ac2a 81e7 a92c
000000a0: 8af2 e229 2e58 072c 7214 dc2a 6486 172b
000000b0: 1117 3228 a8f4 1629 b268 8929 fc86 8029
1.1482776e-13 5.9096714e-11 4.5457163e-13 7.968514e-11 7.8930616e-14 1.01218554e-10 1.24862e-14 2.1914858e-14
3.7183926e-11 4.6148543e-11 5.9393692e-12 2.8085086e-13 7.831351e-13 1.2290224e-11 6.4364627e-13 4.7842073e-12
1.4088039e-15 3.326047e-12 1.7177934e-13 9.175297e-13 3.878006e-12 2.27833e-12 6.986245e-14 1.9999971e-13
1.7524293e-15 1.8821912e-12 5.616228e-14 9.126052e-12 1.01211655e-13 1.3996078e-10 1.1738798e-14 8.796175e-13
7.91776e-12 1.0493969e-11 3.0583348e-12 5.9500037e-15 6.2194284e-16 6.1568537e-12 3.0558919e-13 4.828971e-12
1.007849e-13 1.9233603e-12 3.9094037e-13 5.383248e-13 9.885987e-15 3.3518896e-14 6.102184e-14 5.707758e-14

exp_avg f4 [4]
00000000: 5b0b bf37 33b6 1a3b f948 2bb6 9ff3 9738
2.2774262e-05 0.0023607134 -2.5523461e-06 7.245619e-05

exp_avg_sq f4 [4]
00000000: c3e5 9f2d 1b88 3c34 2eff 962a c2a5 0831
1.8178242e-11 1.7558379e-07 2.682242e-13 1.9884827e-09

exp_avg f4 [4, 1]
00000000: 4ccc 8335 ec5b 3eb8 cf79 d633 4a3a a1b5
9.819719e-07 -4.538514e-05 9.9873084e-08 -1.2012399e-06

exp_avg_sq f4 [4, 1]
00000000: f9f3 6b29 d719 682e 0b2b 2c26 37ca 272a
5.2392095e-14 5.2773643e-11 5.973282e-16 1.4902737e-13

exp_avg f4 [4, 4]
00000000: fb9e d135 c5ae e934 2a88 b732 47ed 72b5
00000010: 1361 b536 c050 0737 15f6 ce35 4f4f 12b7
00000020: 590f bdb3 2cd2 4fb3 07db 6533 3672 3bb2
00000030: 7fdb db35 0b90 3c34 476e a635 9907 a3b4
1.5617983e-06 4.3526794e-07 2.1365924e-08 -9.049731e-07 5.4055213e-06 8.065428e-06 1.5419815e-06 -8.720744e-06
-8.80379e-08 -4.8387093e-08 5.351742e-08 -1.0910801e-08 1.6380653e-06 1.7561267e-07 1.2400059e-06 -3.0366644e-07

exp_avg_sq f4 [4, 4]
00000000: f1c1 0c2a 8af7 8f28 36c8 6825 dacd 1f29
00000010: 0d96 642d cdfa 072c c839 f029 a608 9c2c
00000020: 8945 1d26 f8cd 3925 a2b9 3325 7b64 4324
00000030: 7282 662a d69d 2028 66f0 f929 906d 0f2a
1.2501785e-13 1.5983542e-14 2.0190626e-16 3.548364e-14 1.29936175e-11 1.9323876e-12 1.06681645e-13 4.434747e-12
5.4564555e-16 1.6115977e-16 1.558867e-16 4.2368995e-17 2.0473361e-13 8.916009e-15 1.1099524e-13 1.2738964e-13

exp_avg f4 [4]
00000000: e483 d4b7 8445 d336 5113 1e38 1eb0 cd33
-2.5333786e-05 6.2963827e-06 3.7688125e-05 9.578092e-08

exp_avg_sq f4 [4]
00000000: 525d 3d2e f4e4 dd2b c96c e72e 1377 f525
4.305651e-11 1.5766542e-12 1.0523988e-10 4.2581413e-16

exp_avg f4 [4, 1]
00000000: 5b13 bab7 ca71 9e37 6352 093a 9b0a 5ab5
-2.2181941e-05 1.8888055e-05 0.0005238412 -8.122676e-07

exp_avg_sq f4 [4, 1]
00000000: 812a 982e f4a0 b02d 0a01 0033 1e7b f228
6.91971e-11 2.0080361e-11 2.9803267e-08 2.692079e-14

exp_avg f4 [4, 16]
00000000: ee44 8834 eca1 93b7 598f d235 ae83 86b7
00000010: 0e58 2537 4b05 4bba c442 82b8 2115 8aba
00000020: 2ccf db35 fbd5 6bb8 957f 17b7 4a58 1737
00000030: 5ee3 bfb7 ad33 0bb8 f79e d7b7 7212 fbb5
00000040: ca5a aab6 1928 7337 5c26 99b4 787e 8935
00000050: 179d 3cb7 39d5 6f39 766c 4237 3e25 8539
00000060: 50e5 9cb5 b3e6 b236 eb46 cbb5 8e1b f2b6
00000070: 9118 a536 8944 8636 b1d9 bd35 1473 abb6
00000080: c3c0 5fb9 00db cf38 1a57 d538 01cd 47b9
00000090: c5a9 b2b8 97d1 0e3a 6392 3b39 d331 833a
000000a0: 540c 6b37 3753 fb37 7f05 4039 1e94 47b9
000000b0: 1a55 2039 28cf 23b8 3d6e b3b8 f48d 1938
000000c0: 8cd0 c433 3361 6cb4 0f36 4634 b37a a234
000000d0: 694d d8b4 8f9f 2436 c314 2035 3189 6736
000000e0: 9e1e 2fb4 8ba3 b034 5cb5 f1b1 19fd 82b4
000000f0: 1027 8333 2078 71b4 3da6 df32 cd35 1a34
2.5382127e-07 -1.7599166e-05 1.5687939e-06 -1.6035363e-05 9.855268e-06 -0.0007744624 -6.211319e-05 -0.0010534861
1.6377066e-06 -5.622765e-05 -9.030006e-06 9.020858e-06 -2.287485e-05 -3.318831e-05 -2.5704021e-05 -1.8706326e-06
-5.076964e-06 1.4493265e-05 -2.852638e-07 1.0244103e-06 -1.1242249e-05 0.00022872248 1.1588554e-05 0.00025395484
-1.1689644e-06 5.3316703e-06 -1.5145318e-06 -7.21537e-06 4.920243e-06 4.0014897e-06 1.4144954e-06 -5.109594e-06
-0.00021338747 9.911321e-05 0.000101728554 -0.00019054489 -8.5193235e-05 0.00054481014 0.00017888243 0.0010009356
1.4009962e-05 2.9960282e-05 0.00018312594 -0.00019033297 0.00015290492 -3.9055158e-05 -8.5559186e-05 3.6610247e-05
9.164896e-08 -2.2014574e-07 1.8459853e-07 3.0264127e-07 -4.0289459e-07 2.453078e-06 5.9634857e-07 3.4501538e-06
-1.6309284e-07 3.2901548e-07 -7.0346413e-09 -2.439854e-07 6.107268e-08 -2.2488575e-07 2.6036213e-08 1.436194e-07

exp_avg_sq f4 [4, 16]
00000000: 00e8 0628 1531 0d2e fb5e 562b 54ba 882d
00000010: fb44 912c 7507 8033 53bd 3d2f 678d aa33
00000020: b168 762a 4d65 8a2f ab2e 442d 51ff 432d
00000030: e082 2a2e e97b bc2e 3c33 802e 5e9b 092b
00000040: 5549 ca2b 2e63 2c2d 5dc4 e127 6abc 772a
00000050: 721a d52c 3439 1331 1cf8 002d cc5e 3331
00000060: 6670 8e29 fb12 c62b f68b 032a c7a9 4f2c
00000070: 275b 932b 5495 262b 8587 ec29 ece3 d02b
00000080: 852a af31 dbe3 9f30 d14e 9730 641b 8c31
00000090: a136 5630 b71a 6a33 5474 e230 284e d233
000000a0: 1026 8a2d 3f8c 402e 4965 7f31 d585 8a31
000000b0: 1af5 2031 4c63 742f 5aeb 5b30 f372 132f
000000c0: 4d15 cb25 00de 0327 06d5 c426 4097 8527
000000d0: 4fbe e527 dbc1 ae2a 33ed 7f28 2c0d 1b2b
000000e0: 5c45 9c26 3175 b927 71ee 7722 d089 2627
000000f0: e087 6925 2c19 0827 1d9e 5024 e882 7126
7.488801e-15 3.2103282e-11 7.6159885e-13 1.5544156e-11 4.1288062e-12 5.961821e-08 1.7256711e-10 7.941963e-08
2.1885511e-13 2.5174032e-10 1.11516725e-11 1.1141158e-11 3.8769765e-11 8.571261e-11 5.829867e-11 4.888779e-13
1.4373317e-12 9.79909e-12 6.2662943e-15 2.2003376e-13 6.05676e-12 2.1423832e-09 7.331049e-12 2.6101814e-09
6.325565e-14 1.4074014e-12 1.1683696e-13 2.9510715e-12 1.0470278e-12 5.918228e-13 1.0504014e-13 1.484255e-12
5.0980042e-09 1.1633533e-09 1.1009097e-09 4.07765e-09 7.793038e-10 5.4506668e-08 1.6476727e-09 9.7931036e-08
1.5705687e-11 4.378031e-11 3.7164958e-09 4.0315435e-09 2.3422388e-09 2.2226948e-10 8.000619e-10 1.341041e-10
3.522932e-16 1.8300248e-15 1.3657972e-15 3.70789e-15 6.37666e-15 3.1043123e-13 1.4206778e-14 5.508534e-13
1.0843474e-15 5.1474874e-15 3.3600972e-18 2.3111836e-15 2.0255565e-16 1.8887437e-15 4.5236738e-17 8.379108e-16

exp_avg f4 [4]
00000000: aa18 89b8 0665 c6b6 3307 4739 e3b8 94b5
-6.537263e-05 -5.9126205e-06 0.00018980801 -1.1080668e-06

exp_avg_sq f4 [4]
00000000: 2b3c c42e a6fb 7a2b 4049 e030 5208 8e29
8.923736e-11 8.9167074e-13 1.6318964e-09 6.30751e-14

exp_avg f4 [4, 1]
00000000: c7e5 b0b9 3c6d a937 b730 533a e904 c636
-0.00033740533 2.0197236e-05 0.00080562703 5.9014315e-06

exp_avg_sq f4 [4, 1]
00000000: b57d 2331 659a 532d 0a42 2933 271f 252c
2.3791078e-09 1.2028244e-11 3.940844e-08 2.3465203e-12

exp_avg f4 [4, 4]
00000000: 78b6 87b9 91fb 53b9 1eb6 b6b9 6af4 1cb7
00000010: bce6 a2b6 74b5 aa36 f4bb 57b7 881a 42b7
00000020: fafc 3d3a 67b4 2738 2d26 913a d2b2 c2b8
00000030: ce4e 21b5 62ee 66b6 053e 95b6 e362 3336
-0.00025885156 -0.00020216244 -0.00034849433 -9.355232e-06 -4.8548372e-06 5.0875187e-06 -1.285876e-05 -1.1569478e-05
0.0007247474 3.9983915e-05 0.0011073999 -9.283949e-05 -6.009185e-07 -3.4411428e-06 -4.447766e-06 2.6730638e-06

exp_avg_sq f4 [4, 4]
00000000: af03 c530 4a8e 8630 fa6d 3c31 cf64 1d2c
00000010: 56af 3f2b 3813 4b2b f9be a62c 2a26 8b2c
00000020: 7774 0633 f70a 1530 d333 9533 dac7 fd2f
00000030: 8bbf 1329 f5a8 8c2b aaf8 cf2b 4245 062b
1.4334683e-09 9.790224e-10 2.7420115e-09 2.2367002e-12 6.810016e-13 7.214676e-13 4.739206e-12 3.9548547e-12
3.130523e-08 5.4221466e-10 6.94778e-08 4.6162435e-10 3.2806694e-14 9.994493e-13 1.4777253e-12 4.770248e-13

exp_avg f4 [4]
00000000: 0bfd 863a ab6b b1b9 c8df 8cb8 6088 bf3a
0.0010298801 -0.0003384029 -6.717403e-05 0.0014612786

exp_avg_sq f4 [4]
00000000: a7a7 3733 45d5 6631 fc99 fa2e 0f38 8f33
4.2760487e-08 3.3590635e-09 1.1396037e-10 6.6691534e-08

exp_avg f4 [4, 1]
00000000: 0426 5e3a 769d 0abb d4fd e236 41d0 cb3b
0.00084742927 -0.0021150983 6.7648743e-06 0.006219894

exp_avg_sq f4 [4, 1]
00000000: f456 4433 0941 0834 cd32 dd2b 9871 a735
4.571389e-08 1.2689647e-07 1.5717095e-12 1.247553e-06

exp_avg f4 [4, 12]
00000000: d185 bb39 e944 483b 55fe 4eb9 c057 453b
00000010: ee09 e43a 6141 1339 c0b5 be3a 81da 8939
00000020: 2e7c 153a 0ef4 203a 0df5 f539 a658 4738
00000030: 9499 6838 0837 96ba e09f 0bba f404 3bba
00000040: 0c7d 8838 200f abb9 d4d9 9439 ea0d 6835
00000050: 8760 84b8 2cac 92ba 6b64 8739 9f25 e139
00000060: 63e1 6d36 c2f3 b0b8 3e1c c236 f8ac fdb8
00000070: 6d68 13b9 3a8b 3db6 36f9 00b9 dc32 7b36
00000080: 2f8a 4fb8 cc1d 81b8 2aad 1fb8 e1ed c735
00000090: 409f 1b3b dc2b d13b 8ba3 b03a f7d6 c43b
000000a0: 3595 5d3b 291f d139 3db0 b63a 466f 54ba
000000b0: 6a40 b13a e09e e1b9 a456 24bb c812 e2ba
0.0003576712 0.0030558652 -0.00019740437 0.0030112118 0.0017397979 0.00014043368 0.0014550015 0.00026293474
0.0005702403 0.00061398826 0.0004691262 4.7527858e-05 5.545614e-05 -0.0011460492 -0.00053262524 -0.0007134222
6.508277e-05 -0.0003262693 0.00028391054 8.644698e-07 -6.31223e-05 -0.0011190227 0.00025824024 0.00042943374
3.5446944e-06 -8.4377374e-05 5.7849384e-06 -0.00012096198 -0.00014057914 -2.8244235e-06 -0.0001229987 3.7431519e-06
-4.948134e-05 -6.1567494e-05 -3.8069826e-05 1.4895887e-06 0.0023746043 0.0063834023 0.0013476474 0.006007071
0.0033810858 0.00039886803 0.0013938021 -0.0008103739 0.0013523225 -0.00043033715 -0.0025076056 -0.0017248029

exp_avg_sq f4 [4, 12]
00000000: d0c7 1132 6e8e 1235 6ea9 1331 083a da34
00000010: abcd 1434 ab69 9830 dd37 0534 6d10 9831
00000020: 2711 2f32 08b0 4532 da12 2932 0e2e f52e
00000030: b99f f22e 2ddc 3333 912c 0d32 e01f 4932
00000040: 5841 e42f f880 5531 2d89 0c31 1884 582a
00000050: 55eb 5c2f f47e 1933 2a3e 0331 c7e4 b731
00000060: c6f6 b12a e6fe 332f fc16 872b 48dd b62f
00000070: b69d 1530 e087 8f2a 266d 0430 0489 e52a
00000080: fa7b 8a2e abf8 d42e 0bff 272e 5857 c229
00000090: 5bff 4834 248a a935 0d6d 7f33 17b4 7a35
000000a0: 167b cf34 f1c0 9531 2b80 d733 6129 ae32
000000b0: fd62 6d33 ddf2 0632 a470 5f34 bee8 ce33
8.485543e-09 5.45965e-07 2.1487625e-09 4.0647888e-07 1.3858396e-07 1.1089488e-09 1.2406913e-07 4.4256496e-09
1.0190241e-08 1.1506934e-08 9.841381e-09 1.1149491e-10 1.1033258e-10 4.1876934e-08 8.217413e-09 1.1706987e-08
4.1519388e-10 3.106889e-09 2.0450657e-09 1.9230483e-13 2.009249e-10 3.573855e-08 1.9098345e-09 5.35201e-09
3.161275e-13 1.6370513e-10 9.598706e-13 3.3262837e-10 5.4430005e-10 2.5496185e-13 4.817643e-10 4.0773645e-13
6.297536e-11 9.684816e-11 3.8197927e-11 8.6304824e-14 1.8719349e-07 1.2631685e-06 5.9470995e-08 9.339432e-07
3.864631e-07 4.3584056e-09 1.0035031e-07 2.0275083e-08 5.5270892e-08 7.855047e-09 2.0809472e-07 9.634958e-08

exp_avg f4 [4]
00000000: 2fdd b73a f9b6 1a3b 1225 2b37 071e 0a38
0.001402771 0.0023607595 1.0201025e-05 3.292973e-05

exp_avg_sq f4 [4]
00000000: aca0 7d33 53f9 3734 cd31 1f2d 26ad 332e
5.9052283e-08 1.7133907e-07 9.049162e-12 4.0853675e-11

exp_avg f4 [4, 1]
00000000: 07fc 2e3b defa 703a 88f3 9137 9593 77b7
0.0026700513 0.00091926556 1.739875e-05 -1.4756709e-05

exp_avg_sq f4 [4, 1]
00000000: fadd 7e34 3770 7a33 d4d7 cc2d 42f7 252d
2.3736348e-07 5.830972e-08 2.3287962e-11 9.434066e-12

exp_avg f4 [4, 4]
00000000: 4e92 c0ba 6c1e ba3b 5117 3739 5585 883a
00000010: 2e31 7b37 7a4a 1b3c 9f4e 7839 065e 863b
00000020: 9331 05b7 612a ad37 6d55 20b7 9260 8437
00000030: fc16 3337 2694 4438 4e46 8935 e7e8 1f38
-0.001469204 0.005679896 0.00017460926 0.0010415713 1.4972216e-05 0.009478206 0.00023680412 0.004100564
-7.93896e-06 2.0642941e-05 -9.556633e-06 1.5780595e-05 1.0674583e-05 4.6868015e-05 1.0227757e-06 3.812546e-05

exp_avg_sq f4 [4, 4]
00000000: d11a 8433 ae66 6e35 5157 6930 1a65 f532
00000010: 46d7 4e30 cecc 3536 eaad 6431 ceb9 0635
00000020: 1f04 f52b 62ab 9c2d 78f5 db2c fbf1 812d
00000030: a540 f22c 1441 bf2e 6f43 0129 794c 882e
6.151607e-08 8.881133e-07 8.488899e-10 2.856773e-08 7.5248285e-10 2.7090314e-06 3.3277225e-09 5.018927e-07
1.7409441e-12 1.7811256e-11 6.251607e-12 1.4773063e-11 6.8852307e-12 8.6972346e-11 2.8702243e-14 6.198148e-11

exp_avg f4 [2, 2]
00000000: 0906 3a3a a10b 753c d3f3 1e3b 098c 503d
0.0007096236 0.014956386 0.0024254217 0.050914798

exp_avg_sq f4 [2, 2]
00000000: 0d72 d532 d86f fc36 ba37 8b34 a9b3 a638
2.4848328e-08 7.5232056e-06 2.5931314e-07 7.948961e-05

exp_avg f4 [2]
00000000: 9f46 cc3a c7c8 a43b
0.0015585012 0.0050288173

exp_avg_sq f4 [2]
00000000: b19e a333 2328 4b35
7.619145e-08 7.56818e-07

exp_avg f4 [3, 2]
00000000: 5aad 353c 7df8 243c 3877 9dbb cd14 95bb
00000010: 1504 cebc feea b8bc
0.0110886935 0.01006901 -0.0048054717 -0.004549599 -0.02514843 -0.02257299

exp_avg_sq f4 [3, 2]
00000000: be21 7936 9001 5f36 2d9f 4735 6be6 3f35
00000010: eb98 9937 d16e 8637
3.7123532e-06 3.32305e-06 7.436491e-07 7.1488347e-07 1.831023e-05 1.6025648e-05

exp_avg f4 [3]
00000000: 4a04 a53b b510 9aba acb9 4ebc
0.0050359117 -0.0011754247 -0.01261751

exp_avg_sq f4 [3]
00000000: 601a 3935 d7e8 3033 15f7 8b36
6.895625e-07 4.118996e-08 4.171287e-06

exp_avg f4 [2, 2]
00000000: 26f0 2eb6 5c59 29b6 3d34 7638 4849 3439
-2.6067805e-06 -2.5234976e-06 5.869962e-05 0.00017193437

exp_avg_sq f4 [2, 2]
00000000: 9395 8a2a 1b0a 9d2a dade 922f 165e 8c30
2.4617512e-13 2.7895814e-13 2.671559e-10 1.0213081e-09

exp_avg f4 [2]
00000000: adf8 e1b5 e295 fe37
-1.683618e-06 3.0348954e-05

exp_avg_sq f4 [2]
00000000: e305 e329 31c8 aa2e
1.0081846e-13 7.766266e-11

exp_avg f4 [8, 2]
00000000: 87c9 f3b7 dabc 6a38 31ae ba36 35a5 5138
00000010: bc3d ddb7 c662 0639 b738 e535 748d 4bb8
00000020: fee3 a837 ed93 44b8 561c dd36 be18 86b7
00000030: 286f 79b7 a3c1 ae37 c088 ebb6 6a15 07b8
-2.90617e-05 5.596583e-05 5.5635105e-06 4.9983344e-05 -2.6374e-05 0.00012816032 1.7078336e-06 -4.853071e-05
2.0133328e-05 -4.6867808e-05 6.589612e-06 -1.5985566e-05 -1.4867437e-05 2.0832586e-05 -7.0194656e-06 -3.220645e-05

exp_avg_sq f4 [8, 2]
00000000: 8944 da2d a782 e92e 763b 932b 04e1 b92e
00000010: ee14 b92d a706 1530 35f3 d12a 79d7 a62e
00000020: 391f 6e2d ba58 c72e 0097 ff2b dcce 8c2d
00000030: 6fa9 ea2c 756a aa2d 0d73 d32b 93f4 392e
2.4814166e-11 1.0618822e-10 1.0461482e-12 8.452797e-11 2.104136e-11 5.421534e-10 3.7294617e-13 7.587082e-11
1.35356665e-11 9.065233e-11 1.8160751e-12 1.6008021e-11 6.669491e-12 1.9374039e-11 1.5024385e-12 4.2281356e-11

exp_avg f4 [8]
00000000: 3d04 4f39 dcd1 24b8 c5ad 3739 b452 00b7
00000010: 7cfe 11b9 2122 3db8 fc88 da38 1f04 5238
0.00019742637 -3.9296094e-05 0.00017516974 -7.64865e-06 -0.0001392308 -4.5092896e-05 0.000104205654 5.007174e-05

exp_avg_sq f4 [8]
00000000: 3e6d 9c30 07c5 5e2e d8b9 7f30 c7e3 862d
00000010: ddf9 2f30 e9fb b62e 4916 b12f 7480 a62e
1.1381542e-09 5.065195e-11 9.303256e-10 1.533519e-11 6.4019706e-10 8.32115e-11 3.2211947e-10 7.571624e-11

exp_avg f4 [3]
00000000: f9c9 ddbc 3458 ecb9 7697 143b
-0.027073847 -0.00045079144 0.0022673286

exp_avg_sq f4 [3]
00000000: 6af4 a037 7fd5 c431 dc72 1534
1.91873e-05 5.7286225e-09 1.3918492e-07

exp_avg f4 [3, 1]
00000000: c2c5 033d 9e8a 73b7 0bde 363b
0.03217102 -1.4516203e-05 0.0027903344

exp_avg_sq f4 [3, 1]
00000000: 5109 0d38 a1c8 a82f 4f0f 9334
3.3625696e-05 3.0701577e-10 2.7392022e-07

exp_avg f4 [3, 3]
00000000: 60dd 27bd 1df7 f03c 212a b7bc 17c9 ad39
00000010: fcc2 3fba 5484 3cb9 598a c9b8 e6e9 9f3a
00000020: 822c 97ba
-0.040982604 0.029414708 -0.022358956 0.00033146955 -0.0007315127 -0.00017978373 -9.610196e-05 0.0012200444
-0.001153365

exp_avg_sq f4 [3, 3]
00000000: 7777 4638 0608 f137 d692 7e37 5b43 9d31
00000010: a25f 9d32 da1a e030 8ead 1932 51d5 4133
00000020: 10bc 5133
4.731814e-05 2.8733175e-05 1.5173768e-05 4.576959e-09 1.8320694e-08 1.6305777e-09 8.945234e-09 4.5130324e-08
4.8832646e-08

exp_avg f4 [8]
00000000: db72 93b9 00a9 1139 e184 bcb9 7266 abb9
00000010: 9b2e 2739 7325 8139 be39 1f39 1030 8e39
-0.000281236 0.00013891235 -0.00035957157 -0.0003269199 0.00015943723 0.000246327 0.00015184932 0.0002712016

exp_avg_sq f4 [8]
00000000: 9220 2a31 0a50 1f30 1482 8331 c34c 5331
00000010: e7dd 4630 6828 f730 ed18 3a30 6a00 1631
2.475677e-09 5.7957605e-10 3.82739e-09 3.0748175e-09 7.234732e-10 1.79831e-09 6.770183e-10 2.1828108e-09

exp_avg f4 [8, 1]
00000000: d450 88b8 a705 f7b7 c774 0b39 8dda 1939
00000010: b8cc d1b8 a42b 7538 fbe4 37b8 fc62 1737
-6.500041e-05 -2.9447327e-05 0.00013299576 0.00014672634 -0.000100040284 5.8453195e-05 -4.3843855e-05 9.023348e-06

exp_avg_sq f4 [8, 1]
00000000: a3b6 142f 5f1d de2d 353c 3830 c998 3430
00000010: 85ab a22f f953 092f 538b 5f2e 7cb7 a82d
1.3525407e-10 2.5251521e-11 6.702437e-10 6.570074e-10 2.95895e-10 1.248991e-10 5.0828074e-11 1.9180872e-11
