tests/output/multimodal-jets/a4e55223e6f34516af890204cef75ebf/checkpoints/best-epoch=01-val_loss_continuous=412.8338.ckpt (torch, 80124 bytes, 160 tensors)

embedder.embedding_continuous.embedding.weight f4 [4, 3]
-0.4764221 0.46874306 0.14635405 -0.074862435 -0.29750097 -0.27687258 0.49447873 0.34902224
-0.048951987 0.27220654 -0.31965402 -0.4705651
00000000: 99ed f3be 17ff ef3e d6dd 153e 7a51 99bd
00000010: 0c52 98be 3ec2 8dbe 512c fd3e 0bb3 b23e
00000020: e181 48bd a85e 8b3e b1a9 a3be e9ed f0be

embedder.embedding_continuous.embedding.bias f4 [4]
0.18149504 -0.12634106 0.44660953 -0.44484675
00000000: d6d9 393e 8d5f 01be 01aa e43e f4c2 e3be

embedder.embedding_discrete.embedding.weight f4 [8, 4]
-0.81670654 -0.2886553 -1.196626 -0.5547942 -0.08671644 1.5630273 1.3394029 1.3176745
-0.53933734 -2.0880113 0.69896895 0.9235541 -2.0612936 -1.8183718 -0.92412627 1.5799699
-0.011323354 -0.37007663 -0.50099856 -0.950394 0.37931445 -0.124738656 1.5187325 -0.29577902
-0.3938528 -0.7749822 -0.8023506 -0.7870306 -0.45331624 -0.1960487 -0.5026683 0.78768146
00000000: ae13 51bf a1ca 93be 0a2b 99bf fe06 0ebf
00000010: 6498 b1bd 4711 c83f 8e71 ab3f 8fa9 a83f
00000020: 0312 0abf faa1 05c0 a1ef 323f 0b6e 6c3f
00000030: 3cec 03c0 68c0 e8bf 8a93 6cbf 743c ca3f
00000040: 9785 39bc af7a bdbe 7141 00bf 054d 73bf
00000050: 8135 c23e fb76 ffbd d465 c23f 5970 97be
00000060: 13a7 c9be 3c65 46bf d966 4dbf d67a 49bf
00000070: 1119 e8be fec0 48be dfae 00bf 7ea5 493f

encoder.multimode_epic.epic_proj.local_0.bias f4 [4]
-0.21339023 0.031315316 -0.24677844 0.20042397
00000000: f882 5abe 7d44 003d 7db3 7cbe f13b 4d3e

encoder.multimode_epic.epic_proj.local_0.weight_g f4 [4, 1]
0.6756315 0.62865263 0.60197693 0.56475216
00000000: 30f6 2c3f 61ef 203f 291b 1a3f 9993 103f

encoder.multimode_epic.epic_proj.local_0.weight_v f4 [4, 12]
0.027004503 -0.27573642 0.2655663 -0.0187666 0.27783018 0.04686211 -0.13854678 0.19381635
-0.066923864 0.24332428 0.26685846 -0.10732103 -0.27907288 -0.03790595 -0.10907882 -0.2514569
-0.15684602 0.17669491 -0.041132353 0.16248786 0.17211129 -0.20077772 0.27383107 -0.20662434
0.11653899 0.18229665 0.19814444 0.0108414935 0.23716635 0.21953654 -0.18302363 -0.08015601
0.06733604 -0.13832158 -0.13266446 0.28555685 0.13962731 0.01236942 -0.09933943 -0.21117498
-0.038002558 0.1899821 -0.061416514 0.29494444 -0.14838569 -0.19079411 0.25353137 0.041146964
00000000: 8c38 dd3c 532d 8dbe 4ef8 873e 6abc 99bc
00000010: c23f 8e3e 7cf2 3f3d 35df 0dbe cb77 463e
00000020: 610f 89bd 002a 793e aca1 883e 21cb dbbd
00000030: a4e2 8ebe 4543 1bbd b764 dfbd f5be 80be
00000040: 3e9c 20be 83ef 343e 667a 28bd 3863 263e
00000050: f13d 303e ad98 4dbe 9633 8c3e 5595 53be
00000060: feab ee3d f9ab 3a3e 60e6 4a3e 85a0 313c
00000070: bcdb 723e 30ce 603e 8c6a 3bbe d628 a4bd
00000080: 7ae7 893d 2ca4 0dbe 31d9 07be 8234 923e
00000090: 76fa 0e3e 1ca9 4a3c 7972 cbbd 413e 58be
000000a0: 92a8 1bbd ab8a 423e e28f 7bbd f502 973e
000000b0: 6bf2 17be 885f 43be ddce 813e b889 283d

encoder.multimode_epic.epic_proj.global_0.bias f4 [4]
-0.010267798 0.19649611 -0.19040155 0.12064587
00000000: 443a 28bc 4736 493e a0f8 42be 2f15 f73d

encoder.multimode_epic.epic_proj.global_0.weight_g f4 [4, 1]
0.552923 0.54926074 0.5309703 0.63151634
00000000: 5d8c 0d3f 5a9c 0c3f abed 073f 0eab 213f

encoder.multimode_epic.epic_proj.global_0.weight_v f4 [4, 12]
0.042173434 0.2756778 0.07911118 0.07001926 -0.23923768 0.11399254 -0.13510321 -0.04984862
-0.19868119 -0.14289114 -0.06624378 -0.21913914 0.022063084 0.14973539 0.18461141 -0.13661668
-0.078043506 -0.2742945 0.21504067 0.05381045 -0.062245697 -0.16556323 -0.09940755 0.21014625
0.02661423 -0.09604655 -0.05967615 -0.26816583 -0.07257074 -0.13410404 0.118162654 -0.24994017
0.02114676 0.25154456 -0.22467695 -0.015845254 -0.25367266 -0.1624556 -0.21793817 -0.2542532
-0.15217902 0.009632295 0.24007376 -0.2427159 -0.03925321 -0.12902239 -0.07877305 0.063753724
00000000: 0dbe 2c3d a425 8d3e 0b05 a23d 4266 8f3d
00000010: b9fa 74be ec74 e93d 7f58 0abe 112e 4cbd
00000020: 1573 4bbe 0e52 12be d2aa 87bd 0366 60be
00000030: a4bd b43c 3c54 193e c60a 3d3e 3ee5 0bbe
00000040: 46d5 9fbd 5470 8cbe 9f33 5c3e 5968 5c3d
00000050: 58f5 7ebd 6889 29be 3096 cbbd 9430 573e
00000060: 1606 da3c 0eb4 c4bd fb6e 74bd 084d 89be
00000070: f89f 94bd 9252 09be 43ff f13d 51f0 7fbe
00000080: f83b ad3c 73ca 803e b711 66be e8cd 81bc
00000090: 62e1 81be c35a 26be 2f2b 5fbe 7a2d 82be
000000a0: d1d4 1bbe c6d0 1d3c e5d5 753e 848a 78be
000000b0: f9c7 20bd 721e 04be c453 a1bd 5091 823d

encoder.multimode_epic.epic_proj.global_1.bias f4 [4]
0.04510713 -0.11416329 0.117350906 0.19564642
00000000: 41c2 383d 71ce e9bd ac55 f03d 8957 483e

encoder.multimode_epic.epic_proj.global_1.weight_g f4 [4, 1]
0.5226518 0.45543826 0.51036763 0.34765577
00000000: 82cc 053f 342f e93e 74a7 023f f0ff b13e

encoder.multimode_epic.epic_proj.global_1.weight_v f4 [4, 4]
0.039517548 0.4425768 0.06672845 0.25618994 0.1354378 -0.1485975 0.11495371 0.39032114
0.1337105 0.13474467 -0.05652448 0.48071694 0.206351 -0.2680152 -0.05229046 -0.012573036
00000000: 27dd 213d 6d99 e23e eda8 883d 542b 833e
00000010: 35b0 0a3e f129 18be da6c eb3d 2cd8 c73e
00000020: 68eb 083e 82fa 093e 3786 67bd 8820 f63e
00000030: ad4d 533e 4a39 89be 852e 56bd 23ff 4dbc

encoder.multimode_epic.epic_proj.global_2.bias f4 [4]
-0.01962755 -0.006866136 0.10442932 -0.38232508
00000000: f5c9 a0bc 53fd e0bb 0adf d53d 1dc0 c3be

encoder.multimode_epic.epic_proj.global_2.weight_g f4 [4, 1]
0.5089333 0.3579409 0.57278466 0.45992494
00000000: 7449 023f 0844 b73e 04a2 123f 487b eb3e

encoder.multimode_epic.epic_proj.global_2.weight_v f4 [4, 4]
0.06704696 0.20837413 -0.40185612 0.22061278 0.064976245 -0.19318949 0.039263163 -0.29378414
-0.14371632 -0.09048282 0.29760426 -0.45274526 0.08326869 -0.42116755 0.067443945 0.16903438
00000000: eb4f 893d 0760 553e 16c0 cdbe 51e8 613e
00000010: 4412 853d 77d3 45be 69d2 203d e06a 96be
00000020: 5f2a 13be 0f4f b9bd 965f 983e 3ace e7be
00000030: c688 aa3d 46a3 d7be 0d20 8a3d 5917 2d3e

encoder.multimode_epic.epic_layers.0.fc_global1.bias f4 [4]
-0.12463749 -0.10231557 -0.16806231 -0.1898189
00000000: f141 ffbd d38a d1bd 8718 2cbe e35f 42be

encoder.multimode_epic.epic_layers.0.fc_global1.weight_g f4 [4, 1]
0.5199222 0.5136044 0.7047926 0.5540567
00000000: 9f19 053f 947b 033f 4a6d 343f a9d6 0d3f

encoder.multimode_epic.epic_layers.0.fc_global1.weight_v f4 [4, 16]
-0.09172176 0.08888775 0.13579418 0.22168632 0.11436599 0.18683602 -0.112041004 0.21178558
-0.0038074297 -0.1827535 0.0051183775 -0.0044036247 0.081063725 -0.048587948 0.017575951 0.15388186
0.12251915 -0.045144953 -0.14653046 -0.005668257 -0.22218707 -0.014891487 -0.04110884 -0.14111544
-0.0033979928 -0.09469054 0.12377249 -0.17891802 -0.15765506 0.110864095 -0.24456272 -0.16353965
0.121661514 -0.24155207 0.23253125 0.20051661 0.12898074 0.04071624 0.16392042 0.23573099
0.22823744 0.05980673 0.22275397 0.18485416 0.20165274 -0.1383025 -0.20397407 0.14915445
0.23213904 -0.11877422 0.20595187 -0.13405871 0.029097456 0.20690852 -0.0060409387 0.104500666
-0.21386163 0.07908657 0.1853179 0.15105206 -0.10705357 0.013032082 0.014550538 0.12865399
00000000: 9ed8 bbbd c80a b63d a10d 0b3e bd01 633e
00000010: b738 ea3d f151 3f3e c175 e5bd 52de 583e
00000020: 1286 79bb bc23 3bbe 10b8 a73b 484c 90bb
00000030: bd04 a63d 2804 47bd 71fb 8f3c 3593 1d3e
00000040: 52eb fa3d eae9 38bd 150c 16be c9bc b9bb
00000050: 0285 63be 6cfb 73bc be61 28bd 9180 10be
00000060: dcb0 5ebb 1ded c1bd 6e7c fd3d 4936 37be
00000070: 5470 21be b70c e33d a66e 7abe f076 27be
00000080: ac29 f93d 6d59 77be ac1c 6e3e 3a54 4d3e
00000090: 8713 043e 12c6 263d c1da 273e 7763 713e
000000a0: 13b7 693e e7f7 743d 9e19 643e 694a 3d3e
000000b0: 0e7e 4e3e 2c9f 0dbe 94de 50be f2bb 183e
000000c0: dbb5 6d3e e63f f3bd 0ce5 523e b046 09be
000000d0: ca5d ee3c d4df 533e 11f3 c5bb 7204 d63d
000000e0: 8bfe 5abe 24f8 a13d fac3 3d3e 64ad 1a3e
000000f0: e73e dbbd 8384 553c 6165 6e3c dfbd 033e

encoder.multimode_epic.epic_layers.0.fc_global2.bias f4 [4]
-0.37935886 0.013561806 -0.45049676 -0.079820506
00000000: 533b c2be 5632 5e3c 83a7 e6be ef78 a3bd

encoder.multimode_epic.epic_layers.0.fc_global2.weight_g f4 [4, 1]
0.6307009 0.4987849 0.7069947 0.4595525
00000000: 9d75 213f bc60 ff3e 9bfd 343f 774a eb3e

encoder.multimode_epic.epic_layers.0.fc_global2.weight_v f4 [4, 4]
-0.40237027 0.21184565 -0.23724551 -0.37256497 -0.051539723 -0.2173149 0.43506625 -0.12685515
-0.28125325 -0.42970335 -0.22348188 0.41326633 -0.3433532 0.06282228 0.18176562 0.24628374
00000000: 7a03 cebe 11ee 583e 7df0 72be d6c0 bebe
00000010: 511b 53bd cc87 5ebe 01c1 de3e 51e6 01be
00000020: 6d00 90be 1402 dcbe 6fd8 64be a597 d33e
00000030: fecb afbe f8a8 803d c420 3a3e ce31 7c3e

encoder.multimode_epic.epic_layers.0.fc_local1.bias f4 [4]
-0.057154868 0.06367053 0.020086575 0.006697311
00000000: 391b 6abd b265 823d 9a8c a43c 1e75 db3b

encoder.multimode_epic.epic_layers.0.fc_local1.weight_g f4 [4, 1]
0.6245438 0.54753953 0.48488158 0.6773873
00000000: 1ae2 1f3f 8d2b 0c3f 6642 f83e 4169 2d3f

encoder.multimode_epic.epic_layers.0.fc_local1.weight_v f4 [4, 12]
0.056824274 -0.10796934 0.27854317 0.067377225 -0.25972098 -0.17177936 0.0029667495 0.05807583
0.2685376 0.14417596 -0.14854744 -0.25959298 0.23367493 -0.12508672 -0.14931312 -0.1976127
0.016917858 -0.13655414 0.10322861 0.22664082 0.2171367 0.02858116 -0.10566088 -0.107872516
0.016087694 -0.12676612 -0.27604836 0.027076384 0.011370108 0.02012882 -0.043181524 0.21675909
0.09476727 -0.2547271 0.010780846 0.07678581 0.029096521 -0.16204627 -0.17675136 -0.014635189
-0.097319536 -0.09276925 -0.23126015 0.27372032 -0.27863634 -0.25984836 -0.2762175 -0.0915971
00000000: 92c0 683d 081f ddbd 369d 8e3e 12fd 893d
00000010: 26fa 84be eee6 2fbe cc6d 423b ece0 6d3d
00000020: c37d 893e dda2 133e d21c 18be 5fe9 84be
00000030: 7b48 6f3e bc16 00be 8ae5 18be fc5a 4abe
00000040: 5297 8a3c d9d4 0bbe 8569 d33d 8814 683e
00000050: 1559 5e3e 0923 ea3c bb64 d8bd 44ec dcbd
00000060: 57ca 833c face 01be 3656 8dbe 4bcf dd3c
00000070: b149 3a3c 32e5 a43c 1cdf 30bd 18f6 5d3e
00000080: 5815 c23d 976b 82be 25a2 303c e141 9d3d
00000090: d45b ee3c 75ef 25be 4ffe 34be 6fc8 6fbc
000000a0: 774f c7bd cefd bdbd 76cf 6cbe 1225 8c3e
000000b0: 6ca9 8ebe d80a 85be 616c 8dbe 4397 bbbd

encoder.multimode_epic.epic_layers.0.fc_local2.bias f4 [4]
-0.050127402 -0.19850765 -0.43203038 -0.44683313
00000000: 6452 4dbd 9745 4bbe 1633 ddbe 50c7 e4be

encoder.multimode_epic.epic_layers.0.fc_local2.weight_g f4 [4, 1]
0.7060924 0.3603629 0.71435475 0.5401298
00000000: 79c2 343f 7c81 b83e f4df 363f f245 0a3f

encoder.multimode_epic.epic_layers.0.fc_local2.weight_v f4 [4, 4]
0.37977612 -0.3577724 -0.06659331 0.47911364 -0.1045109 0.25576293 0.09642847 0.19042028
-0.44444954 0.36421865 -0.3449384 0.26252696 -0.31710517 -0.06077936 0.4272879 0.022082854
00000000: 0472 c23e f22d b7be 1362 88bd 624e f53e
00000010: d009 d6bd 5cf3 823e 4a7c c53d 89fd 423e
00000020: e48e e3be de7a ba3e c49b b0be ef69 863e
00000030: 9c5b a2be c7f3 78bd 7bc5 da3e 1ae7 b43c

encoder.multimode_epic.epic_layers.1.fc_global1.bias f4 [4]
0.10267541 -0.12755026 -0.021756887 -0.057361756
00000000: 7c47 d23d 899c 02be 803b b2bc 29f4 6abd

encoder.multimode_epic.epic_layers.1.fc_global1.weight_g f4 [4, 1]
0.5959773 0.5679912 0.56229985 0.63940454
00000000: f891 183f df67 113f e2f2 0f3f 04b0 233f

encoder.multimode_epic.epic_layers.1.fc_global1.weight_v f4 [4, 16]
-0.006218427 0.014839916 0.07356845 0.1982325 -0.23506635 0.081688285 0.06899816 -0.040070944
-0.011329826 -0.16715655 -0.22707231 0.22807053 -0.12352252 -0.18791364 -0.20174785 -0.041110612
0.15877174 -0.22528893 0.01804238 0.21745187 0.21968217 0.18583845 -0.07263321 -0.13334194
0.023978991 0.13621822 0.04773226 0.22993818 -0.026445625 0.06570116 0.0944358 0.16570607
0.24413177 -0.10226815 -0.11445708 0.24486877 0.07815901 0.024313299 -0.0370237 0.22886685
-0.02075381 0.048455745 -0.20833187 0.21972397 -0.140924 0.08808325 0.118469484 -0.04365354
0.0675271 -0.20101972 0.12962757 0.15738092 -0.24276705 0.091451 0.23306143 -0.21679653
-0.11328622 0.10261594 -0.006697199 -0.17558634 -0.011592548 -0.23507121 -0.024615493 0.10359608
00000000: f2c3 cbbb 1e23 733c 0eab 963d 76fd 4a3e
00000010: 3cb5 70be 304c a73d e84e 8d3d 6e21 24bd
00000020: bca0 39bc 162b 2bbe a585 68be 528b 693e
00000030: 60f9 fcbd 6f6c 40be fd96 4ebe 9a63 28bd
00000040: 0f95 223e 24b2 66be 9dcd 933c b4ab 5e3e
00000050: 5df4 603e 6f4c 3e3e b8c0 94bd ca8a 08be
00000060: 976f c43c ca7c 0b3e e782 433d ea74 6b3e
00000070: 7fa4 d8bc 548e 863d 8f67 c13d daae 293e
00000080: aefd 793e f771 d1bd 7968 eabd e1be 7a3e
00000090: d511 a03d af2c c73c 2aa6 17bd 125c 6a3e
000000a0: e503 aabc 8879 463d f354 55be 52ff 603e
000000b0: 624e 10be fe64 b43d 21a0 f23d 0ece 32bd
000000c0: a64b 8a3d 1dd8 4dbe 17bd 043e 7728 213e
000000d0: ed97 78be a94a bb3d a8a7 6e3e e9ff 5dbe
000000e0: 9b02 e8bd 4e28 d23d 2d74 dbbb e8cc 33be
000000f0: acee 3dbc 82b6 70be 6ea6 c9bc 2e2a d43d

encoder.multimode_epic.epic_layers.1.fc_global2.bias f4 [4]
-0.18703023 -0.018055774 -0.46208364 0.2511845
00000000: da84 3fbe b4e9 93bc 3a96 ecbe 419b 803e

encoder.multimode_epic.epic_layers.1.fc_global2.weight_g f4 [4, 1]
0.40775344 0.58335155 0.5095868 0.67711896
00000000: 0fc5 d03e 8756 153f 4874 023f ab57 2d3f

encoder.multimode_epic.epic_layers.1.fc_global2.weight_v f4 [4, 4]
-0.22867809 -0.18079787 0.27020124 -0.01720814 0.13084258 -0.15934622 -0.43148568 0.34992045
-0.43028915 0.020653104 0.28387627 0.055584893 0.0510175 0.37666252 -0.48077157 -0.30931816
00000000: 972a 6abe 1423 39be d157 8a3e 16f8 8cbc
00000010: 99fb 053e a82b 23be b1eb dcbe c628 b33e
00000020: dc4e dcbe b330 a93c 3b58 913e fcac 633d
00000030: baf7 503d e9d9 c03e b127 f6be f35e 9ebe

encoder.multimode_epic.epic_layers.1.fc_local1.bias f4 [4]
-0.012253021 -0.09412919 0.11150333 0.2240954
00000000: e5c0 48bc cec6 c0bd dc5b e43d 4479 653e

encoder.multimode_epic.epic_layers.1.fc_local1.weight_g f4 [4, 1]
0.5367849 0.6442636 0.49315155 0.42329296
00000000: bc6a 093f 76ee 243f 5c7e fc3e dbb9 d83e

encoder.multimode_epic.epic_layers.1.fc_local1.weight_v f4 [4, 12]
-0.26217952 0.01872455 0.09145527 -0.18790369 0.089857526 -0.09808595 0.17510676 -0.1944669
0.16641419 0.26035395 0.029934049 -0.028234009 0.009099798 0.2934855 -0.1689138 0.28930962
0.20549706 -0.09788474 0.24948995 -0.00313931 0.061559405 -0.22827668 0.13129957 0.12758164
-0.1235611 -0.17169705 -0.19967546 0.06072148 0.092458755 0.22399871 0.009743912 -0.096054934
-0.06324674 -0.22666305 0.16303006 -0.14736426 -0.18391988 0.19023027 -0.11119754 0.07521869
-0.057168566 -0.030725526 0.07059589 0.056165107 -0.018179262 0.13518566 0.24283066 0.12819022
00000000: 653c 86be 3a64 993c e74c bb3d d369 40be
00000010: 3907 b83d 49e1 c8bd 304f 333e 5522 47be
00000020: 7b68 2a3e 1d4d 853e 4038 f53c 024b e7bc
00000030: 5217 153c bb43 963e bdf7 2cbe 6420 943e
00000040: d26d 523e cb77 c8bd 4b7a 7f3e e2bc 4dbb
00000050: b725 7c3d 5dc1 69be 6573 063e c3a4 023e
00000060: 9a0d fdbd 5ad1 2fbe b977 4cbe 16b7 783d
00000070: 045b bd3d eb5f 653e eea4 1f3c 73b8 c4bd
00000080: 8287 81bd 5c1a 68be 5af1 263e a8e6 16be
00000090: 7e55 3cbe b9cb 423e 89bb e3bd 420c 9a3d
000000a0: 9629 6abd 19b4 fbbc 9494 903d 620d 663d
000000b0: adec 94bc 1c6e 0a3e 9aa8 783e 4c44 033e

encoder.multimode_epic.epic_layers.1.fc_local2.bias f4 [4]
-0.38410628 0.214959 0.441515 -0.29125112
00000000: 94a9 c4be 361e 5c3e 410e e23e de1e 95be

encoder.multimode_epic.epic_layers.1.fc_local2.weight_g f4 [4, 1]
0.55565363 0.6258622 0.7964723 0.667369
00000000: 513f 0e3f 8138 203f 9ce5 4b3f b2d8 2a3f

encoder.multimode_epic.epic_layers.1.fc_local2.weight_v f4 [4, 4]
0.39675605 0.032227237 -0.033248834 0.39671668 0.44947818 -0.16333841 -0.15036814 0.3864496
0.4798674 0.4519477 0.46167758 -0.07120899 -0.4303444 -0.24903859 -0.093645304 0.42885292
00000000: 9c23 cb3e b500 043d ee2f 08bd 731e cb3e
00000010: 0122 e63e 2f42 27be 1bfa 19be b9dc c53e
00000020: 2eb1 f53e b065 e73e 0161 ec3e 05d6 91bd
00000030: 1a56 dcbe f903 7fbe 1cc9 bfbd 9c92 db3e

encoder.multimode_epic.continuous_head.0.weight f4 [2, 2]
-0.64756423 0.37839788 0.48232135 0.35295835
00000000: c5c6 25bf 5ebd c13e d3f2 f63e f5b6 b43e

encoder.multimode_epic.continuous_head.0.bias f4 [2]
-0.15032709 -0.6705496
00000000: 58ef 19be 23a9 2bbf

encoder.multimode_epic.continuous_head.2.weight f4 [3, 2]
0.6221467 0.3378115 -0.33890766 -0.6924346 0.14658713 -0.38156128
00000000: 0245 1f3f a1f5 ac3e 4e85 adbe 6543 31bf
00000010: f01a 163e 005c c3be

encoder.multimode_epic.continuous_head.2.bias f4 [3]
0.3442666 0.43428814 0.10679309
00000000: b643 b03e 045b de3e 56b6 da3d

encoder.multimode_epic.discrete_head.0.weight f4 [2, 2]
0.082574464 -0.40655825 0.3392568 0.46223825
00000000: cd1c a93d 6728 d0be 11b3 ad3e 7eaa ec3e

encoder.multimode_epic.discrete_head.0.bias f4 [2]
-0.5144522 -0.15875337
00000000: 24b3 03bf 3e90 22be

encoder.multimode_epic.discrete_head.2.weight f4 [8, 2]
0.10374225 -0.3392482 0.46684733 0.3426938 0.09721272 0.10956328 0.53219235 -0.34013772
-0.19354768 -0.54861575 0.19611411 -0.3699841 0.030365113 0.042372547 -0.24341343 -0.64343107
00000000: d176 d43d f1b1 adbe 9d06 ef3e 9075 af3e
00000010: 7617 c73d b762 e03d c23d 083f 8826 aebe
00000020: 5d31 46be 1572 0cbf 23d2 483e 8e6e bdbe
00000030: 42c0 f83c d68e 2d3d 5f41 79be e6b7 24bf

encoder.multimode_epic.discrete_head.2.bias f4 [8]
0.03752594 0.46104893 0.059036452 0.4563264 -0.04484121 -0.5549086 -0.29658762 -0.5129642
00000000: cdb4 193d 9b0e ec3e 35d0 713d 9da3 e93e
00000010: 6bab 37bd 7d0e 0ebf 55da 97be 9f51 03bf

encoder.multimode_epic.continuous_output.bias f4 [3]
0.21428269 -0.43577147 0.46177724
00000000: ec6c 5b3e 701d dfbe 116e ec3e

encoder.multimode_epic.continuous_output.weight_g f4 [3, 1]
0.55188704 0.7128394 0.74899405
00000000: 7848 0d3f a57c 363f 13be 3f3f

encoder.multimode_epic.continuous_output.weight_v f4 [3, 3]
-0.21909612 0.08476755 0.5107399 0.46499977 0.07665341 0.54585046 -0.24002875 0.48156157
0.5295228
00000000: bc5a 60be 9c9a ad3d dabf 023f 7314 ee3e
00000010: 77fc 9c3d dbbc 0b3f 19ca 75be 3d8f f63e
00000020: ce8e 073f

encoder.multimode_epic.discrete_output.bias f4 [8]
-0.035274748 0.2771545 -0.103850655 0.16950686 0.025773976 -0.080163814 -0.2752259 0.1189786
00000000: 417c 10bd 32e7 8d3e a7af d4bd 3593 2d3e
00000010: f223 d33c ed2c a4bd 69ea 8cbe 0dab f33d

encoder.multimode_epic.discrete_output.weight_g f4 [8, 1]
0.7510646 0.61853695 0.6356024 0.5573264 0.6193733 0.5580683 0.5648386 0.4028763
00000000: c545 403f 7058 1e3f d7b6 223f f1ac 0e3f
00000010: 408f 1e3f 90dd 0e3f 4399 103f cd45 ce3e

encoder.multimode_epic.discrete_output.weight_v f4 [8, 8]
-0.26002806 0.33533514 0.11032455 -0.29830122 0.26562065 0.15838665 -0.27545542 -0.31886095
-0.14337933 0.2024322 -0.07080831 -0.31510475 0.33762237 0.20866123 -0.23400882 -0.0050699795
-0.17972352 0.17845243 -0.14153235 0.2765118 0.15292147 0.26359332 -0.31605953 0.24787065
0.19245824 -0.34048495 -0.22293851 -0.1405567 -0.05781427 -0.041146696 0.29038802 -0.07795306
0.32298118 -0.2744335 0.015152242 0.17135315 0.22682518 0.21901962 -0.21667424 0.14164658
0.17856206 0.15075485 -0.07228466 0.2043935 -0.202451 0.16255416 0.3089652 -0.23247129
0.08808664 0.10313523 0.29622442 -0.2962175 -0.06568193 0.06279735 -0.21061707 0.25295243
0.120674804 -0.09667061 0.24099752 -0.09623722 -0.20132683 -0.13196175 0.11578384 0.059743978
00000000: 6622 85be 0cb1 ab3e d6f1 e13d f0ba 98be
00000010: 6eff 873e 1c30 223e 7e08 8dbe be41 a3be
00000020: 08d2 12be 634a 4f3e f203 91bd 6955 a1be
00000030: d7dc ac3e 4aab 553e 02a0 6fbe 1222 a6bb
00000040: 7109 38be 3cbc 363e dbed 10be f492 8d3e
00000050: 7297 1c3e b4f5 863e 8ed2 a1be ced1 7d3e
00000060: c613 453e 0b54 aebe fe49 64be 18ee 0fbe
00000070: a8ce 6cbd 7089 28bd bdad 943e dba5 9fbd
00000080: ca5d a53e 8c82 8cbe 1c41 783c 3377 2f3e
00000090: dc44 683e ae46 603e dadf 5dbe cd0b 113e
000000a0: f9d8 363e 7b5f 1a3e fb09 94bd 884c 513e
000000b0: 514f 4fbe 9974 263e b030 9e3e f40c 6ebe
000000c0: c566 b43d 9038 d33d baaa 973e d2a9 97be
000000d0: 3f84 86bd e69b 803d 00ac 57be fb82 813e
000000e0: 5a24 f73d 3efb c5bd 0ec8 763e 0518 c5bd
000000f0: 9f28 4ebe fb20 07be 1420 ed3d 1ab6 743d

loss_multimode.loss_weights f4 [2]
0.007905536 0.007317368
00000000: 3986 013c 88c6 ef3b

exp_avg f4 [4, 3]
-0.04093431 -1.9966725e-05 7.565221e-05 0.043951888 1.1839054e-05 -9.230078e-05 -0.009529595 -7.505143e-07
2.2369393e-05 0.042211495 3.8027868e-06 -9.264606e-05
00000000: bcaa 27bd 377e a7b7 79a7 9e38 e506 343d
00000010: 5aa0 4637 9b91 c1b8 0522 1cbc f376 49b5
00000020: e8a5 bb37 f6e5 2c3d 6133 7f36 fa4a c2b8

exp_avg_sq f4 [4, 3]
4.4625165e-05 9.6582464e-11 1.8980464e-10 5.077443e-05 1.02592226e-10 2.784806e-10 2.3325074e-06 5.0250845e-12
1.6162918e-11 4.7658836e-05 9.2527215e-11 2.8912467e-10
00000000: e82b 3b38 1863 d42e 42b1 502f a1f6 5438
00000010: 4a9a e12e a918 992f 2c88 1c36 f0cd b02c
00000020: a82b 8e2d 49e5 4738 3178 cb2e aef2 9e2f

exp_avg f4 [4]
-0.0009880489 0.0011437349 -0.00025749867 0.0011878249
00000000: 6b81 81ba 60e9 953a e300 87b9 cab0 9b3a

exp_avg_sq f4 [4]
2.8342473e-08 3.8700534e-08 1.9515873e-09 4.3378304e-08
00000000: c275 f332 b037 2633 b01c 0631 f34e 3a33

exp_avg f4 [4]
3.213895e-05 0.006108103 -4.4002052e-05 0.00061850646
00000000: efcc 0638 7b26 c83b d88e 38b8 4423 223a

exp_avg_sq f4 [4]
3.3286714e-11 1.0577565e-06 6.691464e-11 1.8163213e-08
00000000: 8265 122e 3df8 8d35 9825 932e 5405 9c32

exp_avg f4 [4, 1]
-0.00020065875 0.033258595 -2.1604617e-05 0.00012417506
00000000: ec67 52b9 2a3a 083d 903b b5b7 fd34 0239

exp_avg_sq f4 [4, 1]
1.0290194e-09 2.9857241e-05 2.0802863e-11 3.4579577e-09
00000000: 676d 8d30 f075 fa37 e2fb b62d 09a1 6d31

exp_avg f4 [4, 12]
3.470051e-05 -5.3472977e-05 0.000101520825 -6.7063374e-06 -0.00033079987 -4.8443395e-05 0.00039641035 0.00029126368
-3.1880718e-05 6.718753e-05 8.9120236e-05 -1.9558001e-05 0.018681081 0.0077242358 0.008689016 0.01258521
-0.114042066 -0.0276095 0.13049544 0.059943393 -0.010851424 0.006122228 -0.013955025 0.012030499
-2.688701e-05 -3.7751655e-05 -2.2556911e-05 1.2840925e-07 1.739239e-05 1.7269447e-05 -4.310558e-05 9.231565e-06
2.161403e-05 -6.7428587e-06 2.7473723e-05 -4.1061412e-07 0.00044574574 0.0006102168 0.00037432485 4.867933e-05
0.0011563009 7.201997e-05 -0.0008298004 -0.00091196573 -0.00043455372 -0.0006047331 5.4323584e-05 0.00028011118
00000000: 648b 1138 2c48 60b8 94e7 d438 0007 e1b6
00000010: 356f adb9 b32f 4bb8 4cd5 cf39 c0b4 9839
00000020: a9b7 05b8 08e7 8c38 10e6 ba38 7d10 a4b7
00000030: 1109 993c 961b fd3b 605c 0e3c 3232 4e3c
00000040: e38e e9bd 512d e2bc 99a0 053e 3487 753d
00000050: 2cca 31bc f99c c83b 9ea3 64bc 921b 453c
00000060: 6a8b e1b7 8857 1eb8 9938 bdb7 dee0 0934
00000070: e0e5 9137 dbdd 9037 44cc 34b8 45e1 1a37
00000080: c74f b537 b740 e2b6 5f77 e637 6072 dcb4
00000090: fbb2 e939 f5f6 1f3a 0841 c439 082d 4c38
000000a0: 058f 973a 6d09 9738 f686 59ba fc10 6fba
000000b0: d0d4 e3b9 f486 1eba 81d9 6338 e3db 9239

exp_avg_sq f4 [4, 12]
3.470542e-11 7.339385e-11 2.7209532e-10 1.1945854e-12 2.818228e-09 5.991228e-11 4.0358556e-09 2.1695903e-09
2.7172296e-11 1.1451908e-10 2.0371001e-10 1.1641758e-11 9.47937e-06 1.6621376e-06 2.125077e-06 4.302185e-06
0.00034335835 2.0013124e-05 0.00044847612 9.472657e-05 3.2243154e-06 9.909504e-07 5.454152e-06 3.906578e-06
2.5045459e-11 4.732191e-11 1.6219184e-11 2.1228011e-15 9.149177e-12 1.1308152e-11 5.96619e-11 4.449236e-12
1.712502e-11 1.2633561e-11 2.7680611e-11 5.8121986e-13 7.955988e-09 1.756948e-08 8.102189e-09 4.8713844e-10
3.6007823e-08 1.2367201e-09 2.7275972e-08 2.2780068e-08 7.990747e-09 1.4756599e-08 2.5614022e-10 3.597489e-09
00000000: d4a2 182e 1065 a12e 0396 952f 7a1f a82b
00000010: cbaa 4131 9ebf 832e c3ab 8a31 d617 1531
00000020: 9202 ef2d 83d4 fb2e 45fb 5f2f d1cd 4c2d
00000030: 9609 1f37 9d16 df35 8b9c 0e36 7d5b 9036
00000040: c704 b439 dbe1 a737 7221 eb39 f1a7 c638
00000050: 5161 5836 cc00 8535 cf02 b736 4015 8336
00000060: 5c4d dc2d bc1f 502e 5baa 8e2d c5f6 1827
00000070: 3bf4 202d 64ef 462d aa32 832e 288b 9c2c
00000080: 1ea2 962d 8040 5e2d 327b f32d 4e99 232b
00000090: ceae 0832 b2eb 9632 ce31 0b32 52e7 0530
000000a0: 05a7 1a33 38f9 a930 7f4c ea32 e6ad c332
000000b0: ad47 0932 3584 7d32 88d0 8c2f b237 7731

exp_avg f4 [4]
-1.9187992e-06 2.5290526e-06 -1.8723535e-08 2.0493063e-07
00000000: b8c4 00b6 cbb8 2936 7dd5 a0b2 e70a 5c34

exp_avg_sq f4 [4]
1.2480323e-13 3.6143367e-13 1.0804724e-17 1.2963317e-15
00000000: 1584 0c2a 1578 cb2a de4f 4723 33d2 ba26

exp_avg f4 [4, 1]
-1.6142477e-06 -1.3544077e-06 2.483524e-07 -1.7378583e-06
00000000: 21a9 d8b5 18c9 b5b5 4b55 8534 5b40 e9b5

exp_avg_sq f4 [4, 1]
9.091694e-14 1.0209725e-13 1.9369384e-15 1.0240831e-13
00000000: 0cba cc29 0fe7 e529 3592 0b27 5f9a e629

exp_avg f4 [4, 12]
1.7018685e-07 -1.9094635e-07 1.5574297e-07 -1.1467229e-06 5.05467e-07 -3.54294e-05 -3.823615e-06 -4.823643e-05
-1.9348438e-06 -2.3836822e-06 -1.6069057e-06 -6.859096e-07 3.8448324e-08 7.575158e-07 6.551054e-07 7.917195e-07
-1.3122486e-06 1.6143264e-05 7.818171e-06 4.9571277e-05 2.1497287e-06 2.1381152e-06 7.757172e-07 5.49232e-07
-1.0553694e-08 3.6706798e-08 2.4138531e-08 1.09486834e-07 4.0914028e-08 -1.3065436e-07 -1.1961318e-07 -3.3663704e-07
-2.3663688e-08 -1.3031213e-07 9.149479e-08 6.060892e-09 -7.3912724e-07 -4.1981474e-07 -6.212003e-07 -6.281069e-07
-5.6314997e-07 2.437701e-06 1.3451153e-06 4.4161056e-06 6.873604e-08 -1.7107534e-07 -1.2730912e-07 1.9459864e-07
00000000: 9bbc 3634 ef06 4db4 4d3a 2734 19e9 99b5
00000010: 6eaf 0735 079a 14b8 9a4c 80b6 7951 4ab8
00000020: 5dd8 01b6 59f7 1fb6 dcac d7b5 591f 38b5
00000030: 6122 2533 1758 4b35 80da 2f35 8d86 5435
00000040: 8520 b0b5 656b 8737 ca2a 0337 c1ea 4f38
00000050: 0f44 1036 8a7c 0f36 e13a 5035 f06e 1335
00000060: a34f 35b2 8da7 1d33 3159 cf32 061f eb33
00000070: 73b9 2f33 ff49 0cb4 056f 00b4 0bbb b4b4
00000080: 0045 cbb2 edeb 0bb4 cb7b c433 2b40 d031
00000090: 7068 46b5 e662 e1b4 8fc0 26b5 2d9b 28b5
000000a0: 5f2b 17b5 6297 2336 cf89 b435 0f2e 9436
000000b0: 0a9c 9333 d5b0 37b4 77b2 08b4 def2 5034

exp_avg_sq f4 [4, 12]
9.792395e-16 4.2122042e-15 1.140081e-15 4.39629e-14 1.3806851e-14 4.148745e-11 5.3640377e-13 7.841918e-11
1.2145454e-13 1.878988e-13 8.6573435e-14 1.6345527e-14 1.2245238e-16 2.7858824e-14 2.0078354e-14 5.102216e-14
9.5943435e-14 1.5077302e-11 3.2374734e-12 1.5868601e-10 2.73176e-13 2.911961e-13 4.3102495e-14 1.66851e-14
3.3797665e-18 4.3087418e-17 1.8120197e-17 3.8070044e-16 5.1903317e-17 5.178845e-16 4.4333689e-16 3.594843e-15
1.7067395e-17 5.332594e-16 2.6424434e-16 1.0939474e-18 1.8350494e-14 6.1105304e-15 1.3045698e-14 1.35752e-14
1.0667513e-14 1.9538143e-13 5.794547e-14 6.656322e-13 1.3738655e-16 1.1461364e-15 5.7419887e-16 1.2988521e-15
00000000: 901f 8d26 bac2 9727 914d a426 c6fd 4529
00000010: ddb8 7828 b776 362e f7fb 162b 1372 ac2e
00000020: e3be 082a 248e 532a 30f2 c229 383a 9328
00000030: 902d 0d25 13ee fa28 88d9 b428 8cc8 6529
00000040: a00b d829 119f 842d 23d1 632c 247a 2e2f
00000050: d0c8 992a c8ed a32a cb1d 4229 3949 9628
00000060: fc61 7922 a5b4 4624 1b21 a723 7875 db25
00000070: 9f5c 6f24 2245 1526 fa90 ff25 9384 8127
00000080: 3f6b 9d23 99b3 1926 9553 9825 2a70 a121
00000090: 5c49 a528 b227 dc27 aa02 6b28 8f8c 7428
000000a0: 382b 4028 ddfa 5b2a 4a7b 8229 db5b 3b2b
000000b0: 5a65 1e25 f82c a526 6680 2526 2f2f bb26

exp_avg f4 [4]
-2.4383738e-05 -1.1562435e-06 5.6519028e-05 -6.9337635e-05
00000000: ae8b ccb7 3930 9bb5 d80e 6d38 5c69 91b8

exp_avg_sq f4 [4]
1.7006306e-11 6.652789e-14 9.563303e-11 1.4769908e-10
00000000: cc96 952d b8ce 9529 9c4c d22e 9865 222f

exp_avg f4 [4, 1]
-5.618093e-06 -5.7860916e-07 3.93398e-06 -2.4997312e-06
00000000: 0d83 bcb6 b851 1bb5 a200 8436 0ec1 27b6

exp_avg_sq f4 [4, 1]
9.102904e-13 2.3221454e-14 4.4081443e-13 5.5018604e-13
00000000: ab1c 802b 0729 d128 0e28 f82a 15dd 1a2b

exp_avg f4 [4, 4]
-1.7459273e-06 -2.6695586e-06 2.5221568e-06 4.060873e-06 -2.1309136e-06 -1.6435843e-07 2.860742e-07 5.8393994e-07
6.3357093e-06 1.4449546e-05 -3.7686093e-06 -6.487633e-06 -5.7491984e-06 -5.302252e-06 5.005674e-06 3.5919024e-06
00000000: 9b55 eab5 ab26 33b6 5342 2936 a242 8836
00000010: d100 0fb6 807a 30b4 bd95 9934 0cc0 1c35
00000020: 5497 d436 546c 7237 37e8 7cb6 58b0 d9b6
00000030: 3de9 c0b6 ffe9 b1b6 6af6 a736 6a0c 7136

exp_avg_sq f4 [4, 4]
1.2286984e-13 2.1262099e-13 1.8814968e-13 4.7382064e-13 2.912834e-13 1.3301729e-15 5.021179e-15 2.2760363e-14
1.4286052e-12 6.2374667e-12 4.9565164e-13 1.1689548e-12 9.785115e-13 7.920484e-13 9.0510124e-13 4.395087e-13
00000000: d256 0a2a d463 6f2a 74d6 532a 605e 052b
00000010: 5dfa a32a b8b2 bf26 34e8 b427 d301 cd28
00000020: ed0e c92b 1b76 db2c 7783 0b2b 0984 a42b
00000030: 98b6 892b 1af1 5e2b 6bc3 7e2b e16b f72a

exp_avg f4 [4]
-4.8608904e-06 7.139664e-07 0.00017996684 8.08232e-08
00000000: bb1a a3b6 66a7 3f35 7bb5 3c39 0691 ad33

exp_avg_sq f4 [4]
1.4310761e-12 1.9130959e-13 9.973429e-10 5.5702464e-16
00000000: f367 c92b 3c65 572a e212 8930 2a8d 2026

exp_avg f4 [4, 1]
-3.3278872e-07 -2.1740813e-07 -1.593444e-05 1.0614554e-08
00000000: 22aa b2b4 b170 69b4 f3aa 85b7 4d5b 3632

exp_avg_sq f4 [4, 1]
8.02689e-15 1.9487765e-14 7.781661e-12 6.8637284e-18
00000000: 7f99 1028 ba87 af28 7ce5 082d 153a fd22

exp_avg f4 [4, 4]
-3.0509017e-07 -6.3119523e-07 -2.116622e-06 -3.1955203e-06 -7.202305e-07 -1.1307098e-07 -1.4917694e-07 -9.278952e-08
2.3577539e-05 -2.9916484e-06 3.5507543e-05 1.7168133e-05 2.9845843e-08 9.374285e-09 1.5202682e-08 1.4070828e-09
00000000: 46cb a3b4 686f 29b5 4a0b 0eb6 9f72 56b6
00000010: dd55 41b5 6ed1 f2b3 722d 20b4 9443 c7b3
00000020: 61c8 c537 21c4 48b6 efed 1438 4904 9037
00000030: da2f 0033 8b0c 2132 0d97 8232 5363 c130

exp_avg_sq f4 [4, 4]
5.8406827e-15 2.7436137e-14 2.896127e-13 6.530818e-13 3.4000895e-13 5.1415374e-15 4.5292217e-14 1.1251175e-14
1.5821339e-11 2.7749024e-13 3.8026953e-11 9.5631515e-12 3.1856016e-17 5.2487484e-18 1.1350904e-17 3.878034e-18
00000000: ca6e d227 6d1f f728 9709 a32a 81d3 372b
00000010: 7468 bf2a 503e b927 5ffa 4b29 e3ae 4a28
00000020: 7d2a 8b2d 8f36 9c2a 8b3e 272e 9b3c 282d
00000030: f2e8 1224 07a5 c122 2163 5123 ff12 8f22

exp_avg f4 [4]
-2.3605592e-06 -3.0365584e-08 5.1917787e-06 5.91233e-07
00000000: 196a 1eb6 506b 02b3 0a35 ae36 39b5 1e35

exp_avg_sq f4 [4]
3.978587e-13 2.782325e-17 9.767185e-13 1.09823615e-13
00000000: 7bf9 df2a e54f 0024 fe75 892b 014d f729

exp_avg f4 [4, 1]
-3.3861626e-05 2.2037077e-07 4.9135448e-05 5.0481267e-06
00000000: a506 0eb8 0e9f 6c34 c916 4e38 1463 a936

exp_avg_sq f4 [4, 1]
1.15878536e-10 1.5784518e-15 1.07919736e-10 1.34626685e-11
00000000: d1d1 fe2e 987a e326 6951 ed2e 78d6 6c2d

exp_avg f4 [4, 16]
-6.339175e-06 5.6723916e-06 9.131026e-06 1.38286105e-05 9.236087e-06 -1.31883235e-05 -1.7569695e-05 -5.2109834e-05
-4.815088e-07 -1.2479059e-05 3.9835717e-07 -5.160852e-07 3.6137903e-06 -5.8821092e-06 -1.6255682e-07 1.0498173e-05
-4.8051046e-08 6.133973e-09 5.6719134e-08 -1.42240015e-08 1.0596913e-07 -4.2751125e-07 -4.24929e-08 -6.400511e-07
1.081514e-09 3.719579e-08 -5.024256e-08 7.154375e-08 3.9952653e-08 -7.335398e-08 8.0757765e-08 6.4986274e-08
-8.013004e-06 1.7831677e-05 -1.515292e-05 -1.0288956e-05 -1.1342976e-05 6.8422065e-05 1.2389933e-06 0.000109434535
-1.514617e-05 -3.7528491e-06 -1.4529948e-05 -1.2230787e-05 -9.321686e-06 1.4179321e-05 1.6372524e-05 -9.770461e-06
-2.0734242e-06 1.0028369e-06 -1.7644508e-06 1.3891627e-06 -5.938181e-07 4.2884216e-07 5.146366e-06 2.1020078e-05
1.9044471e-06 -6.4579956e-07 -1.5814368e-06 -1.3365138e-06 1.5157495e-06 4.289891e-07 -1.9479426e-08 -1.1302865e-06
00000000: 19b5 d4b6 7955 be36 7531 1937 6e01 6837
00000010: b1f4 1a37 6b43 5db7 a262 93b7 8290 5ab8
00000020: 0841 01b5 265d 51b7 cbdd d534 1b89 0ab5
00000030: 7284 7236 ef5e c5b6 478b 2eb4 4f21 3037
00000040: af60 4eb3 ffc2 d231 599b 7333 d25d 74b2
00000050: 2591 e333 b384 e5b4 7081 36b3 facf 2bb5
00000060: 64a4 9430 34c1 1f33 47ca 57b3 98a3 9933
00000070: 6898 2b33 c786 9db3 0d6d ad33 958e 8b33
00000080: 976f 06b7 3c95 9537 4c39 7eb7 bb9e 2cb7
00000090: b64d 3eb7 d17d 8f38 7c4b a635 3880 e538
000000a0: 4e1c 7eb7 75d9 7bb6 a7c5 73b7 d532 4db7
000000b0: 5664 1cb7 b8e3 6d37 ba57 8937 cfeb 23b7
000000c0: 2825 0bb6 3799 8635 11d2 ecb5 4473 ba35
000000d0: de66 1fb5 9e3b e634 f3ae ac36 4654 b037
000000e0: 4e9c ff35 025b 2db5 c141 d4b5 4462 b3b5
000000f0: c270 cb35 d04f e634 b653 a7b2 59b4 97b5

exp_avg_sq f4 [4, 16]
4.0850543e-12 3.3609244e-12 8.476301e-12 1.9545929e-11 8.51581e-12 1.8074467e-11 2.565298e-11 2.7498911e-10
3.1786666e-14 1.5558806e-11 2.5898483e-14 3.586774e-14 1.6445955e-12 3.0818273e-12 3.002633e-15 1.107393e-11
7.538251e-17 1.2339804e-18 1.05764365e-16 5.992073e-18 3.678874e-16 6.6623313e-15 4.8766026e-17 1.31342835e-14
3.585402e-20 4.5212994e-17 8.206155e-17 1.6752206e-16 5.7067594e-17 1.7010395e-16 2.124301e-16 1.3812848e-16
2.8649405e-12 1.4086447e-11 1.0440483e-11 5.091529e-12 5.6675897e-12 2.0656742e-10 4.1412625e-13 5.3112204e-10
1.03700555e-11 6.134075e-13 9.569197e-12 6.740087e-12 4.4048103e-12 8.3482865e-12 1.1806498e-11 4.2886823e-12
2.2654682e-12 6.481473e-13 1.7106799e-12 1.0469941e-12 1.5374685e-13 6.5006715e-12 2.7954796e-12 1.2696835e-10
1.9093663e-12 2.433746e-13 1.3697823e-12 9.413234e-13 9.253355e-13 4.8019663e-14 2.9963653e-15 6.727973e-13
00000000: e6ba 8f2c 0881 6c2c de1d 152d 85ed ab2d
00000010: cccf 152d 15fc 9e2d 60a5 e12d 472d 972f
00000020: 8827 0f29 51db 882d d645 e928 b088 2129
00000030: cc74 e72b 44dd 582c cd5c 5827 8cd0 422d
00000040: fbd1 ad24 761a b621 43e0 f324 8811 dd22
00000050: 9912 d425 2909 f027 c3e4 6024 319b 6c28
00000060: da50 291f 1582 5024 9738 bd24 c923 4125
00000070: c396 8324 d31d 4425 4dea 7425 5540 1f25
00000080: 2e9a 492c b8cf 772d c1ab 372d 6b24 b32c
00000090: 1c69 c72c 8f1f 632f e221 e92a 64fe 1130
000000a0: 946e 362d aba8 2c2b d557 282d 4e25 ed2c
000000b0: 01fb 9a2c 57dd 122d bdb3 4f2d 04e5 962c
000000c0: 0c6b 1f2c ef6f 362b bdc1 f02b f059 932b
000000d0: 831a 2d2a d8b8 e42c e2b6 442c 6a9a 0b2f
000000e0: 165c 062c fa01 892a 9cc7 c02b c07a 842b
000000f0: ba3a 822b e742 5829 2fe9 5727 2860 3d2b

exp_avg f4 [4]
-2.4558003e-07 1.1062462e-05 2.009432e-06 4.0537784e-06
00000000: 43d8 83b4 ea98 3937 c7d9 0636 b105 8836

exp_avg_sq f4 [4]
1.6554078e-15 3.908261e-12 1.3006106e-13 2.1068767e-12
00000000: c591 ee26 7c82 892c 8c6f 122a 1e42 142c

exp_avg f4 [4, 1]
2.9459854e-06 3.893124e-05 -4.1229036e-06 2.3303146e-06
00000000: a5b3 4536 1a4a 2338 7957 8ab6 8062 1c36

exp_avg_sq f4 [4, 1]
2.47493e-13 5.3105548e-11 5.653661e-13 8.017667e-13
00000000: 8053 8b2a 888f 692e ec22 1f2b 61ad 612b

exp_avg f4 [4, 4]
-3.4199368e-07 -9.603315e-07 -5.297724e-07 1.740268e-07 8.6016254e-05 1.589663e-05 3.53027e-05 6.545231e-05
1.3269708e-05 -2.662223e-06 1.2231584e-05 1.247333e-05 3.1233423e-05 -4.9685724e-07 3.2919063e-05 1.8124974e-05
00000000: 419b b7b4 bde4 80b5 af35 0eb5 1fdc 3a34
00000010: a063 b438 c159 8537 fc11 1438 7143 8938
00000020: f6a0 5e37 a5a8 32b6 4136 4d37 8b44 5137
00000030: a200 0338 c55f 05b5 9312 0a38 160b 9837

exp_avg_sq f4 [4, 4]
3.3188085e-15 2.6279168e-14 8.138673e-15 8.841125e-16 2.662165e-10 8.793485e-12 4.435047e-11 1.6050739e-10
6.369354e-12 2.3614005e-13 5.4558003e-12 5.6759584e-12 1.8696773e-10 3.8576923e-14 1.873123e-10 6.991601e-11
00000000: 3625 6f27 a3b3 ec28 019d 1228 fdd3 7e26
00000010: a45a 922f 56b2 1a2d 310e 432e d07a 302f
00000020: 0a1a e02c 5eef 842a 7bf5 bf2c 7db4 c72c
00000030: bd92 4d2f 2abc 2d29 baf3 4d2f 37bf 992e

exp_avg f4 [4]
-2.6783991e-05 5.870838e-06 8.318416e-06 4.039627e-06
00000000: 2fae e0b7 1dfe c436 538f 0b37 228c 8736

exp_avg_sq f4 [4]
2.1818243e-11 1.6454869e-12 1.1124561e-11 4.5560745e-13
00000000: 51ea bf2d ea94 e72b 92b4 432d fa3d 002b

exp_avg f4 [4, 1]
-3.4255795e-06 -1.0224728e-05 -1.945389e-06 -8.178649e-06
00000000: 02e3 65b6 df8a 2bb7 878d 02b6 0837 09b7

exp_avg_sq f4 [4, 1]
4.669372e-13 2.832501e-12 1.00798235e-13 1.8248408e-12
00000000: 5f6e 032b cd51 472c 3afa e229 6969 002c

exp_avg f4 [4, 12]
9.591838e-07 -1.936813e-05 4.2270477e-07 -2.637999e-05 -3.057511e-07 -4.1094154e-05 4.327518e-07 -4.4749245e-07
-2.3270353e-05 -2.6145734e-05 -9.7484e-06 -1.5578296e-06 4.1453536e-06 1.7839127e-05 -3.9199685e-06 1.0276162e-05
-8.6145164e-08 7.990214e-06 1.971572e-06 4.5270417e-06 9.098072e-06 6.5553877e-06 9.963178e-07 -2.1284534e-06
-1.3877994e-07 6.680789e-06 -1.0836233e-06 9.8462315e-06 -6.681784e-07 2.5859841e-05 -3.855326e-07 2.742293e-06
7.3854562e-06 7.308305e-06 4.1161684e-06 3.7804654e-07 1.248216e-07 1.2130462e-05 -2.647939e-06 1.0044245e-05
-1.5446952e-06 6.7052915e-06 -3.0064189e-06 3.5314356e-06 -2.7911466e-07 8.976532e-07 -1.1985569e-06 -1.1654234e-06
00000000: 4ebd 8035 be78 a2b7 1af0 e234 994a ddb7
00000010: 1c26 a4b4 835c 2cb8 f454 e834 e53e f0b4
00000020: b434 c3b7 8953 dbb7 0f8d 23b7 9e16 d1b5
00000030: 5118 8b36 3ca5 9537 4688 83b6 c867 2c37
00000040: cefe b8b3 b50d 0637 594f 0436 fee6 9736
00000050: eca3 1837 5af6 db36 38b9 8535 8dd6 0eb6
00000060: 8a03 15b4 8a2b e036 0371 91b5 3e31 2537
00000070: df5c 33b5 96ed d837 32fb ceb4 3c08 3836
00000080: 96d0 f736 dd39 f536 9e1d 8a36 52f6 ca34
00000090: b306 0634 f083 4b37 3fb3 31b6 b483 2837
000000a0: 5353 cfb5 04fe e036 e2c1 49b6 9afd 6c36
000000b0: 3ad9 95b4 42f6 7035 1ade a0b5 a56b 9cb5

exp_avg_sq f4 [4, 12]
2.96334e-14 1.1538855e-11 1.2841133e-13 2.0009393e-11 2.237716e-14 4.8871348e-11 5.5198647e-15 1.5374329e-14
1.6412325e-11 2.0684855e-11 2.9163397e-12 9.3785785e-14 4.709851e-13 8.439149e-12 3.9123668e-13 2.7847841e-12
1.3417261e-15 2.976755e-12 1.0572936e-13 5.6068924e-13 2.9026922e-12 1.8913733e-12 6.593224e-14 1.2306475e-13
1.6439136e-15 1.3788065e-12 3.124455e-14 8.674839e-12 1.0187011e-13 1.4074465e-10 1.1078147e-14 8.701691e-13
7.90141e-12 1.05499585e-11 3.0604807e-12 4.4178397e-15 6.1247205e-16 3.92007e-12 1.8973431e-13 2.613909e-12
6.648661e-14 1.4591109e-12 2.4635356e-13 3.4547194e-13 5.1480863e-15 2.717627e-14 3.498038e-14 3.7235822e-14
00000000: fc74 0529 62fe 4a2d 0c94 102a 2601 b02d
00000010: 388e c928 3ff0 562e c4df c627 ca7a 8a28
00000020: 455d 902d 27f2 b52d 1b38 4d2c d32f d329
00000030: 0e92 042b 8c76 142d 263f dc2a 36f6 432c
00000040: f55c c126 7378 512c d414 ee29 ebd1 1d2b
00000050: 4142 4c2c f417 052c 5977 9429 008f 0a2a
00000060: b5e9 ec26 bd0c c22b 83b6 0c29 009c 182d
00000070: 1f64 e529 19c0 1a2f f090 4728 4bee 742b
00000080: ca00 0b2d ca98 392d b85c 572c 612b 9f27
00000090: 7688 3026 daec 892c 319f 552a 00f0 372c
000000a0: ecb6 9529 035a cd2b 4aaf 8a2a c17b c22a
000000b0: b77a b927 36c8 f428 a289 1d29 fbb1 2729

exp_avg f4 [4]
2.2097905e-05 0.0020616716 -2.3950772e-06 0.00018548075
00000000: e45e b937 1c1d 073b 1dbb 20b6 9c7d 4239

exp_avg_sq f4 [4]
1.3406891e-11 1.2044573e-07 1.8086882e-13 1.973071e-09
00000000: 45db 6b2d df53 0134 e3a3 4b2a a296 0731

exp_avg f4 [4, 1]
8.074196e-07 -3.25479e-05 4.1354806e-08 -1.5944803e-06
00000000: 74bd 5835 0b84 08b8 179e 3133 ed01 d6b5

exp_avg_sq f4 [4, 1]
3.8104712e-14 2.7324804e-11 2.3630382e-16 1.0929988e-13
00000000: be9b 2b29 fd59 f02d 4a38 8825 171f f629

exp_avg f4 [4, 4]
1.3374025e-06 4.0547323e-07 2.3508887e-08 -7.6379484e-07 -7.961389e-06 4.54685e-06 7.128121e-08 -1.0965469e-05
-3.1040226e-08 -2.1206693e-08 2.372304e-08 7.4350295e-09 2.1808908e-06 -2.5950519e-07 1.6034446e-06 -1.3426911e-06
00000000: cd80 b335 d1af d934 97f0 c932 9507 4db5
00000010: e891 05b7 2591 9836 4213 9933 55f8 37b7
00000020: 1751 05b3 032a b6b2 84c7 cb32 3677 ff31
00000030: 6b5b 1236 1f52 8bb4 f035 d735 8436 b4b5

exp_avg_sq f4 [4, 4]
9.1495184e-14 1.28229235e-14 1.7008838e-16 2.4982827e-14 6.197727e-12 6.659455e-13 1.5609276e-14 3.865017e-12
2.2423453e-16 6.9650606e-17 6.0469106e-17 2.4122173e-17 1.5266751e-13 6.311717e-15 8.166543e-14 1.2428298e-13
00000000: 6207 ce29 4cff 6628 3b19 4425 7a06 e128
00000010: 2910 da2c 6e72 3b2b 8a98 8c28 fafc 872c
00000020: 2d43 8125 769a a024 a96e 8b24 df7c de23
00000030: 6ae3 2b2a 5067 e327 eae4 b729 21ee 0b2a

exp_avg f4 [4]
-3.4063767e-05 6.032133e-06 5.13981e-05 1.07286425e-07
00000000: b1df 0eb8 a167 ca36 4a94 5738 5665 e633

exp_avg_sq f4 [4]
3.7740838e-11 1.0340143e-12 9.7684444e-11 3.5587528e-16
00000000: 68fc 252e 4b86 912b 74cf d62e ec25 cd25

exp_avg f4 [4, 1]
-3.622063e-05 2.3161008e-05 0.0008065323 -7.974936e-07
00000000: 9beb 17b8 e349 c237 776d 533a 5813 56b5

exp_avg_sq f4 [4, 1]
6.405399e-11 1.5689009e-11 2.8778498e-08 2.1152495e-14
00000000: 31db 8c2e 8200 8a2d 9634 f732 5586 be28

exp_avg f4 [4, 16]
4.2055203e-07 -2.8898838e-05 3.3164213e-06 -2.1581125e-05 8.519928e-06 -0.0011634815 -6.2161256e-05 -0.001363297
2.2755407e-06 -7.6678865e-05 -1.4796467e-05 1.4608859e-05 -3.227945e-05 -4.6485744e-05 -3.634317e-05 -3.0733052e-06
-6.194745e-06 1.5902404e-05 -3.3945526e-07 -1.1861049e-06 -1.2404729e-05 0.00022127743 1.2697428e-05 0.00024181913
-1.2627125e-06 4.9878204e-06 -1.7131931e-06 -8.889496e-06 5.056041e-06 3.2172397e-06 3.55095e-07 -6.3025414e-06
-0.00033227046 0.00015965803 0.00015541907 -0.00029509084 -0.00013076662 0.0010480916 0.00019899821 0.0014776867
1.9210092e-05 3.2371012e-05 0.00028412312 -0.0002962245 0.00022987554 -6.5591914e-05 -0.00013153827 5.4724816e-05
9.146854e-08 -2.0042657e-07 1.7992753e-07 3.014109e-07 -3.8547842e-07 2.782553e-06 5.9793564e-07 3.6830752e-06
-1.6016217e-07 3.570206e-07 -8.6654826e-09 -2.3253847e-07 7.6795274e-08 -2.0189125e-07 3.320844e-08 1.406528e-07
00000000: 3bc8 e134 c86b f2b7 af8f 5e36 1d09 b5b7
00000010: d0f0 0e37 f67f 98ba 925c 82b8 a8b0 b2ba
00000020: 7eb5 1836 a7ce a0b8 583e 78b7 9218 7537
00000030: cc63 07b8 b0f9 42b8 2f6f 18b8 fb3e 4eb6
00000040: 74dc cfb6 2766 8537 603e b6b4 4132 9fb5
00000050: e81d 50b7 b506 6839 0a07 5537 d490 7d39
00000060: 797a a9b5 0d5d a736 def0 e5b5 1824 15b7
00000070: 10a7 a936 c2e7 5736 e3a3 be34 6b7a d3b6
00000080: 9634 aeb9 e069 2739 fdf7 2239 6cb6 9ab9
00000090: 661e 09b9 1e60 893a 2daa 5039 f0ae c13a
000000a0: 5c25 a137 1cc6 0738 5cf6 9439 944e 9bb9
000000b0: bf0a 7139 648e 89b8 89ed 09b9 5388 6538
000000c0: 5d6d c433 d634 57b4 1a32 4134 99d1 a134
000000d0: c0f3 ceb4 e6bb 3a36 d381 2035 c02a 7736
000000e0: 0bf9 2bb4 8aac bf34 32df 14b2 b0af 79b4
000000f0: a6ea a433 72c7 58b4 11a1 0e33 5906 1734

exp_avg_sq f4 [4, 16]
7.06486e-15 3.051664e-11 7.05402e-13 1.3570033e-11 2.4513943e-12 5.527713e-08 1.20294e-10 6.887502e-08
1.973784e-13 2.2480069e-10 1.0354687e-11 1.0279241e-11 3.4756684e-11 7.686662e-11 5.260614e-11 4.57479e-13
1.1211343e-12 7.1218287e-12 4.4233805e-15 1.3498375e-13 4.3680094e-12 1.3495052e-09 5.211248e-12 1.6337215e-09
4.4178667e-14 9.3827e-13 8.4461565e-14 2.3185353e-12 7.304846e-13 3.2996257e-13 4.3128187e-14 1.165276e-12
4.9367905e-09 1.1316124e-09 1.0615944e-09 3.9469814e-09 7.503592e-10 5.3790266e-08 1.3992504e-09 9.360565e-08
1.4566204e-11 3.641689e-11 3.5966843e-09 3.902728e-09 2.2504079e-09 2.1719819e-10 7.7324785e-10 1.28387e-10
2.802869e-16 1.3651463e-15 1.064639e-15 2.9210418e-15 4.91886e-15 2.6553732e-13 1.1089377e-14 4.5799627e-13
8.516922e-16 4.328485e-15 3.0430759e-18 1.7690664e-15 1.7717879e-16 1.4019959e-15 4.0678913e-17 6.5692805e-16
00000000: d589 fe27 af36 062e 928d 462b ffb9 6e2d
00000010: 6580 2c2c d969 6d33 c043 042f 71e8 9333
00000020: 733a 5e2a c52b 772f 5d29 362d 96d5 342d
00000030: 8cdc 182e 0f08 a92e 405d 672e d6c4 002b
00000040: 1fc9 9d2b bb93 fa2c 7c5e 9f27 6bfa 172a
00000050: 88af 992c 7e79 b930 c05a b72c 7789 e030
00000060: 89f6 4629 bd0c 842b c730 be29 0527 232c
00000070: f69c 4d2b 9ec0 b92a 6a3b 4229 7eff a32b
00000080: 78a0 a931 1287 9b30 88e7 9130 049e 8731
00000090: d641 4e30 0607 6733 bf4f c030 4004 c933
000000a0: 2d20 802d c629 202e 8a29 7731 c218 8631
000000b0: 98a5 1a31 dbcf 6e2f 7b8c 5430 ba29 0d2f
000000c0: 0c93 a125 02bd c426 3f6e 9926 b67b 5227
000000d0: 7a38 b127 f67b 952a bac4 4728 1cea 002b
000000e0: cb7b 7526 3af3 9b27 148a 6022 08f3 fe26
000000f0: f345 4c25 850c ca26 2f99 3b24 bc58 3d26

exp_avg f4 [4]
-3.0837567e-05 -2.1199594e-06 0.00020397257 -1.2612088e-06
00000000: 9657 01b8 a044 0eb6 78e1 5539 ce46 a9b5

exp_avg_sq f4 [4]
2.3901613e-11 1.6022695e-13 1.3541206e-09 5.4086547e-14
00000000: a63d d22d 4666 342a e21b ba30 8b95 7329

exp_avg f4 [4, 1]
-0.00014896794 1.0252691e-05 0.0009585993 7.3537176e-06
00000000: 4734 1cb9 f902 2c37 834a 7b3a f4bf f636

exp_avg_sq f4 [4, 1]
5.885953e-10 4.3896544e-12 3.530234e-08 2.135363e-12
00000000: b6ca 2130 7e72 9a2c 559f 1733 4843 162c

exp_avg f4 [4, 4]
-0.000118963144 -0.00011913972 -0.00018523783 -6.2438835e-06 -2.570129e-06 1.9827214e-06 -6.1407845e-06 -5.8898786e-06
0.0008585481 9.817584e-05 0.0012806104 -0.000104026236 -8.3915324e-07 -4.6614705e-06 -5.749581e-06 3.3165968e-06
00000000: da7b f9b8 a6da f9b8 673c 42b9 8d82 d1b6
00000010: 7b7a 2cb6 e50e 0536 f00c ceb6 aca1 c5b6
00000020: 3010 613a c1e3 cd38 28da a73a a928 dab8
00000030: 2c42 61b5 ba69 9cb6 86ec c0b6 b392 5e36

exp_avg_sq f4 [4, 4]
3.822798e-10 3.9963963e-10 9.424385e-10 1.0502859e-12 2.6259794e-13 1.7247496e-13 1.5620988e-12 1.4500251e-12
2.792226e-08 5.417469e-10 6.1210415e-08 4.0057077e-10 3.049141e-14 9.421363e-13 1.3684803e-12 4.3328421e-13
00000000: 1929 d22f 47b4 db2f 1b87 8130 8ad0 932b
00000010: 5ad4 932a 8630 422a 8ad8 db2b a912 cc2b
00000020: b3d9 ef32 0dea 1430 c872 8333 5337 dc2f
00000030: 3452 0929 0a98 842b b398 c02b d6ea f32a

exp_avg f4 [4]
0.0010303779 -0.0002782272 -3.7183996e-05 0.0012636314
00000000: bf0d 873a 06df 91b9 03f6 1bb8 6fa0 a53a

exp_avg_sq f4 [4]
3.3735134e-08 2.1575792e-09 5.0461097e-11 4.54232e-08
00000000: 2ce4 1033 8944 1431 25ee 5d2e 5617 4333

exp_avg f4 [4, 1]
0.0010204441 -0.0016910232 6.3474617e-06 0.005571934
00000000: 6cc0 853a 53a5 ddba 48fc d436 c594 b63b

exp_avg_sq f4 [4, 1]
4.1121755e-08 7.7492196e-08 1.1094231e-12 8.570831e-07
00000000: d99d 3033 c969 a633 2e23 9c2b 4d12 6635

exp_avg f4 [4, 12]
0.00043692382 0.0037494537 -0.00022537351 0.0031947405 0.001777156 0.00015848002 0.0016772719 0.00031727392
0.00050622196 0.0005294873 0.00047718827 5.0690156e-05 5.3535245e-05 -0.001024363 -0.00043341 -0.00045801778
3.8355316e-05 -0.00026762226 0.00014590827 -8.7588865e-07 -6.825832e-05 -0.00090199825 0.00021067107 0.000350433
2.330187e-06 -3.952019e-05 4.3604077e-06 -5.5443074e-05 -8.2620005e-05 -2.1758706e-06 -8.355184e-05 2.6969599e-06
-2.8007125e-05 -3.3794033e-05 -2.2468195e-05 1.5477436e-06 0.0021742652 0.00556596 0.0012210084 0.0044449973
0.0029906426 0.00031148933 0.0014753557 -0.0007003608 0.0011593743 -0.00041201658 -0.0023114479 -0.001550946
00000000: ec12 e539 65b9 753b 3e52 6cb9 da5e 513b
00000010: 76ef e83a a82d 2639 e8d7 db3a c957 a639
00000020: fbb3 043a 4bcd 0a3a 202f fa39 249c 5438
00000030: 088b 6038 eb43 86ba 4e3b e3b9 1b22 f0b9
00000040: b5df 2038 a74f 8cb9 f4fe 1839 9c1e 6bb5
00000050: e825 8fb8 1474 6cba 96e7 5c39 52ba b739
00000060: 4f60 1c36 7bc2 25b8 9e4f 9236 8c8b 68b8
00000070: 4744 adb8 2c05 12b6 8d38 afb8 6bfd 3436
00000080: d8f0 eab7 11be 0db8 157a bcb7 11bc cf35
00000090: 1e7e 0e3b a862 b63b 3e0a a03a 57a7 913b
000000a0: a8fe 433b 644f a339 b960 c13a 6b98 37ba
000000b0: 25f6 973a ee03 d8b9 a97b 17bb 1d49 cbba

exp_avg_sq f4 [4, 12]
7.683365e-09 4.8999027e-07 1.8786748e-09 3.3752661e-07 1.1403142e-07 9.662525e-10 1.1005779e-07 3.981607e-09
6.9154833e-09 7.66496e-09 7.996612e-09 9.3507334e-11 8.152537e-11 2.7843482e-08 5.131439e-09 5.1496074e-09
2.8259448e-10 1.9547384e-09 7.368405e-10 1.4684112e-13 1.568581e-10 2.216667e-08 1.1643166e-09 3.3495524e-09
1.5789065e-13 5.1810452e-11 5.760899e-13 1.06225855e-10 2.7552613e-10 1.279325e-13 2.9504235e-10 2.4281654e-13
2.8559098e-11 4.325944e-11 1.8667594e-11 6.452833e-14 1.3139304e-07 8.3050077e-07 4.1307498e-08 5.121139e-07
2.7549132e-07 2.5383422e-09 8.608827e-08 1.3439995e-08 3.679365e-08 5.4211493e-09 1.4524245e-07 6.639931e-08
00000000: ccff 0332 e087 0335 ff19 0131 4e35 b534
00000010: 70e1 f433 fdcc 8430 e958 ec33 96ce 8831
00000020: 3c9d ed31 daae 0332 7961 0932 f39f cd2e
00000030: b446 b32e 772c ef32 9d50 b031 6df0 b031
00000040: a35b 9b2f 1f54 0631 8a8a 4a30 1254 252a
00000050: a177 2c2f 0669 be32 c005 a030 f32d 6631
00000060: e2c4 312a 62dd 632e a727 222b d797 e92e
00000070: db78 972f 080a 102a 8533 a22f 8db1 882a
00000080: 5f35 fb2d cd41 3e2e af33 a42d 0d4e 9129
00000090: 0b15 0d34 94ef 5e35 136a 3133 3378 0935
000000a0: 3de7 9334 fd6e 2e31 87df b833 b9e5 6632
000000b0: 0c07 1e33 ef44 ba31 f1f3 1b34 6897 8e33

exp_avg f4 [4]
0.0011735628 0.0020173632 1.3634319e-05 2.9913197e-05
00000000: 3cd2 993a bd35 043b f4be 6437 1aee fa37

exp_avg_sq f4 [4]
3.882475e-08 1.15038915e-07 7.787948e-12 3.0746117e-11
00000000: 44c0 2633 500b f733 cd01 092d 0d39 072e

exp_avg f4 [4, 1]
0.0024230152 0.0012560202 2.2135333e-05 -1.3830374e-05
00000000: 73cb 1e3b 0ba1 a43a 44af b937 0109 68b7

exp_avg_sq f4 [4, 1]
1.6758568e-07 5.332312e-08 2.09743e-11 7.505338e-12
00000000: 9af1 3334 6405 6533 ed7d b82d 0a09 042d

exp_avg f4 [4, 4]
-0.0012005698 0.00441409 0.00013260562 0.00078985275 -7.968193e-05 0.007986659 0.00029473568 0.0034635146
-5.3254107e-06 1.9982144e-05 -1.16421525e-05 1.854688e-05 1.2488528e-05 4.4327444e-05 2.62305e-07 3.74341e-05
00000000: 705c 9dba 12a4 903b 0d0c 0b39 1f0e 4f3a
00000010: e91a a7b8 7ada 023c c186 9a39 22fc 623b
00000020: eeb0 b2b6 549f a737 aa52 43b7 1f95 9b37
00000030: d285 5137 3bec 3938 edd2 8c34 8f02 1d38

exp_avg_sq f4 [4, 4]
3.775557e-08 5.247685e-07 5.0072213e-10 1.585033e-08 6.1996375e-10 1.7599295e-06 2.9549196e-09 3.2275508e-07
9.233297e-13 1.3979678e-11 5.583056e-12 1.2807544e-11 6.1363857e-12 6.717741e-11 7.3707985e-15 4.9547023e-11
00000000: b028 2233 d1dd 0c35 30a3 0930 3f27 8832
00000010: 126a 2a30 b836 ec35 7f0f 4b31 1f47 ad34
00000020: 75f2 812b dfee 752d b36f c42c 0d50 612d
00000030: a6e7 d72c 85b9 932e cfc7 0428 fde8 592e

exp_avg f4 [2, 2]
0.00081912166 0.013853242 0.0026258433 0.043951657
00000000: 53ba 563a b5f8 623c 5716 2c3b a706 343d

exp_avg_sq f4 [2, 2]
2.0886725e-08 5.283774e-06 2.0932242e-07 5.2024563e-05
00000000: 656a b332 464b b136 1cc2 6034 f334 5a38

exp_avg f4 [2]
0.0013541275 0.0042004786
00000000: fb7c b13a 2ba4 893b

exp_avg_sq f4 [2]
5.1898468e-08 4.9600516e-07
00000000: f8e6 5e33 3725 0535

exp_avg f4 [3, 2]
0.009464238 0.009121208 -0.004303608 -0.004263582 -0.020722495 -0.0198258
00000000: e40f 1b3c 1f71 153c 4805 8dbb 85b5 8bbb
00000010: 39c2 a9bc b769 a2bc

exp_avg_sq f4 [3, 2]
2.3888185e-06 2.2690617e-06 5.0361746e-07 5.049941e-07 1.1331363e-05 1.06039e-05
00000000: 974f 2036 2f46 1836 5430 0735 ee8e 0735
00000010: d51b 3e37 67e7 3137

exp_avg f4 [3]
0.003775115 -0.0010015302 -0.009051119
00000000: eb67 773b c745 83ba 254b 14bc

exp_avg_sq f4 [3]
3.995622e-07 2.7348964e-08 2.2876884e-06
00000000: 6983 d634 02ed ea32 3086 1936

exp_avg f4 [2, 2]
-1.8504012e-06 -2.3742805e-06 7.507925e-05 0.00015145763
00000000: 4d5b f8b5 d455 1fb6 de73 9d38 99d0 1e39

exp_avg_sq f4 [2, 2]
1.5729987e-13 2.1456898e-13 2.3766367e-10 7.3435014e-10
00000000: 9a1a 312a 4c95 712a 30a8 822f 4cdb 4930

exp_avg f4 [2]
-1.1248636e-06 3.9989485e-05
00000000: 05fa 96b5 62ba 2738

exp_avg_sq f4 [2]
6.125705e-14 6.643364e-11
00000000: 49f0 8929 d116 922e

exp_avg f4 [8, 2]
-2.1562726e-05 4.5026693e-05 3.7673594e-06 4.2326137e-05 -2.0092217e-05 0.00010691432 6.249591e-07 -3.959954e-05
1.6640513e-05 -4.431906e-05 6.444574e-06 -1.8964933e-05 -1.1214284e-05 1.755788e-05 -3.9562615e-06 -3.0695937e-05
00000000: 9ae1 b4b7 0bdb 3c38 bed2 7c36 5887 3138
00000010: b58b a8b7 3037 e038 ddc2 2735 af17 26b8
00000020: 3b97 8b37 3ae3 39b8 783e d836 e216 9fb7
00000030: fc24 3cb7 4349 9337 07c0 84b6 83bf 00b8

exp_avg_sq f4 [8, 2]
1.4924832e-11 6.879359e-11 5.8475935e-13 5.868386e-11 1.2911579e-11 3.7233e-10 2.1720478e-13 5.060178e-11
9.1994546e-12 6.8339195e-11 1.4084304e-12 1.3248299e-11 4.0991602e-12 1.1626527e-11 7.369416e-13 3.2482683e-11
00000000: bc47 832d 5947 972e 5a98 242b 140c 812e
00000010: 9524 632d cab0 cc2f 048d 742a 8a8c 5e2e
00000020: a9d6 212d 8c47 962e 0e38 c62b 0911 692d
00000030: f439 902c 3989 4c2d 3d6e 4f2b 40dc 0e2e

exp_avg f4 [8]
0.00014506534 -2.4668156e-05 0.00013431655 -1.8635442e-06 -0.00011388466 -4.3388256e-05 7.700166e-05 2.800011e-05
00000000: ae1c 1839 76ee ceb7 53d7 0c39 e41e fab5
00000010: 5cd5 eeb8 c9fb 35b8 f47b a138 c7e1 ea37

exp_avg_sq f4 [8]
6.787349e-10 2.6424718e-11 5.7344934e-10 9.848128e-12 4.312559e-10 6.370457e-11 1.9366247e-10 3.7517548e-11
00000000: b991 3a30 2d6f e82d e9a0 1d30 0740 2d2d
00000010: df15 ed2f 7c16 8c2e 24ef 542f 0101 252e

exp_avg f4 [3]
-0.019259231 -0.00027528452 0.0014730367
00000000: 89c5 9dbc 1054 90b9 e912 c13a

exp_avg_sq f4 [3]
1.0440961e-05 2.411524e-09 7.171119e-08
00000000: 962b 2f37 fbb7 2531 a5ff 9933

exp_avg f4 [3, 1]
0.029077286 5.5306846e-05 0.002554284
00000000: 7d33 ee3c 46f9 6738 c665 273b

exp_avg_sq f4 [3, 1]
2.2909579e-05 1.1070085e-10 1.90684e-07
00000000: f22d c037 0a6f f32e d2be 4c34

exp_avg f4 [3, 3]
-0.03283214 0.026992839 -0.019162085 0.00034040937 -0.0006509125 -0.00020714123 -0.00042194608 0.00097220694
-0.0010931294
00000000: fe7a 06bd 1620 dd3c cef9 9cbc f978 b239
00000010: 00a2 2aba 0d34 59b9 a538 ddb9 b4db 7e3a
00000020: 5647 8fba

exp_avg_sq f4 [3, 3]
2.8594251e-05 1.9570127e-05 9.849579e-06 3.2782097e-09 1.216029e-08 1.2306297e-09 7.4600335e-09 2.7831572e-08
3.4786833e-08
00000000: b0dd ef37 872a a437 9f3f 2537 e046 6131
00000010: 85e9 5032 ef22 a930 9329 0032 4612 ef32
00000020: 8768 1533

exp_avg f4 [8]
-0.00021157718 0.00010187605 -0.0002697214 -0.0002365498 0.000115178926 0.00018444283 0.000112902424 0.00020344817
00000000: d1da 5db9 4aa6 d538 6569 8db9 5a0a 78b9
00000010: 378c f138 ff66 4139 07c6 ec38 b454 5539

exp_avg_sq f4 [8]
1.5628416e-09 3.5197265e-10 2.2880728e-09 1.7900802e-09 4.1887857e-10 1.0936457e-09 4.0640694e-10 1.3312978e-09
00000000: 9acb d630 bf7f c12f 343c 1d31 d906 f630
00000010: eb47 e62f 3d4f 9630 b16c df2f e1f8 b630

exp_avg f4 [8, 1]
-4.5784895e-05 -2.1044563e-05 0.00012202789 0.00011253048 -7.425555e-05 5.1995034e-05 -2.9276198e-05 2.1160813e-05
00000000: 2809 40b8 db88 b0b7 39e9 ff38 57fe eb38
00000010: a5b9 9bb8 3e15 5a38 2896 f5b7 8082 b137

exp_avg_sq f4 [8, 1]
8.1996084e-11 1.4959438e-11 4.996344e-10 4.115303e-10 1.792393e-10 9.128563e-11 2.640554e-11 1.8885312e-11
00000000: b14f b42e a995 832d a556 0930 be3d e22f
00000010: 6113 452f 3ebd c82e fd43 e82d f11d a62d
