tests/output/multimodal-jets/a4e55223e6f34516af890204cef75ebf/checkpoints/best-epoch=04-val_loss_discrete=2.0268.ckpt (torch, 80890 bytes, 160 tensors)

embedder.embedding_continuous.embedding.weight f4 [4, 3]
-0.46764335 0.46907458 0.14044333 -0.08383516 -0.29662913 -0.27075627 0.50375426 0.3471267
-0.05523786 0.26346546 -0.31791127 -0.46453625
00000000: f36e efbe 8b2a f03e 60d0 0f3e c5b1 abbd
00000010: c6df 97be 91a0 8abe 0af6 003f 97ba b13e
00000020: 1841 62bd f2e4 863e 44c5 a2be b2d7 edbe

embedder.embedding_continuous.embedding.bias f4 [4]
0.18962042 -0.13443473 0.45490262 -0.45254597
00000000: db2b 423e 42a9 09be ffe8 e83e 1bb4 e7be

embedder.embedding_discrete.embedding.weight f4 [8, 4]
-0.81670654 -0.2886553 -1.196626 -0.5547942 -0.08671644 1.5630273 1.3394029 1.3176745
-0.53933734 -2.0880113 0.69896895 0.9235541 -2.0612936 -1.8183718 -0.92412627 1.5799699
-0.011323354 -0.37007663 -0.50099856 -0.950394 0.37931445 -0.124738656 1.5187325 -0.29577902
-0.3938528 -0.7749822 -0.8023506 -0.7870306 -0.45331624 -0.1960487 -0.5026683 0.78768146
00000000: ae13 51bf a1ca 93be 0a2b 99bf fe06 0ebf
00000010: 6498 b1bd 4711 c83f 8e71 ab3f 8fa9 a83f
00000020: 0312 0abf faa1 05c0 a1ef 323f 0b6e 6c3f
00000030: 3cec 03c0 68c0 e8bf 8a93 6cbf 743c ca3f
00000040: 9785 39bc af7a bdbe 7141 00bf 054d 73bf
00000050: 8135 c23e fb76 ffbd d465 c23f 5970 97be
00000060: 13a7 c9be 3c65 46bf d966 4dbf d67a 49bf
00000070: 1119 e8be fec0 48be dfae 00bf 7ea5 493f

encoder.multimode_epic.epic_proj.local_0.bias f4 [4]
-0.22104318 0.022911329 -0.23901753 0.19604681
00000000: 2559 62be 8ab0 bb3c 03c1 74be 7fc0 483e

encoder.multimode_epic.epic_proj.local_0.weight_g f4 [4, 1]
0.6850055 0.6200983 0.6087498 0.5674139
00000000: 855c 2f3f c3be 1e3f 07d7 1b3f 0a42 113f

encoder.multimode_epic.epic_proj.local_0.weight_v f4 [4, 12]
0.018728003 -0.2661051 0.25637895 -0.0101194 0.28703263 0.056243055 -0.14782044 0.18451346
-0.058107 0.23386754 0.2575555 -0.09802568 -0.28754574 -0.046375822 -0.11748208 -0.259931
-0.14794163 0.1856405 -0.050060965 0.15356922 0.18041465 -0.20943803 0.282253 -0.2150439
0.12453967 0.19022983 0.20557441 0.007385135 0.22931615 0.21215555 -0.17508584 -0.08690155
0.060165096 -0.13303196 -0.14055541 0.28666702 0.13401054 0.007938976 -0.102565445 -0.20865713
-0.047651827 0.1824657 -0.052232407 0.3040443 -0.14227654 -0.18457432 0.2454461 0.035844933
00000000: 786b 993c ed3e 88be 1a44 833e d7cb 25bc
00000010: f1f5 923e 1e5f 663d 3e5e 17be 19f1 3c3e
00000020: 9b01 6ebd f97a 6f3e 51de 833e b0c1 c8bd
00000030: 3239 93be 93f4 3dbd 729a f0bd ad15 85be
00000040: 037e 17be 8b18 3e3e ba0c 4dbd 4041 1d3e
00000050: 9ebe 383e ec76 56be 7783 903e 7834 5cbe
00000060: a80e ff3d 9ccb 423e 1982 523e 01ff f13b
00000070: dad1 6a3e 4e3f 593e b449 33be 71f9 b1bd
00000080: ad6f 763d 8839 08be c2ed 0fbe 05c6 923e
00000090: 0f3a 093e 7b12 023c d50d d2bd 37aa 55be
000000a0: 902e 43bd 4ad8 3a3e a6f1 55bd b2ab 9b3e
000000b0: f1b0 11be 0d01 3dbe 3956 7b3e 23d2 123d

encoder.multimode_epic.epic_proj.global_0.bias f4 [4]
-0.0036890337 0.19095255 -0.18492018 0.11331193
00000000: b7c3 71bb 1189 433e b75b 3dbe 1610 e83d

encoder.multimode_epic.epic_proj.global_0.weight_g f4 [4, 1]
0.5599834 0.5563657 0.5239362 0.6388186
00000000: 125b 0f3f fc6d 0e3f af20 063f 9e89 233f

encoder.multimode_epic.epic_proj.global_0.weight_v f4 [4, 12]
0.035380885 0.27635688 0.07293756 0.07658333 -0.24359223 0.12057772 -0.12888724 -0.043183
-0.19165786 -0.13605402 -0.059589967 -0.21210517 0.017062511 0.14239387 0.17701538 -0.14015588
-0.071768 -0.2797717 0.20992889 0.048644595 -0.06732091 -0.1701115 -0.10380693 0.20305184
0.031423375 -0.10219106 -0.065521695 -0.27490807 -0.07899355 -0.12707265 0.1252862 -0.24277148
0.027041176 0.25839934 -0.23139161 -0.019736558 -0.24630848 -0.1552206 -0.21062517 -0.24696542
-0.14482717 0.0025686305 0.23233299 -0.24997687 -0.04535305 -0.122322604 -0.07200755 0.056766815
00000000: 8ceb 103d a67e 8d3e 4a60 953d b9d7 9c3d
00000010: 3e70 79be 74f1 f63d 04fb 03be a8e0 30bd
00000020: f541 44be bf51 0bbe 9c14 74bd 1932 59be
00000030: aec6 8b3c b3cf 113e 8543 353e 0685 0fbe
00000040: 1afb 92bd 3c3e 8fbe 99f7 563e 8e3f 473d
00000050: 8cdf 89bd b631 2ebe ba98 d4bd d2ec 4f3e
00000060: ccb5 003d 8c49 d1bd 3d30 86bd c0c0 8cbe
00000070: 5fc7 a1bd 551f 02be 074b 003e 1699 78be
00000080: 7585 dd3c eb4c 843e ecf1 6cbe 90ae a1bc
00000090: 4a38 7cbe 26f2 1ebe 20ae 57be 81e4 7cbe
000000a0: 934d 14be 7856 283b b3e8 6d3e f0f9 7fbe
000000b0: 1fc4 39bd 4684 fabd b278 93bd 5284 683d

encoder.multimode_epic.epic_proj.global_1.bias f4 [4]
0.05306594 -0.10696971 0.10962787 0.20298196
00000000: ac5b 593d ef12 dbbd 9484 e03d 81da 4f3e

encoder.multimode_epic.epic_proj.global_1.weight_g f4 [4, 1]
0.5315061 0.46173027 0.50195956 0.34968427
00000000: c910 083f e967 ec3e 6c80 003f d109 b33e

encoder.multimode_epic.epic_proj.global_1.weight_v f4 [4, 4]
0.045342177 0.4510765 0.0586249 0.24744631 0.14188524 -0.14201058 0.108451664 0.38390815
0.12641363 0.12653601 -0.04968928 0.4891415 0.21426754 -0.25984472 -0.059061438 -0.019714348
00000000: b8b8 393d 80f3 e63e aa20 703d 9162 7d3e
00000010: 5d4a 113e 396b 11be e81b de3d 9c8f c43e
00000020: 9372 013e a892 013e fd86 4bbd c170 fa3e
00000030: f368 5b3e 5e0a 85be 68ea 71bd fc7f a1bc

encoder.multimode_epic.epic_proj.global_2.bias f4 [4]
-0.011860432 -0.0016701524 0.09711802 -0.38584352
00000000: 4252 42bc 04e9 daba d0e5 c63d 488d c5be

encoder.multimode_epic.epic_proj.global_2.weight_g f4 [4, 1]
0.5160158 0.36476123 0.58003414 0.45647913
00000000: 9d19 043f fcc1 ba3e 1e7d 143f a2b7 e93e

encoder.multimode_epic.epic_proj.global_2.weight_v f4 [4, 4]
0.074496195 0.21356647 -0.39472815 0.22785966 0.07161278 -0.18637045 0.045558322 -0.28728116
-0.1523238 -0.083347015 0.29011333 -0.45902482 0.07728591 -0.42455494 0.063161954 0.16923924
00000000: 7691 983d 2bb1 5a3e cf19 cabe 0b54 693e
00000010: b9a9 923d e5d7 3ebe 5d9b 3a3d 8416 93be
00000020: c5fa 1bbe d7b1 aabd bc89 943e 4d05 ebbe
00000030: 1348 9e3d 445f d9be 0e5b 813d 0d4d 2d3e

encoder.multimode_epic.epic_layers.0.fc_global1.bias f4 [4]
-0.120782636 -0.096784785 -0.17350991 -0.19240762
00000000: e35c f7bd 1a37 c6bd 95ac 31be 8106 45be

encoder.multimode_epic.epic_layers.0.fc_global1.weight_g f4 [4, 1]
0.5230128 0.50743043 0.7000154 0.5523153
00000000: 2be4 053f f6e6 013f 3634 333f 8964 0d3f

encoder.multimode_epic.epic_layers.0.fc_global1.weight_v f4 [4, 16]
-0.088646404 0.08584158 0.13271585 0.2186104 0.11123577 0.18963622 -0.108495325 0.21492061
-0.0014119446 -0.17963728 0.0029842705 -0.0019680753 0.07840675 -0.04523911 0.02017687 0.15077746
0.12811251 -0.04846027 -0.1522185 -0.0007771533 -0.22820738 -0.008956884 -0.037554916 -0.13464274
-0.0044507664 -0.10018232 0.12941255 -0.18470658 -0.16287619 0.1168059 -0.25028887 -0.16928636
0.1264444 -0.24636234 0.2372701 0.20500626 0.13393614 0.035588127 0.16684607 0.2307574
0.23296998 0.06480424 0.22747767 0.18959853 0.2060892 -0.14330569 -0.20889707 0.15390706
0.23386541 -0.120420665 0.20760886 -0.13582718 0.031033983 0.20646767 -0.0109657515 0.10215524
-0.21558997 0.0806652 0.18702653 0.15278363 -0.109139405 0.010038488 0.015068671 0.13038908
00000000: 3f8c b5bd b6cd af3d aae6 073e 68db 5f3e
00000010: 94cf e33d ff2f 423e cc32 debd 2614 5c3e
00000020: 0011 b9ba d6f2 37be c093 433b d3fa 00bb
00000030: b893 a03d a54c 39bd f749 a53c 6865 1a3e
00000040: ed2f 033e 477e 46bd 2bdf 1bbe e0b9 4bba
00000050: 32af 69be e5bf 12bc 2fd3 19bd c9df 09be
00000060: bcd7 91bb 632c cdbd b984 043e b923 3dbe
00000070: 04c9 26be ef37 ef3d dd25 80be 6759 2dbe
00000080: a47a 013e 6946 7cbe eff6 723e 29ed 513e
00000090: 8e26 093e dbc4 113d b2d9 2a3e ab4b 6c3e
000000a0: af8f 6e3e 16b8 843d e8ef 683e 1e26 423e
000000b0: 0c09 533e babe 12be 1de9 55be d099 1d3e
000000c0: 6a7a 6f3e 1c9f f6bd 6b97 543e 4816 0bbe
000000d0: fb3a fe3c 436c 533e b2a9 33bc c436 d13d
000000e0: 9ec3 5cbe cc33 a53d e283 3f3e 5073 1c3e
000000f0: 7b84 dfbd 7878 243c 96e2 763c b784 053e

encoder.multimode_epic.epic_layers.0.fc_global2.bias f4 [4]
-0.36977246 0.0076788603 -0.45769492 -0.082529634
00000000: d152 bdbe f39e fb3b fd56 eabe 4c05 a9bd

encoder.multimode_epic.epic_layers.0.fc_global2.weight_g f4 [4, 1]
0.62111175 0.4935506 0.71436405 0.45697418
00000000: 2e01 1f3f aab2 fc3e 90e0 363f 85f8 e93e

encoder.multimode_epic.epic_layers.0.fc_global2.weight_v f4 [4, 4]
-0.39270762 0.22142746 -0.22760989 -0.38216248 -0.05733223 -0.22256485 0.42938983 -0.13236094
-0.28788248 -0.4223519 -0.23011103 0.40666822 -0.34542727 0.06526268 0.17952195 0.24436998
00000000: f910 c9be e1bd 623e 9112 69be cdaa c3be
00000010: 33d5 6abd 0ae8 63be fcd8 db3e a089 07be
00000020: 5565 93be 823e d8be 3aa2 6bbe d136 d03e
00000030: d8db b0be 71a8 853d 9ad4 373e 203c 7a3e

encoder.multimode_epic.epic_layers.0.fc_local1.bias f4 [4]
-0.048341986 0.057275992 0.017488282 -0.0018238329
00000000: 3f02 46bd 3b9a 6a3d 9643 8f3c ad0d efba

encoder.multimode_epic.epic_layers.0.fc_local1.weight_g f4 [4, 1]
0.6330514 0.5563827 0.49342814 0.6860855
00000000: a80f 223f 196f 0e3f 9da2 fc3e 4da3 2f3f

encoder.multimode_epic.epic_layers.0.fc_local1.weight_v f4 [4, 12]
0.047884755 -0.09930805 0.27201527 0.07642613 -0.25314558 -0.162873 -0.005862471 0.05916982
0.27735963 0.15300551 -0.13979946 -0.25104517 0.2248533 -0.13355806 -0.1403847 -0.20664375
0.017096601 -0.14257385 0.09447004 0.21784252 0.20943667 0.021852132 -0.110145375 -0.09910301
0.020623555 -0.1346852 -0.26714006 0.022664567 0.013318751 0.018028436 -0.03852045 0.21342598
0.09194694 -0.25688025 0.00827706 0.06905205 0.025395168 -0.17072962 -0.16798572 -0.023831815
-0.08880781 -0.10047057 -0.22254735 0.2650847 -0.27188602 -0.26684248 -0.26709595 -0.08302754
00000000: ce22 443d 0562 cbbd 9645 8b3e 4e85 9c3d
00000010: 4c9c 81be 2ec8 26be f919 c0bb 0e5c 723d
00000020: 1502 8e3e 7aad 1c3e 9727 0fbe fe88 80be
00000030: f23f 663e 72c3 08be 02c1 0fbe 6b9a 53be
00000040: 2c0e 8c3c e1fe 11be 8279 c13d 1c12 5f3e
00000050: 9176 563e 3e03 b33c e693 e1bd 85f6 cabd
00000060: bbf2 a83c ebea 09be 95c6 88be 0bab b93c
00000070: e436 5a3c 5fb0 933c 9fc7 1dbd 578c 5a3e
00000080: ad4e bc3d cf85 83be 829c 073c 296b 8d3d
00000090: 8709 d03c bfd3 2ebe 7304 2cbe f03a c3bc
000000a0: dee0 b5bd 84c3 cdbd 74e3 63be 2fb9 873e
000000b0: a534 8bbe 949f 88be cdc0 88be 580a aabd

encoder.multimode_epic.epic_layers.0.fc_local2.bias f4 [4]
-0.057935208 -0.20689876 -0.424596 -0.4500724
00000000: 784d 6dbd 45dd 53be a664 d9be e46f e6be

encoder.multimode_epic.epic_layers.0.fc_local2.weight_g f4 [4, 1]
0.70071197 0.36965507 0.7093022 0.54484016
00000000: dc61 333f 6e43 bd3e d494 353f a57a 0b3f

encoder.multimode_epic.epic_layers.0.fc_local2.weight_v f4 [4, 4]
0.37409222 -0.362027 -0.06779689 0.48542222 -0.10579799 0.24694605 0.09050098 0.19674285
-0.43988672 0.3688317 -0.35008228 0.26363423 -0.32266313 -0.0617157 0.42162323 0.024348874
00000000: 0489 bf3e 9a5b b9be 19d9 8abd 4389 f83e
00000010: 9eac d8bd 6ddf 7c3e 9458 b93d f576 493e
00000020: d538 e1be 82d7 bc3e fc3d b3be 11fb 863e
00000030: 1a34 a5be 9ac9 7cbd 00df d73e 4a77 c73c

encoder.multimode_epic.epic_layers.1.fc_global1.bias f4 [4]
0.10889463 -0.13552995 -0.027648661 -0.064127
00000000: 2604 df3d 5dc8 0abe 727f e2bc 0455 83bd

encoder.multimode_epic.epic_layers.1.fc_global1.weight_g f4 [4, 1]
0.60037905 0.56098163 0.5572773 0.64675325
00000000: 71b2 193f 7e9c 0f3f baa9 0e3f 9f91 253f

encoder.multimode_epic.epic_layers.1.fc_global1.weight_v f4 [4, 16]
-0.011408831 0.020057054 0.070342 0.20478095 -0.24262594 0.08691901 0.07634231 -0.034128968
-0.01709698 -0.161431 -0.22259752 0.22362046 -0.11755703 -0.18212825 -0.1963377 -0.036666334
0.16580056 -0.23284711 0.023826329 0.21583037 0.22717734 0.17781058 -0.07980659 -0.14139752
0.03154952 0.12894702 0.055005647 0.23692322 -0.034200437 0.057629555 0.08855893 0.17268172
0.24909557 -0.10713633 -0.119517766 0.24982084 0.08321339 0.020157328 -0.04371415 0.22364013
-0.026402948 0.041578762 -0.21331488 0.22470143 -0.14611907 0.092531614 0.123470575 -0.04883752
0.060642656 -0.19364141 0.12240272 0.15006232 -0.23537101 0.08466795 0.22569416 -0.2238345
-0.106139116 0.09576872 -0.0030191045 -0.1682097 -0.017879918 -0.22766876 -0.029888598 0.09647384
00000000: 1bec 3abc b14e a43c 770f 903d 19b2 513e
00000010: ef72 78be 9802 b23d 5b59 9c3d d1ca 0bbd
00000020: f70e 8cbc 2b4e 25be 9bf0 63be c3fc 643e
00000030: bdc1 f0bd d47f 3abe c00c 49be 702f 16bd
00000040: 9fc7 293e 796f 6ebe 6f2f c33c a302 5d3e
00000050: 2da1 683e fa13 363e a371 a3bd 83ca 10be
00000060: 123a 013d b00a 043e 9a4d 613d 009c 723e
00000070: c215 0cbd f80c 6c3d 625e b53d 7ad3 303e
00000080: e912 7f3e 4b6a dbbd bbc5 f4bd 09d1 7f3e
00000090: c86b aa3d fb20 a53c 9c0d 33bd eb01 653e
000000a0: ff4a d8bc 7e4e 2a3d 376f 5abe 2218 663e
000000b0: 3da0 15be 3781 bd3d 24de fc3d da09 48bd
000000c0: 6f64 783d ef49 46be 47ae fa3d f0a9 193e
000000d0: 1905 71be 6466 ad3d 5f1c 673e df34 65be
000000e0: 775f d9bd 6422 c43d 2bdc 45bb 2a3f 2cbe
000000f0: e878 92bc 0022 69be efd8 f4bc 1494 c53d

encoder.multimode_epic.epic_layers.1.fc_global2.bias f4 [4]
-0.17710698 -0.009164923 -0.46925852 0.2579582
00000000: 885b 35be 7928 16bc a742 f0be 1913 843e

encoder.multimode_epic.epic_layers.1.fc_global2.weight_g f4 [4, 1]
0.41761073 0.57494086 0.50328505 0.6710958
00000000: 13d1 d53e 532f 133f 4ad7 003f efcc 2b3f

encoder.multimode_epic.epic_layers.1.fc_global2.weight_v f4 [4, 4]
-0.21889767 -0.17142814 0.27978516 -0.00811604 0.13930877 -0.16792612 -0.42297444 0.35832033
-0.43664262 0.017168557 0.277394 0.06220779 0.05623077 0.38214394 -0.4750113 -0.31535625
00000000: b626 60be dc8a 2fbe 0040 8f3e 24f9 04bc
00000010: f5a6 0e3e d3f4 2bbe 1b90 d8be c375 b73e
00000020: 9f8f dfbe 13a5 8c3c 9606 8e3e 98cd 7e3d
00000030: 3c52 663d 5fa8 c33e ae34 f3be 6076 a1be

encoder.multimode_epic.epic_layers.1.fc_local1.bias f4 [4]
-0.019771837 -0.08549228 0.12036287 0.21569872
00000000: 8cf8 a1bc 9416 afbd cf80 f63d 20e0 5c3e

encoder.multimode_epic.epic_layers.1.fc_local1.weight_g f4 [4, 1]
0.5305763 0.65308565 0.48523742 0.41489026
00000000: d9d3 073f 9f30 273f 0a71 f83e 7f6c d43e

encoder.multimode_epic.epic_layers.1.fc_local1.weight_v f4 [4, 12]
-0.26828733 0.012251054 0.09803228 -0.1950641 0.08283195 -0.10460869 0.16875316 -0.20066705
0.15798719 0.25186974 0.022803906 -0.03511275 0.0010494727 0.30200452 -0.1601674 0.29895177
0.20034815 -0.08915922 0.24042283 -0.0034939419 0.06824771 -0.2194933 0.122426786 0.11883914
-0.13254055 -0.16251366 -0.20820384 0.06994206 0.10085452 0.23249853 0.01762569 -0.10440959
-0.05441761 -0.21787792 0.17164324 -0.15487269 -0.19222715 0.1816539 -0.1195492 0.06604999
-0.06524033 -0.039702673 0.063990965 0.0647044 -0.026735723 0.14287303 0.2511937 0.1365798
00000000: f55c 89be a5b8 483c 26c5 c83d e2be 47be
00000010: cca3 a93d 153d d6bd a1cd 2c3e aa7b 4dbe
00000020: 65c7 213e 12f5 803e 42cf ba3c 63d2 0fbd
00000030: 768e 893a 56a0 9a3e ec02 24be 3510 993e
00000040: 1128 4d3e 1c99 b6bd 6731 763e 9efa 64bb
00000050: 75c5 8b3d dac2 60be e5ba fa3d ef61 f33d
00000060: b6b8 07be fb69 26be 6333 55be c83d 8f3d
00000070: d18c ce3d 1814 6e3e c063 903c b2d4 d5bd
00000080: 00e5 5ebd 641b 5fbe 3fc3 2f3e f296 1ebe
00000090: 32d7 44be 7b03 3a3e 36d6 f4bd 3845 873d
000000a0: b99c 85bd 459f 22bd b20d 833d be83 843d
000000b0: e004 dbbc 4f4d 123e 769c 803e 93db 0b3e

encoder.multimode_epic.epic_layers.1.fc_local2.bias f4 [4]
-0.39261788 0.20649336 0.4357921 -0.29882598
00000000: 3605 c9be ff72 533e 2420 df3e b8ff 98be

encoder.multimode_epic.epic_layers.1.fc_local2.weight_g f4 [4, 1]
0.54740685 0.61966753 0.79053664 0.6744542
00000000: db22 0c3f 88a2 1e3f 9c60 4a3f 08a9 2c3f

encoder.multimode_epic.epic_layers.1.fc_local2.weight_v f4 [4, 4]
0.40559393 0.023316033 -0.04205662 0.38758382 0.45040467 -0.17194712 -0.15691145 0.3777772
0.48849386 0.44452775 0.46781412 -0.077765845 -0.4365784 -0.25656438 -0.10138739 0.42159006
00000000: 02aa cf3e 4401 bf3c 9043 2cbd 6371 c63e
00000010: 719b e63e e812 30be 65ad 20be 036c c13e
00000020: de1b fa3e 2499 e33e 5585 ef3e b343 9fbd
00000030: 3487 dfbe 685c 83be 31a4 cfbd a7da d73e

encoder.multimode_epic.continuous_head.0.weight f4 [2, 2]
-0.6546976 0.370096 0.4748777 0.34436002
00000000: 439a 27bf 397d bd3e 2b23 f33e f54f b03e

encoder.multimode_epic.continuous_head.0.bias f4 [2]
-0.15873715 -0.67910224
00000000: fe8b 22be a5d9 2dbf

encoder.multimode_epic.continuous_head.2.weight f4 [3, 2]
0.61348516 0.32941198 -0.33045274 -0.68419576 0.15538688 -0.37302876
00000000: 5d0d 1d3f b0a8 a83e 1a31 a9be 7427 2fbf
00000010: bd1d 1f3e a0fd bebe

encoder.multimode_epic.continuous_head.2.bias f4 [3]
0.33538327 0.44285673 0.115800515
00000000: 5bb7 ab3e 1ebe e23e d228 ed3d

encoder.multimode_epic.discrete_head.0.weight f4 [2, 2]
0.08985611 -0.39944246 0.33336636 0.45424613
00000000: 7b06 b83d b983 ccbe ffae aa3e f392 e83e

encoder.multimode_epic.discrete_head.0.bias f4 [2]
-0.5072434 -0.16454218
00000000: b4da 01bf bf7d 28be

encoder.multimode_epic.discrete_head.2.weight f4 [8, 2]
0.11223016 -0.34729227 0.459189 0.3347889 0.10565922 0.101445705 0.52817774 -0.33189943
-0.20159529 -0.5411506 0.18870485 -0.3635099 0.03874257 0.035143144 -0.23558813 -0.63592243
00000000: edd8 e53d 4bd0 b1be d21a eb3e 7369 ab3e
00000010: dc63 d83d c4c2 cf3d a836 073f b9ee a9be
00000020: ff6e 4ebe d988 0abf d83b 413e f81d babe
00000030: 87b0 1e3d 42f2 0f3d 043e 71be d0cb 22bf

encoder.multimode_epic.discrete_head.2.bias f4 [8]
0.02902618 0.4687254 0.05058405 0.4592715 -0.036762558 -0.54743534 -0.30500928 -0.5208084
00000000: 50c8 ed3c c7fc ef3e 3931 4f3d a225 eb3e
00000010: 5694 16bd b924 0cbf 2d2a 9cbe b353 05bf

encoder.multimode_epic.continuous_output.bias f4 [3]
0.22329028 -0.42730227 0.45300886
00000000: 35a6 643e 5dc7 dabe c7f0 e73e

encoder.multimode_epic.continuous_output.weight_g f4 [3, 1]
0.54346335 0.7106535 0.74080634
00000000: 6a20 0b3f 63ed 353f 7ca5 3d3f

encoder.multimode_epic.continuous_output.weight_v f4 [3, 3]
-0.21022804 0.07637787 0.5193679 0.4571471 0.08488753 0.55327 -0.23655738 0.47297463
0.5376059
00000000: 0546 57be 006c 9c3d 4bf5 043f 2f0f ea3e
00000010: 83d9 ad3d 1aa3 0d3f 193c 72be bb29 f23e
00000020: 8aa0 093f

encoder.multimode_epic.discrete_output.bias f4 [8]
-0.02714013 0.26879844 -0.095309086 0.178103 0.017147122 -0.08864001 -0.28374523 0.110507935
00000000: fa54 debc f39f 893e 6931 c3bd a260 363e
00000010: 1f78 8c3c e588 b5bd 0e47 91be fc51 e23d

encoder.multimode_epic.discrete_output.weight_g f4 [8, 1]
0.75898796 0.626965 0.6279034 0.5489464 0.6278438 0.5502986 0.57374305 0.39888316
00000000: 094d 423f c780 203f 47be 203f c087 0c3f
00000010: 5fba 203f 5ee0 0c3f d3e0 123f 6a3a cc3e

encoder.multimode_epic.discrete_output.weight_v f4 [8, 8]
-0.25121608 0.34323236 0.11562316 -0.28995734 0.25922534 0.1504616 -0.28379458 -0.3265912
-0.13547628 0.19425137 -0.07820531 -0.32413113 0.3447819 0.21679142 -0.22552085 0.0030178705
-0.18776187 0.18672973 -0.13255458 0.28498334 0.14477566 0.2550766 -0.32435364 0.23941696
0.18430266 -0.33198783 -0.23226464 -0.13936128 -0.065974556 -0.049574375 0.2810948 -0.086347796
0.3144939 -0.28297913 0.0071744616 0.16264552 0.2250061 0.22752348 -0.20805801 0.15012963
0.1866683 0.14232284 -0.08023679 0.19508196 -0.1943218 0.17083456 0.31730586 -0.22408253
0.09594209 0.09465188 0.28766593 -0.30463293 -0.05754824 0.07118764 -0.20188895 0.26124242
0.1284464 -0.104903914 0.23141903 -0.1047717 -0.19290537 -0.12353458 0.12410877 0.06799609
00000000: 659f 80be 27bc af3e d6cb ec3d 4a75 94be
00000010: 2fb9 843e 9b12 1a3e 864d 91be f636 a7be
00000020: 4bba 0abe d5e9 463e 1b2a a0bd 84f4 a5be
00000030: 4187 b03e 92fe 5d3e f0ee 66be 77c7 453b
00000040: a644 40be 1436 3f3e 63bc 07be 56e9 913e
00000050: 1240 143e 6699 823e ae11 a6be b829 753e
00000060: d6b9 3c3e 4ffa a9be c8d6 6dbe b9b4 0ebe
00000070: ab1d 87bd 800e 4bbd a8eb 8f3e 1dd7 b0bd
00000080: 5805 a13e a4e2 90be bf17 eb3b 8c8c 263e
00000090: 0068 663e eafb 683e 290d 55be 95bb 193e
000000a0: fa25 3f3e 14bd 113e 3053 a4bd 91c3 473e
000000b0: 4bfc 46be 41ef 2e3e ea75 a23e e475 65be
000000c0: 497d c43d d8d8 c13d f348 933e d9f8 9bbe
000000d0: b4b7 6bbd d3ca 913d fabb 4ebe 91c1 853e
000000e0: 7487 033e ddd7 d6bd 1cf9 6c3e 8c92 d6bd
000000f0: fc88 45be b3ff fcbd bd2c fe3d 8941 8b3d

loss_multimode.loss_weights f4 [2]
0.017401062 0.015798952
00000000: ac8c 8e3c ce6c 813c

exp_avg f4 [4, 3]
-0.051655363 4.5871035e-05 6.631743e-05 0.060263135 -6.5535736e-05 -8.103675e-05 -0.014993313 1.9266514e-05
2.0791844e-05 0.05267496 -6.050393e-05 -7.187827e-05
00000000: 9394 53bd a665 4038 e613 8b38 7ad6 763d
00000010: 3b70 89b8 46f2 a9b8 83a6 75bc 869e a137
00000020: 256a ae37 b3c1 573d 9ac5 7db8 5abd 96b8

exp_avg_sq f4 [4, 3]
8.413835e-05 2.54014e-10 4.49552e-10 0.00010574743 3.5448114e-10 6.209494e-10 5.8573287e-06 2.3897514e-11
3.7336436e-11 8.8659996e-05 2.8008712e-10 5.434265e-10
00000000: 6f73 b038 4ba5 8b2f d224 f72f b8c4 dd38
00000010: c9e0 c22f 6eaf 2a30 128a c436 6b34 d22d
00000020: 1735 242e f9ee b938 c2fa 992f 3e60 1530

exp_avg f4 [4]
-0.0010648294 0.0012578153 -0.00031017748 0.0011533002
00000000: bf91 8bba 47dd a43a 519f a2b9 552a 973a

exp_avg_sq f4 [4]
4.3317872e-08 5.954209e-08 3.2536855e-09 6.007475e-08
00000000: 810c 3a33 38bb 7f33 7197 5f31 7102 8133

exp_avg f4 [4]
3.2071042e-05 0.0072433692 -4.621951e-05 0.0001620545
00000000: 0584 0638 c959 ed3b d2db 41b8 2ced 2939

exp_avg_sq f4 [4]
4.672921e-11 1.7739027e-06 1.1955249e-10 1.8511965e-08
00000000: 6a84 4d2e d516 ee35 0973 032f 3e04 9f32

exp_avg f4 [4, 1]
-0.00033585544 0.03817518 -1.854537e-05 -0.0004285221
00000000: c115 b0b9 945d 1c3d e191 9bb7 43ab e0b9

exp_avg_sq f4 [4, 1]
2.8220448e-09 5.126163e-05 3.582551e-11 8.08074e-09
00000000: f0ed 4131 c201 5738 f08f 1d2e 78d3 0a32

exp_avg f4 [4, 12]
3.860266e-05 -0.00011339761 0.00016034291 -7.813529e-06 -0.0005020531 -8.127727e-05 0.0006240263 0.00046461713
-4.29772e-05 0.00011542012 0.00014276325 -4.4528577e-05 0.02094472 0.009106393 0.010006539 0.014040282
-0.15162252 -0.037194606 0.1750256 0.08003896 -0.011627841 0.007104545 -0.01569458 0.01316898
-3.2085532e-05 -4.114267e-05 -1.895381e-05 4.615711e-08 1.7526154e-05 1.7093953e-05 -4.570182e-05 9.863475e-06
1.9276373e-05 -2.9358516e-05 3.597843e-05 -1.8673292e-06 0.00022563219 0.0001664178 1.3830468e-05 -0.00015775504
0.0028231556 0.00060990744 -0.0029908596 -0.0014442725 -0.00032239774 -0.00045779525 0.00025051885 0.00014415685
00000000: 4ae9 2138 e1cf edb8 b921 2839 da16 03b7
00000010: 379c 03ba 6773 aab8 b295 233a db97 f339
00000020: 6b42 34b8 b50d f238 b8b2 1539 32c4 3ab8
00000030: 4394 ab3c fb32 153c 77f2 233c 3609 663c
00000040: ef42 1bbe 5f59 18bd e939 333e 77eb a33d
00000050: b382 3ebc 3ecd e83b eb91 80bc b5c2 573c
00000060: 9493 06b8 9b90 2cb8 fffe 9eb7 473e 4633
00000070: 2105 9337 fc64 8f37 f5af 3fb8 4d7b 2537
00000080: b2b3 a137 ef46 f6b7 8ce7 1638 f1a0 fab5
00000090: ae97 6c39 7080 2e39 6809 6837 0c6b 25b9
000000a0: b104 393b 32e2 1f3a 4c02 44bb be4d bdba
000000b0: 7e07 a9b9 3d04 f0b9 1258 8339 cf28 1739

exp_avg_sq f4 [4, 12]
5.52409e-11 2.9440106e-10 6.71779e-10 2.1081205e-12 6.739969e-09 1.6689425e-10 1.0159046e-08 5.5695697e-09
5.401542e-11 3.274306e-10 5.210778e-10 4.7515502e-11 1.5667294e-05 2.8070758e-06 3.5478745e-06 7.171421e-06
0.00068824727 4.0932995e-05 0.00090889365 0.00019109459 5.0604376e-06 1.7931e-06 9.103344e-06 6.3123107e-06
4.964695e-11 8.591606e-11 2.3253547e-11 2.6255033e-15 1.5513731e-11 2.003026e-11 1.0841644e-10 7.686331e-12
2.9051468e-11 3.0388095e-11 4.735464e-11 8.068874e-13 8.423477e-09 1.7915756e-08 8.415104e-09 1.1198787e-09
1.7512627e-07 8.74691e-09 1.9436436e-07 5.539741e-08 9.156794e-09 1.6886302e-08 1.5431116e-09 3.827172e-09
00000000: b9f3 722e 44d9 a12f 3fa8 3830 8658 142c
00000010: 6595 e731 8e80 372f f587 2e32 745e bf31
00000020: f58f 6d2e c301 b42f 973b 0f30 b3f9 502e
00000030: 426d 8337 3261 3c36 0518 6e36 0aa2 f036
00000040: 7e6b 343a 78af 2b38 d242 6e3a 9060 4839
00000050: d4cc a936 72aa f035 91ba 1837 56ce d336
00000060: 7f59 5a2e 71ee bc2e 558a cc2d fd2f 3d27
00000070: d175 882d 2330 b02d 0869 ee2e 2838 072d
00000080: 178a ff2d f4a5 052e 9644 502e 5d1e 632b
00000090: d8b6 1032 2ae5 9932 0592 1032 3bea 9930
000000a0: 580a 3c34 5145 1632 78b2 5034 19ee 6d33
000000b0: 0250 1d32 5f0d 9132 6a15 d430 2980 8331

exp_avg f4 [4]
-1.3527499e-06 1.9150953e-06 -1.6080874e-08 2.0556281e-07
00000000: 2290 b5b5 1685 0036 3722 8ab2 adb8 5c34

exp_avg_sq f4 [4]
1.4419832e-13 5.0916975e-13 1.3954103e-17 1.7842554e-15
00000000: 565a 222a 8c51 0f2b 32b4 8023 b491 0027

exp_avg f4 [4, 1]
-1.533697e-06 -2.8209074e-06 2.1359105e-07 -1.8827598e-06
00000000: 6dd9 cdb5 d24e 3db6 7657 6534 22b3 fcb5

exp_avg_sq f4 [4, 1]
1.3726477e-13 3.0841635e-13 2.534049e-15 1.4400376e-13
00000000: e08b 1a2a 7b9f ad2a f498 3627 4222 222a

exp_avg f4 [4, 12]
1.4674552e-07 6.575383e-08 1.6172211e-07 -8.3289484e-07 2.5593954e-07 -2.4356925e-05 -2.7206463e-06 -3.5260146e-05
-1.554687e-06 -1.803032e-06 -1.1514692e-06 -6.479865e-07 8.315743e-08 1.1278188e-06 1.104178e-06 2.1149302e-07
-1.462845e-06 1.34106085e-05 5.427443e-06 3.994351e-05 1.2820913e-06 1.0483197e-06 5.252638e-07 1.1248754e-06
-1.0084222e-08 3.1466154e-08 2.1570248e-08 9.173783e-08 3.7135024e-08 -1.2478566e-07 -1.0843229e-07 -3.002763e-07
-2.1131848e-08 -1.1033437e-07 7.740385e-08 6.1329377e-09 -8.24334e-07 -4.6869488e-07 -6.884655e-07 -7.0266327e-07
-6.2730265e-07 2.2850813e-06 1.5533578e-06 4.6298574e-06 3.4720316e-08 -1.9911677e-07 -1.2949165e-07 2.0193718e-07
00000000: 1a91 1d34 8d34 8d33 d6a5 2d34 1994 5fb5
00000010: 1068 8934 1952 ccb7 5994 36b6 4be4 13b8
00000020: a3aa d0b5 b5ff f1b5 2e8c 9ab5 4bf1 2db5
00000030: 4894 b233 8f5f 9735 4433 9435 c216 6334
00000040: f956 c4b5 20fe 6037 611d b636 0489 2738
00000050: 5214 ac35 feb3 8c35 daff 0c35 6dfa 9635
00000060: e13e 2db2 6725 0733 7a49 b932 6801 c533
00000070: 647e 1f33 d2fc 05b4 48db e8b3 a935 a1b4
00000080: 6d85 b5b2 f6f0 ecb3 3739 a633 e4b9 d231
00000090: cd47 5db5 efa0 fbb4 fdce 38b5 a79e 3cb5
000000a0: e963 28b5 6659 1936 f87c d035 2c5a 9b36
000000b0: 641f 1533 cdcc 55b4 650a 0bb4 12d4 5834

exp_avg_sq f4 [4, 12]
1.3399417e-15 6.638382e-15 1.888747e-15 5.0960792e-14 1.6581929e-14 4.7725067e-11 6.25129e-13 9.21362e-11
1.5215711e-13 2.2579243e-13 1.0138867e-13 2.4505917e-14 3.997893e-16 5.2088223e-14 4.5588015e-14 9.264096e-14
1.5119714e-13 2.1011276e-11 5.556668e-12 2.2823633e-10 3.925985e-13 4.4963742e-13 7.310779e-14 4.8999396e-14
4.823935e-18 5.576666e-17 2.448651e-17 4.8914623e-16 7.077434e-17 8.2851797e-16 6.0514654e-16 4.754523e-15
2.2737795e-17 6.8815747e-16 3.4183208e-16 1.6495986e-18 2.6470754e-14 8.742785e-15 1.8679657e-14 1.9488341e-14
1.537609e-14 2.509706e-13 8.850369e-14 9.144319e-13 1.5649065e-16 1.6259787e-15 7.661467e-16 1.7642551e-15
00000000: 201b c126 442c ef27 3c19 0827 cb81 6529
00000010: 535b 9528 a6e5 512e 4bf5 2f2b 129c ca2e
00000020: 4d50 2b2a 3d38 7e2a 974e e429 ccba dc28
00000030: 7d76 e625 a295 6a29 674f 4d29 e19b d029
00000040: 9c3b 2a2a 30d1 b82d 0482 c32c d1f2 7a2f
00000050: 6803 dd2a 951f fd2a c69f a429 75ac 5c29
00000060: c7f8 b122 d396 8024 23d9 e123 9ffc 0c26
00000070: cc31 a324 d6cd 6e26 ef6b 2e26 bc4c ab27
00000080: 1ab8 d123 0f59 4626 830d c525 1370 f321
00000090: 676d ee28 fb7e 1d28 5b40 a828 0e89 af28
000000a0: da7e 8a28 ad48 8d2a e74a c729 e2b1 802b
000000b0: e36b 3425 0754 ea26 a6d3 5c26 8641 fe26

exp_avg f4 [4]
-2.4189132e-05 -2.5379193e-06 5.7129255e-05 -6.050011e-05
00000000: c4e9 cab7 1f51 2ab6 129e 6f38 80c1 7db8

exp_avg_sq f4 [4]
2.4411381e-11 2.7165997e-13 1.3428651e-10 1.8981473e-10
00000000: 8bb9 d62d 54ee 982a 4ba6 132f 19b4 502f

exp_avg f4 [4, 1]
-8.3580635e-06 -1.056882e-06 4.481023e-06 -1.355791e-06
00000000: 9c39 0cb7 30da 8db5 b25b 9636 a0f8 b5b5

exp_avg_sq f4 [4, 1]
2.444528e-12 6.791683e-14 9.095586e-13 6.845726e-13
00000000: b404 2c2c 63ef 9829 4d02 802b a8b0 402b

exp_avg f4 [4, 4]
-1.4642945e-06 -3.3545573e-06 2.676659e-06 5.4526267e-06 -3.8409426e-06 -2.3348096e-07 5.3792974e-07 1.126059e-06
8.973856e-06 1.6000626e-05 -3.5090472e-06 -7.214565e-06 -6.3005828e-06 -5.9862427e-06 4.1992803e-06 3.4237485e-06
00000000: c788 c4b5 db1e 61b6 a7a0 3336 b5f5 b636
00000010: 72e1 80b6 c2b2 7ab4 4066 1035 1823 9735
00000020: 6b8e 1637 1539 8637 f97c 6bb6 a414 f2b6
00000030: 9869 d3b6 6fdd c8b6 8be7 8c36 8dc3 6536

exp_avg_sq f4 [4, 4]
1.80742e-13 4.209258e-13 2.9018346e-13 1.0278728e-12 8.5667866e-13 3.2562837e-15 1.5747705e-14 7.179222e-14
3.6017116e-12 1.1373442e-11 6.258689e-13 2.0143596e-12 1.8815795e-12 1.5128946e-12 1.109252e-12 5.785667e-13
00000000: 567f 4b2a cdf5 ec2a d85b a32a 05a9 902b
00000010: 3422 712b d5a3 6a27 bcd7 8d28 66a9 a129
00000020: ab72 7d2c 6e15 482d 9b2a 302b 7abf 0d2c
00000030: 8667 042c c6eb d42b 041d 9c2b 20da 222b

exp_avg f4 [4]
-3.348971e-05 -6.843398e-06 0.0001469967 3.5917942e-08
00000000: 4d77 0cb8 57a0 e5b6 2023 1a39 3244 1a33

exp_avg_sq f4 [4]
2.7018143e-11 1.959301e-12 1.2551408e-09 5.7308036e-16
00000000: 73a7 ed2d a1df 092c 5781 ac30 de2d 2526

exp_avg f4 [4, 1]
-1.61914e-06 -2.1617416e-06 -1.3385329e-05 6.160819e-09
00000000: 3a51 d9b5 7012 11b6 8d91 60b7 23af d331

exp_avg_sq f4 [4, 1]
7.4222346e-14 1.8488772e-13 9.832874e-12 7.5160625e-18
00000000: 4522 a729 422a 502a 54fb 2c2d 9aa5 0a23

exp_avg f4 [4, 4]
-1.3651645e-06 -3.759246e-07 -6.962537e-06 -1.1537548e-05 -8.620092e-06 -1.130835e-06 -2.876382e-06 -1.7042715e-06
2.9409988e-05 -2.4116057e-06 2.9731118e-05 1.04260025e-05 2.3609147e-08 5.587802e-09 9.7068185e-09 -1.5812516e-09
00000000: b23a b7b5 afd2 c9b4 bd9f e9b6 6491 41b7
00000010: 039f 10b7 32c7 97b5 de07 41b6 53be e4b5
00000020: 78b5 f637 12d7 21b6 1767 f937 57eb 2e37
00000030: 10cd ca32 d4fe bf31 0ac3 2632 5853 d9b0

exp_avg_sq f4 [4, 4]
4.8744188e-14 5.9217286e-14 1.447252e-12 3.75745e-12 3.039365e-12 5.0323163e-14 3.4660095e-13 1.1687907e-13
3.3472426e-11 3.4239338e-13 4.9148255e-11 1.0515894e-11 4.318324e-17 5.7981717e-18 1.2940412e-17 4.341154e-18
00000000: 3986 5b29 7158 8529 c0ae cb2b 1a34 842c
00000010: 55e0 552c a8a2 6229 761e c32a 1998 032a
00000020: 9a36 132e 16c0 c02a 0428 582e 60ff 382d
00000030: c525 4724 2fea d522 5eb5 6e23 0a29 a022

exp_avg f4 [4]
-1.0045356e-06 -1.9538248e-08 2.4484257e-06 6.7016924e-07
00000000: 95d3 86b5 10d5 a7b2 a24f 2436 aee5 3335

exp_avg_sq f4 [4]
4.016558e-13 3.47123e-17 1.1182372e-12 1.2456068e-13
00000000: b31c e22a 0d15 2024 be60 9d2b 2c3e 0c2a

exp_avg f4 [4, 1]
-1.3011198e-05 1.3215755e-07 2.0423158e-05 4.6453765e-06
00000000: ab4a 5ab7 31e7 0d34 6652 ab37 7bdf 9b36

exp_avg_sq f4 [4, 1]
1.1552224e-10 1.8103608e-15 1.13954755e-10 1.3698359e-11
00000000: 3d09 fe2e 4373 0227 d396 fa2e edfb 702d

exp_avg f4 [4, 16]
-2.4276915e-06 2.1958012e-06 3.5037035e-06 5.3138983e-06 3.5927264e-06 -4.0951145e-06 -7.092333e-06 -2.0694959e-05
-1.5485969e-07 -4.812495e-06 1.2090435e-07 -1.6850163e-07 1.2759426e-06 -2.3457837e-06 -5.9611516e-08 4.0448926e-06
-2.8385156e-08 4.0083936e-09 3.359276e-08 -1.05479145e-08 6.399941e-08 -2.479303e-07 -6.860829e-09 -4.0936854e-07
7.688062e-10 2.2762269e-08 -2.976993e-08 4.2004874e-08 2.2783125e-08 -4.4583896e-08 4.4931173e-08 3.819127e-08
-3.33838e-06 7.4912114e-06 -6.2987924e-06 -3.8942517e-06 -5.003339e-06 3.2967917e-05 -4.8776405e-06 4.9919727e-05
-6.2399795e-06 -1.707748e-06 -5.977036e-06 -5.050829e-06 -3.6944944e-06 6.1388596e-06 7.222028e-06 -4.038551e-06
-1.8731021e-06 1.0124838e-06 -1.5607621e-06 1.3358642e-06 -5.9880506e-07 1.900735e-06 6.265292e-06 1.7778808e-05
1.7224664e-06 -5.653238e-07 -1.4580252e-06 -1.2155872e-06 1.4516639e-06 5.4836175e-07 3.5463227e-08 -1.0315239e-06
00000000: 6ceb 22b6 945b 1336 2b21 6b36 0a4e b236
00000010: 921a 7136 c468 89b6 adfa edb6 169a adb7
00000020: 8247 26b4 047b a1b6 efd1 0134 60ed 34b4
00000030: 0e41 ab35 426c 1db6 c703 80b3 5db9 8736
00000040: 9ed3 f3b2 34ba 8931 a147 1033 3836 35b2
00000050: 0c70 8933 481b 85b4 7dbc ebb1 2fc7 dbb4
00000060: ed53 5330 c286 c332 c5b8 ffb2 d968 3433
00000070: 9fb4 c332 837c 3fb3 59fa 4033 bf07 2433
00000080: ef08 60b6 045d fb36 375a d3b6 5eab 82b6
00000090: 5be2 a7b6 0847 0a38 9daa a3b6 e660 5138
000000a0: 0461 d1b6 c635 e5b5 598e c8b6 4a7a a9b6
000000b0: eeee 77b6 67fc cd36 c054 f236 e482 87b6
000000c0: 4c67 fbb5 aee4 8735 617b d1b5 f24b b335
000000d0: 92bd 20b5 c21c ff35 733a d236 b323 9537
000000e0: 7f2f e735 c1c0 17b5 5db1 c3b5 4227 a3b5
000000f0: cbd6 c235 2233 1335 3b50 1833 e472 8ab5

exp_avg_sq f4 [4, 16]
4.071508e-12 3.3498239e-12 8.449067e-12 1.9485503e-11 8.495931e-12 1.7957311e-11 2.5774513e-11 2.7447433e-10
3.14522e-14 1.5516888e-11 2.5613531e-14 3.549887e-14 1.6326751e-12 3.0825269e-12 3.004081e-15 1.1042314e-11
8.589354e-17 1.6477028e-18 1.2001966e-16 7.5762175e-18 4.2143942e-16 7.33407e-15 1.1856615e-16 1.547974e-14
4.5919497e-20 5.1924106e-17 9.371114e-17 1.9025277e-16 6.267151e-17 1.9926866e-16 2.3911417e-16 1.5697088e-16
3.0247478e-12 1.4796555e-11 1.0959329e-11 5.313964e-12 6.0142186e-12 2.1618096e-10 2.5631326e-12 5.6378746e-10
1.0905838e-11 6.540436e-13 1.0058555e-11 7.095497e-12 4.5262748e-12 8.99417e-12 1.2464207e-11 4.519671e-12
2.3019828e-12 6.613383e-13 1.7333426e-12 1.0721252e-12 1.5891138e-13 6.6100957e-12 3.751111e-12 1.3085394e-10
1.9402236e-12 2.4641197e-13 1.3921115e-12 9.569997e-13 9.655248e-13 5.9948025e-14 3.300938e-15 6.8416973e-13
00000000: e240 8f2c 10b9 6b2c 37a3 142d 7465 ab2d
00000010: 4676 152d 45f4 9d2d 0bb7 e22d d4e4 962f
00000020: eba5 0d29 ed7c 882d c8b4 e628 69df 1f29
00000030: 52c7 e52b dee9 582c 8377 5827 2942 422d
00000040: 990e c624 7428 f321 8d5f 0a25 adc1 0b23
00000050: 7bf1 f225 6e1e 0428 8db2 0825 da6d 8b28
00000060: 44d9 581f 2a75 6f24 4b15 d824 b558 5b25
00000070: bb82 9024 babd 6525 06d7 8925 a0f9 3425
00000080: 03d9 542c e126 822d 6ecc 402d eff7 ba2c
00000090: 449b d32c 88b1 6d2f 4b5d 342c 04f9 1a30
000000a0: 87db 3f2d cf18 382b b4f3 302d 8ea6 f92c
000000b0: 0f41 9f2c 243a 1e2d cc45 5b2d 9405 9f2c
000000c0: d6fc 212c 7226 3a2b 40f2 f32b 62e3 962b
000000d0: 16eb 322a 7392 e82c 01fb 832c 1ce0 0f2f
000000e0: f687 082c b5b7 8a2a 1aec c32b 8caf 862b
000000f0: b2e2 872b affd 8629 8fdb 6d27 a093 402b

exp_avg f4 [4]
-7.220924e-07 5.493676e-06 1.6497518e-06 1.5871304e-06
00000000: d0d5 41b5 5156 b836 0a6d dd35 6305 d535

exp_avg_sq f4 [4]
1.0747729e-14 4.751411e-12 1.6276887e-13 2.0947348e-12
00000000: 279d 4128 e82c a72c ef42 372a 6367 132c

exp_avg f4 [4, 1]
7.3953242e-06 1.5137627e-05 -3.831847e-06 9.537207e-07
00000000: 5a25 f836 9df7 7d37 5193 80b6 9801 8035

exp_avg_sq f4 [4, 1]
1.2087637e-12 5.912338e-11 7.523624e-13 7.980975e-13
00000000: 4d1e aa2b 8103 822e 6dc5 532b fca4 602b

exp_avg f4 [4, 4]
-1.1076121e-06 -2.4723593e-06 -1.8232474e-06 8.6272297e-07 4.437868e-05 6.185836e-06 1.7074459e-05 3.0909163e-05
1.01829355e-05 -2.466857e-06 9.4148845e-06 9.526224e-06 1.0604519e-05 -1.9413716e-07 1.1787126e-05 5.8002206e-06
00000000: 43a9 94b5 cfea 25b6 4eb6 f4b5 df95 6735
00000010: 3f23 3a38 ed8f cf36 1f3b 8f37 76a4 0138
00000020: 60d7 2a37 488c 25b6 9ff4 1d37 d2d2 1f37
00000030: 10ea 3137 0474 50b4 52c1 4537 849f c236

exp_avg_sq f4 [4, 4]
2.5583353e-14 1.3392393e-13 6.7526815e-14 1.4736046e-14 2.939641e-10 9.851189e-12 4.904592e-11 1.7259878e-10
7.526892e-12 3.134718e-13 6.436571e-12 6.6823743e-12 1.8504333e-10 3.8318984e-14 1.8560556e-10 6.914278e-11
00000000: 326f e628 f2c8 162a 8f0e 9829 02bb 8428
00000010: c59b a12f d04d 2d2d ccb4 572e 3dc6 3d2f
00000020: 1c6a 042d 0c78 b02a 7a77 e22c 7a1d eb2c
00000030: 1175 4b2f c892 2c29 5213 4c2f ed0b 982e

exp_avg f4 [4]
-4.8486636e-05 6.3275334e-06 4.1606763e-06 4.9917717e-06
00000000: 215e 4bb8 1951 d436 f09b 8b36 fe7e a736

exp_avg_sq f4 [4]
6.6021515e-11 2.1225016e-12 1.1090356e-11 8.007077e-13
00000000: cf2e 912e 975b 152c 861a 432d 1261 612b

exp_avg f4 [4, 1]
-8.92899e-06 -1.3964323e-05 -2.195291e-06 -1.0470768e-05
00000000: b8cd 15b7 5048 6ab7 d052 13b6 9bab 2fb7

exp_avg_sq f4 [4, 1]
2.1873692e-12 5.7276753e-12 1.7170525e-13 3.3908369e-12
00000000: 24ec 192c 5086 c92c ab52 412a e39b 6e2c

exp_avg f4 [4, 12]
3.0338547e-06 -6.698857e-05 5.709714e-06 -8.374953e-05 -1.92527e-06 -6.9624606e-05 7.984667e-07 3.841866e-07
-4.192062e-05 -4.75315e-05 -1.8588642e-05 -3.999459e-06 5.723048e-06 1.9228835e-05 -5.0405524e-06 1.4986513e-05
5.239021e-08 7.297406e-06 2.6102389e-06 6.145579e-06 1.1072804e-05 7.2939897e-06 7.3133106e-07 -2.8316795e-06
-1.2896224e-07 7.014106e-06 -1.4738698e-06 8.468484e-06 -2.57782e-07 1.0862193e-05 -2.991572e-07 1.6440803e-06
3.9475926e-06 3.0163899e-06 2.185859e-06 3.8324634e-07 2.9179303e-09 1.4531429e-05 -3.4776663e-06 1.5555846e-05
-1.8901599e-06 7.258205e-06 -3.8927537e-06 4.5065594e-06 -5.0154625e-07 8.259212e-07 -1.6028083e-06 -1.435078e-06
00000000: 3a99 4b36 377c 8cb8 1296 bf36 b0a2 afb8
00000010: e333 01b6 6d03 92b8 3756 5635 3442 ce34
00000020: ecd3 2fb8 8f5c 47b8 ceee 9bb7 1733 86b6
00000030: 9c08 c036 9c4d a137 0422 a9b6 956e 7b37
00000040: a503 6133 3ddc f436 902b 2f36 1f36 ce36
00000050: 55c5 3937 e5be f436 b050 4435 e207 3eb6
00000060: df78 0ab4 b65a eb36 c8d1 c5b5 dd13 0e37
00000070: 4a65 8ab4 c43c 3637 da9b a0b4 2baa dc35
00000080: 9075 8436 2f6d 4a36 c6b0 1236 fac0 cd34
00000090: c684 4831 03cc 7337 da61 69b6 ed7d 8237
000000a0: 66b1 fdb5 828b f336 809e 82b6 0d37 9736
000000b0: ffa1 06b5 dfb4 5d35 1320 d7b5 e89c c0b5

exp_avg_sq f4 [4, 12]
2.283625e-13 1.1965068e-10 9.648872e-13 1.7438427e-10 1.2617958e-13 1.3489783e-10 1.7301168e-14 2.910332e-14
4.9835094e-11 6.301582e-11 9.076687e-12 4.3442908e-13 9.594052e-13 1.3737308e-11 7.6538217e-13 6.1109446e-12
1.5156403e-15 3.555559e-12 2.0674749e-13 1.1181405e-12 4.5142605e-12 2.5426991e-12 7.214409e-14 2.4143388e-13
1.8190179e-15 2.073597e-12 6.618327e-14 9.364907e-12 1.00829725e-13 1.3947658e-10 1.1933951e-14 8.816615e-13
7.908023e-12 1.04570675e-11 3.0526937e-12 6.442451e-15 6.710831e-16 7.1099676e-12 3.6475868e-13 6.30776e-12
1.1668547e-13 2.1349912e-12 4.6337733e-13 6.3424016e-13 1.3963579e-14 3.707929e-14 7.365452e-14 6.632952e-14
00000000: 818e 802a ac8e 032f bacb 872b cfbc 3f2f
00000010: ca10 0e2a 5d52 142f c7d5 9b28 d811 0329
00000020: 542d 5b2e c192 8a2e c4ad 1f2d d48f f42a
00000030: 3706 872b 56ab 712d 996f 572b 7f02 d72c
00000040: 426d da26 4233 7a2c e8c6 682a 425d 9d2b
00000050: d8d4 9e2c 32ed 322c 3d74 a229 4aea 872a
00000060: f512 0327 9aea 112c 0f08 9529 cbbf 242d
00000070: 610c e329 2b5b 192f a3fb 5628 682a 782b
00000080: 921e 0b2d 72f6 372d 71d0 562c 1f1d e827
00000090: 316d 4126 e528 fa2c 4457 cd2a 40ef dd2c
000000a0: 4c60 032a 953c 162c db6d 022b d285 322b
000000b0: a48b 7b28 83fd 2629 f1da a529 5d5c 9529

exp_avg f4 [4]
1.8800414e-05 0.0024365792 -1.7532137e-06 9.276564e-06
00000000: 95b5 9d37 04af 1f3b f74f ebb5 8aa2 1b37

exp_avg_sq f4 [4]
1.9392437e-11 2.012233e-07 2.7403774e-13 2.0325073e-09
00000000: e393 aa2d d70f 5834 0045 9a2a 3fac 0b31

exp_avg f4 [4, 1]
5.9337464e-07 -5.2493433e-05 4.7185186e-08 4.512942e-07
00000000: 6548 1f35 652c 5cb8 a9a8 4a33 6749 f234

exp_avg_sq f4 [4, 1]
6.670352e-14 6.981234e-11 7.546713e-16 2.280791e-13
00000000: f633 9629 db84 992e ea84 5926 aa65 802a

exp_avg f4 [4, 4]
9.79702e-07 2.0692804e-07 -1.1188705e-08 -6.206117e-07 1.8639888e-05 1.0960609e-05 3.0227286e-06 -5.7459265e-06
-3.7671185e-08 -2.145165e-08 2.7088378e-08 1.3392739e-09 -1.04351535e-07 5.7875707e-07 -4.5150465e-08 2.1091546e-07
00000000: 4e7e 8335 f22f 5e34 7238 40b2 1c98 26b5
00000010: db5c 9c37 75e3 3737 15da 4a36 22cd c0b6
00000020: e8cb 21b3 ad44 b8b2 f9af e832 8311 b830
00000030: dd17 e0b3 e25b 1b35 76eb 41b3 0078 6234

exp_avg_sq f4 [4, 4]
1.5428594e-13 1.9809004e-14 3.108481e-16 4.2926766e-14 2.3009476e-11 3.1767787e-12 2.636919e-13 4.4770914e-12
7.0913916e-16 2.0346394e-16 1.9292175e-16 6.052427e-17 2.8417706e-13 1.624914e-14 1.5429762e-13 1.3285434e-13
00000000: e5b5 2d2a 746c b228 1531 b325 3153 4129
00000010: bc64 ca2d c28b 5f2c 0272 942a 0e86 9d2c
00000020: 3c65 4c26 f593 6a25 736c 5e25 398f 8b24
00000030: 3bfa 9f2a f75b 9228 43b9 2d2a a894 152a

exp_avg f4 [4]
-1.7473352e-05 5.278183e-06 2.4931505e-05 8.3390375e-08
00000000: bd93 92b7 3f1b b136 0024 d137 5814 b333

exp_avg_sq f4 [4]
4.30392e-11 1.6443927e-12 1.05017356e-10 4.3882622e-16
00000000: d549 3d2e 7e6d e72b 84ef e62e 52f7 fc25

exp_avg f4 [4, 1]
-1.3401055e-05 1.2830455e-05 0.00034102384 -7.7334636e-07
00000000: 18d5 60b7 6242 5737 72cb b239 f597 4fb5

exp_avg_sq f4 [4, 1]
6.9113985e-11 2.0023545e-11 2.9718185e-08 2.8789027e-14
00000000: b7fb 972e 0421 b02d fb46 ff32 7da7 0129

exp_avg f4 [4, 16]
1.9276693e-07 -1.1202255e-05 8.088509e-07 -1.0935163e-05 7.962235e-06 -0.0005190092 -4.812366e-05 -0.0007356572
1.1896269e-06 -3.925318e-05 -5.4802513e-06 5.458885e-06 -1.5349195e-05 -2.2280077e-05 -1.7087146e-05 -1.1583189e-06
-3.4770594e-06 1.1167566e-05 -1.6187005e-07 2.3750704e-06 -8.4668045e-06 0.00019317355 8.939832e-06 0.0002205853
-8.547093e-07 5.0430936e-06 -1.0561423e-06 -4.909387e-06 3.992841e-06 3.6643512e-06 1.6347942e-06 -3.4624236e-06
-0.00013893828 6.2082836e-05 6.633143e-05 -0.00012608797 -5.5887926e-05 0.00030333904 0.000127263 0.00065895537
9.067445e-06 2.2539862e-05 0.0001193534 -0.00012381325 0.00010014176 -2.5042305e-05 -5.6005432e-05 2.3808276e-05
8.653284e-08 -2.1760975e-07 1.7597328e-07 2.8632854e-07 -3.8607828e-07 2.1049852e-06 5.428044e-07 3.1103536e-06
-1.5508247e-07 2.9640907e-07 -6.056653e-09 -2.3480368e-07 4.886111e-08 -2.2492267e-07 2.0124967e-08 1.3684524e-07
00000000: 5ffb 4e34 52f1 3bb7 d01f 5935 2b76 37b7
00000010: 8a95 0537 1e0e 08ba 63d8 49b8 1ed9 40ba
00000020: 45ab 9f35 c8a3 24b8 00e3 b7b6 772b b736
00000030: 25c2 80b7 1ae6 bab7 5e56 8fb7 8977 9bb5
00000040: 6d57 69b6 555c 3b37 80ce 2db4 6663 1f36
00000050: a60c 0eb7 a18e 4a39 49fc 1537 ea4c 6739
00000060: 2d6f 65b5 d837 a936 c6c0 8db5 50bb a4b6
00000070: 3efa 8536 13e9 7536 1a6b db35 fc5b 68b6
00000080: f6af 11b9 7832 8238 6a1b 8b38 7b36 04b9
00000090: 3469 6ab8 7a09 9f39 e771 0539 bfbd 2c3a
000000a0: 6120 1837 fc13 bd37 5e4d fa38 ded3 01b9
000000b0: 3303 d238 f111 d2b7 60e7 6ab8 e2b7 c737
000000c0: efd3 b933 1da8 69b4 2bf3 3c34 b2b8 9934
000000d0: 3246 cfb4 5f43 0d36 3cb5 1135 78bb 5036
000000e0: bf84 26b4 2722 9f34 e21a d0b1 581e 7cb4
000000f0: 5cdb 5133 4682 71b4 45df ac32 bcef 1234

exp_avg_sq f4 [4, 16]
7.507706e-15 3.2006113e-11 7.6161646e-13 1.5535927e-11 4.2319963e-12 5.9456166e-08 1.7577147e-10 7.9402966e-08
2.1871572e-13 2.5150546e-10 1.1137052e-11 1.11285425e-11 3.8704425e-11 8.559207e-11 5.821823e-11 4.8787374e-13
1.4338155e-12 9.9327595e-12 6.2647073e-15 3.7707985e-13 6.1117587e-12 2.246064e-09 7.396072e-12 2.772441e-09
6.3538455e-14 1.5331315e-12 1.1673763e-13 2.9428523e-12 1.075871e-12 6.48421e-13 1.3212599e-13 1.4798815e-12
5.082883e-09 1.1601814e-09 1.097732e-09 4.0655377e-09 7.7727225e-10 5.441892e-08 1.6555489e-09 9.768198e-08
1.5690444e-11 4.4171538e-11 3.705463e-09 4.0196624e-09 2.3353912e-09 2.2186154e-10 7.978794e-10 1.3376582e-10
3.7473812e-16 2.0097345e-15 1.4635572e-15 3.9538422e-15 6.8552295e-15 3.1762616e-13 1.5075672e-14 5.731176e-13
1.1590263e-15 5.3568117e-15 3.415972e-18 2.4925016e-15 2.0496731e-16 2.0852522e-15 4.5605362e-17 8.96634e-16
00000000: 2f3f 0728 aec3 0c2e 4060 562b cca7 882d
00000010: 6fe6 942c bf5c 7f33 4543 412f 3e84 aa33
00000020: 8440 762a 3f44 8a2f d3ec 432d 80c6 432d
00000030: 4f39 2a2e 0d38 bc2e f305 802e 0253 092b
00000040: a6ca c92b 2cbd 2e2d bab5 e127 ef46 d42a
00000050: d409 d72c 2d59 1a31 f21c 022d 4c85 3e31
00000060: 6d13 8f29 e2c4 d72b 556f 032a b715 4f2c
00000070: 566a 972b a883 362b b9c2 142a 5a46 d02b
00000080: 83a5 ae31 4174 9f30 03df 9630 d9b0 8b31
00000090: aca7 5530 3cba 6933 7389 e330 3dc5 d133
000000a0: bd03 8a2d bb44 422e 32a3 7e31 531d 8a31
000000b0: a37c 2031 79f0 732f c551 5b30 bb13 132f
000000c0: 9605 d825 0fd1 1027 bbeb d226 c273 8e27
000000d0: 55fc f627 c1ce b22a 22ca 8728 7a51 212b
000000e0: 8608 a726 deff c027 e30d 7c22 8a9a 3327
000000f0: ac4f 6c25 1d42 1627 4f51 5224 f537 8126

exp_avg f4 [4]
-8.448585e-05 -6.4488363e-06 0.0001663225 -8.912648e-07
00000000: ff2d b1b8 1563 d8b6 db66 2e39 403f 6fb5

exp_avg_sq f4 [4]
1.465964e-10 1.218939e-12 1.6849752e-09 6.378706e-14
00000000: 382f 212f e88c ab2b cb94 e730 bda2 8f29

exp_avg f4 [4, 1]
-0.00043986345 2.1512318e-05 0.00069638935 4.7009944e-06
00000000: 799d e6b9 5a75 b437 e68d 363a 3cbd 9d36

exp_avg_sq f4 [4, 1]
3.968123e-09 1.520602e-11 4.0212747e-08 2.3632936e-12
00000000: fb57 8831 eac0 852d 62b6 2c33 504d 262c

exp_avg f4 [4, 4]
-0.0003229047 -0.00023399618 -0.00041314802 -9.054692e-06 -5.1512557e-06 5.634017e-06 -1.3931867e-05 -1.230731e-05
0.0006224234 2.0291975e-05 0.0009617229 -8.257675e-05 -4.2721706e-07 -2.6975833e-06 -3.5258279e-06 2.1336964e-06
00000000: 894b a9b9 df5c 75b9 ca9b d8b9 9be9 17b7
00000010: f3d8 acb6 d60b bd36 eabc 69b7 7e7b 4eb7
00000020: 212a 233a af38 aa37 221c 7c3a 0e2d adb8
00000030: 445c e5b4 2108 35b6 439d 6cb6 a030 0f36

exp_avg_sq f4 [4, 4]
2.2216797e-09 1.3196338e-09 3.8806642e-09 2.5217198e-12 8.5919715e-13 9.682255e-13 6.145089e-12 4.992061e-12
3.1916297e-08 5.41275e-10 7.108465e-08 4.757832e-10 3.2761042e-14 1.0028377e-12 1.4859149e-12 4.8060855e-13
00000000: 34ac 1831 7d5e b530 af56 8531 4473 312c
00000010: aed7 712b 0044 882b 0b36 d82c 7da4 af2c
00000020: 5714 0933 d8c8 1430 33a7 9833 44c8 0230
00000030: e98a 1329 0923 8d2b ba1f d12b 7f47 072b

exp_avg f4 [4]
0.00094332255 -0.0003566823 -8.748404e-05 0.0014911506
00000000: 4e49 773a 1701 bbb9 a377 b7b8 b672 c33a

exp_avg_sq f4 [4]
4.5011735e-08 3.951293e-09 1.7675363e-10 7.591936e-08
00000000: ed52 4133 f1c3 8731 b957 422f 1c09 a333

exp_avg f4 [4, 1]
0.00072457065 -0.0022746439 4.2058678e-06 0.006204615
00000000: 1df1 3d3a 3112 15bb 2120 8d36 1550 cb3b

exp_avg_sq f4 [4, 1]
4.6519773e-08 1.5397012e-07 1.7827862e-12 1.4038003e-06
00000000: 08cd 4733 fc52 2534 a4e7 fa2b 366a bc35

exp_avg f4 [4, 12]
0.00030386704 0.0025434038 -0.0001733255 0.0027300841 0.0016340478 0.00012298425 0.0013010834 0.0002242185
0.0005371538 0.0005875218 0.00044138983 4.3020216e-05 5.2817246e-05 -0.001107359 -0.0005677883 -0.0008670601
6.882277e-05 -0.00034535571 0.0003415405 2.0030821e-07 -5.4966746e-05 -0.0011967482 0.00027440785 0.00045676547
3.8017984e-06 -0.00011388711 5.88245e-06 -0.00017132449 -0.0001759975 -2.1672092e-06 -0.00014522063 3.8116805e-06
-6.462808e-05 -8.1105274e-05 -4.770976e-05 6.6330864e-07 0.0023382173 0.0063702194 0.0013334685 0.0067367046
0.0034710765 0.0004221825 0.0013566305 -0.00082304876 0.0013851861 -0.0004064672 -0.002451729 -0.0017154312
00000000: 5850 9f39 3caf 263b b6be 35b9 36eb 323b
00000010: 8c2d d63a 55f5 0039 1d89 aa3a 321c 6b39
00000020: c8cf 0c3a ec03 1a3a 576a e739 9b70 3438
00000030: 1688 5d38 cd24 91ba a1d7 14ba 6b4b 63ba
00000040: f154 9038 dc10 b5b9 ca10 b339 4d14 5734
00000050: 188c 66b8 35dc 9cba 66de 8f39 067a ef39
00000060: 6622 7f36 add6 eeb8 dc61 c536 91a5 33b9
00000070: f88b 38b9 5f70 11b6 5e46 18b9 2ccc 7f36
00000080: f088 87b8 1017 aab8 f71b 48b8 390e 3235
00000090: c73c 193b 46bd d03b c7c7 ae3a 93bf dc3b
000000a0: 007b 633b 6058 dd39 f7d0 b13a dec1 57ba
000000b0: 228f b53a 1b1b d5b9 30ad 20bb 52d8 e0ba

exp_avg_sq f4 [4, 12]
8.619983e-09 5.536194e-07 2.2055475e-09 4.2398193e-07 1.4625051e-07 1.1385909e-09 1.276654e-07 4.501429e-09
1.1043654e-08 1.2610197e-08 1.0411359e-08 1.1587936e-10 1.1952733e-10 4.660401e-08 9.8572395e-09 1.7229343e-08
5.5016935e-10 3.7016321e-09 3.0385188e-09 2.2135279e-13 2.2970703e-10 4.291485e-08 2.308578e-09 6.4057675e-09
3.9458635e-13 2.7776764e-10 1.111252e-12 6.1880734e-10 7.7890083e-10 3.9761898e-13 6.213302e-10 4.716961e-13
9.7428905e-11 1.5223388e-10 5.5448746e-11 1.0639452e-13 2.0824429e-07 1.4342114e-06 6.645746e-08 1.2052104e-06
4.3780443e-07 5.266911e-09 1.0660818e-07 2.3208049e-08 6.3367764e-08 9.113076e-09 2.3123052e-07 1.0815729e-07
00000000: 1617 1432 6f9c 1435 6790 1731 a29f e334
00000010: 0909 1d34 9b7c 9c30 6614 0934 fdaa 9a31
00000020: 81ba 3d32 3ca4 5832 a4dd 3232 48d2 fe2e
00000030: f46b 032f a729 4833 9958 2932 baff 9332
00000040: ba3a 1730 cd5f 7e31 30ce 5031 9938 792a
00000050: c890 7c2f 6051 3833 efa4 1e31 ba19 dc31
00000060: e321 de2a 52b4 982f 1365 9c2b b218 2a30
00000070: 461a 5630 efd6 df2a 3aca 2a30 49c5 042b
00000080: 993f d62e 0762 272f bddd 732e 4494 ef29
00000090: c199 5f34 217f c035 60b7 8e33 b7c2 a135
000000a0: 620b eb34 3df8 b431 77f0 e433 0a5b c732
000000b0: cc14 8833 bb8f 1c32 2948 7834 1944 e833

exp_avg f4 [4]
0.0014541228 0.002425595 8.584588e-06 3.1980933e-05
00000000: 4498 be3a bbf6 1e3b 8606 1037 4423 0638

exp_avg_sq f4 [4]
6.836843e-08 1.9637757e-07 9.427802e-12 4.445491e-11
00000000: f1d1 9233 dbdb 5234 0cdb 252d c783 432e

exp_avg f4 [4, 1]
0.0026520437 0.0006319231 1.6779344e-05 -1.4771149e-05
00000000: e9cd 2d3b a4a7 253a 5ec1 8c37 9ad1 77b7

exp_avg_sq f4 [4, 1]
2.6505055e-07 5.815703e-08 2.435333e-11 1.0288298e-11
00000000: 454c 8e34 55c8 7933 d336 d62d 60fe 342d

exp_avg f4 [4, 4]
-0.001519502 0.0061650416 0.00019465949 0.0011129907 0.000116580035 0.009908408 0.00019183606 0.0042374604
-9.232445e-06 2.1402813e-05 -8.859523e-06 1.4704155e-05 8.681105e-06 4.7176454e-05 1.5372959e-06 3.686968e-05
00000000: 072a c7ba 1e04 ca3b 821d 4c39 c5e1 913a
00000010: 6e7c f438 e056 223c 9a27 4939 65da 8a3b
00000020: 0de5 1ab7 318a b337 5da3 14b7 ddb1 7637
00000030: 10a5 1137 55df 4538 1655 ce35 84a4 1a38

exp_avg_sq f4 [4, 4]
7.229305e-08 1.095006e-06 1.0645109e-09 3.5027455e-08 1.1317183e-09 3.1771258e-06 3.3672918e-09 5.84259e-07
2.3123651e-12 1.9847825e-11 6.4743484e-12 1.5401323e-11 6.9813053e-12 9.5813024e-11 5.760266e-14 6.653387e-11
00000000: 863f 9b33 1ff8 9235 264e 9230 1871 1633
00000010: cc8a 9b30 9b36 5536 0666 6731 f9d5 1c35
00000020: deb7 222c 5495 ae2d bfcb e32c b278 872d
00000030: 02a2 f52c f0b1 d22e acb5 8129 3d4f 922e

exp_avg f4 [2, 2]
0.0006047713 0.014474846 0.002146058 0.05138089
00000000: 8489 1e3a e827 6d3c e1a4 0c3b c574 523d

exp_avg_sq f4 [2, 2]
2.5574996e-08 8.287082e-06 2.7110076e-07 9.087654e-05
00000000: 03b0 db32 bf08 0b37 ce8b 9134 f994 be38

exp_avg f4 [2]
0.00156237 0.005255653
00000000: 70c8 cc3a 9d37 ac3b

exp_avg_sq f4 [2]
8.567406e-08 8.8174295e-07
00000000: d0fb b733 eab0 6c35

exp_avg f4 [3, 2]
0.011221556 0.009862855 -0.004741137 -0.0043732896 -0.025952721 -0.022504847
00000000: 9eda 373c d097 213c 8a5b 9bbb d04d 8fbb
00000010: cd9a d4bc 165c b8bc

exp_avg_sq f4 [3, 2]
4.265167e-06 3.7206717e-06 8.339294e-07 7.8724577e-07 2.1473637e-05 1.8242377e-05
00000000: 811d 8f36 a7b0 7936 31db 5f35 1e53 5335
00000010: 4922 b437 3507 9937

exp_avg f4 [3]
0.0053406935 -0.0011795674 -0.0136456145
00000000: fc00 af3b b79b 9aba db91 5fbc

exp_avg_sq f4 [3]
8.267579e-07 4.6601322e-08 5.1255583e-06
00000000: 5fee 5d35 b226 4833 36fc ab36

exp_avg f4 [2, 2]
-3.0910269e-06 -2.7978274e-06 5.3204298e-05 0.00018136732
00000000: 706f 4fb6 4fc2 3bb6 ae27 5f38 6b2d 3e39

exp_avg_sq f4 [2, 2]
3.2141024e-13 3.2556846e-13 2.7664362e-10 1.1768233e-09
00000000: 19f0 b42a 5c47 b72a 2116 982f cabd a130

exp_avg f4 [2]
-1.9987938e-06 2.5812327e-05
00000000: 0423 06b6 8d87 d837

exp_avg_sq f4 [2]
1.3207451e-13 8.1115836e-11
00000000: e3b3 142a 2860 b22e

exp_avg f4 [8, 2]
-3.0961204e-05 5.8092708e-05 6.0217308e-06 5.57926e-05 -2.8048575e-05 0.00013801924 2.7179733e-06 -5.528161e-05
2.0376874e-05 -4.4968587e-05 6.053102e-06 -1.2947244e-05 -1.5893693e-05 2.0128917e-05 -7.874643e-06 -3.455598e-05
00000000: 57dc 01b8 92a8 7338 460e ca36 d902 6a38
00000010: db49 ebb7 42b9 1039 6d66 3636 2dde 67b8
00000020: 01ef aa37 a79c 3cb8 c01b cb36 fd37 59b7
00000030: 7253 85b7 85da a837 561d 04b7 33f0 10b8

exp_avg_sq f4 [8, 2]
2.960234e-11 1.2160448e-10 1.3137136e-12 1.03618704e-10 2.4980866e-11 6.381226e-10 5.0763137e-13 9.463863e-11
1.5259452e-11 9.7365914e-11 1.9130596e-12 1.6731167e-11 7.958629e-12 2.2555837e-11 1.931322e-12 4.9014584e-11
00000000: 4631 022e 9eb4 052f 85e3 b82b 25dc e32e
00000010: e9bb db2d e367 2f30 b2e2 0e2b d01c d02e
00000020: 3b39 862d 231c d62e 9e9e 062c 3d2b 932d
00000030: 7b02 0c2d 3b67 c62d 9be7 072c 8491 572e

exp_avg f4 [8]
0.00021065865 -4.185107e-05 0.00018759198 -1.4471679e-05 -0.00014145354 -4.1526033e-05 0.000111300214 5.588607e-05
00000000: 40e4 5c39 3f89 2fb8 57b4 4439 63cb 72b7
00000010: 2553 14b9 3d2c 2eb8 d969 e938 3667 6a38

exp_avg_sq f4 [8]
1.3617969e-09 6.454015e-11 1.1098334e-09 2.0250144e-11 7.247569e-10 8.795179e-11 3.8610443e-10 9.7073106e-11
00000000: f829 bb30 e0ec 8d2e cb88 9830 451f b22d
00000010: 3c38 4730 7568 c12e 5e43 d42f 4d77 d52e

exp_avg f4 [3]
-0.029364541 -0.00050240854 0.0025103942
00000000: e88d f0bc 11b4 03ba 6d85 243b

exp_avg_sq f4 [3]
2.36555e-05 7.2106103e-09 1.749847e-07
00000000: cd6f c637 33c1 f731 6ee3 3b34

exp_avg f4 [3, 1]
0.031547844 -5.339692e-05 0.0026985838
00000000: 5038 013d 82f6 5fb8 b9da 303b

exp_avg_sq f4 [3, 1]
3.7671518e-05 3.9552736e-10 3.0167408e-07
00000000: 7c01 1e38 8771 d92f c5f5 a134

exp_avg f4 [3, 3]
-0.0426666 0.028793747 -0.02254601 0.00029162064 -0.00070079 -0.00014613873 8.3995576e-05 0.0012550843
-0.0010940622
00000000: 2cc3 2ebd dde0 eb3c 69b2 b8bc a9e4 9839
00000010: 39b5 37ba d13c 19b9 c826 b038 a481 a43a
00000020: a366 8fba

exp_avg_sq f4 [3, 3]
5.5919892e-05 3.241052e-05 1.7359826e-05 4.861283e-09 2.0178657e-08 1.6941706e-09 1.0313596e-08 5.2367277e-08
5.3209757e-08
00000000: 878b 6a38 88f0 0738 f19f 9137 4c08 a731
00000010: 5655 ad32 54d8 e830 ad2f 3132 6eea 6033
00000020: bf88 6433

exp_avg f4 [8]
-0.00029008873 0.00014769276 -0.00038807403 -0.00035764757 0.00017167418 0.00026398644 0.00016268516 0.00028977188
00000000: 0d17 98b9 f9dd 1a39 6a76 cbb9 a582 bbb9
00000010: 7003 3439 a967 8a39 7796 2a39 86ec 9739

exp_avg_sq f4 [8]
2.8779417e-09 6.91316e-10 4.6089466e-09 3.776855e-09 8.7551116e-10 2.1507194e-09 8.108336e-10 2.6043872e-09
00000000: 49c5 4531 0a07 3e30 b95c 9e31 91c5 8131
00000010: 9fa8 7030 dbcb 1331 58e1 5e30 ddf8 3231

exp_avg f4 [8, 1]
-6.565519e-05 -3.1916898e-05 0.00013396097 0.00015713731 -0.000108525404 5.8350786e-05 -4.96264e-05 1.1573084e-06
00000000: 5db0 89b8 82de 05b8 e077 0c39 3ac5 2439
00000010: 2298 e3b8 aebd 7438 f125 50b8 d054 9b35

exp_avg_sq f4 [8, 1]
1.5533304e-10 3.0710098e-11 7.4181367e-10 7.833462e-10 3.5753364e-10 1.3800136e-10 6.547666e-11 1.9928252e-11
00000000: 5dca 2a2f 7f10 072e 7fe8 4b30 1753 5730
00000010: 638e c42f eebb 172f 15fc 8f2e 6f4a af2d
