tests/output/multimodal-jets/cd5b97b90d8b44f5b6fc31239202acad/checkpoints/better.ckpt (torch, 47230 bytes, 91 tensors)

embedder.embedding_continuous.embedding.weight f4 [4, 3]
0.23268102 0.17325862 -0.08941684 0.215473 0.10408851 -0.09260609 0.047977556 -0.2135916
0.18496904 0.57249117 -0.35069242 -0.36874098
00000000: ef43 6e3e b56a 313e 2d20 b7bd f4a4 5c3e
00000010: 5b2c d53d 43a8 bdbd 1d84 443d c2b7 5abe
00000020: 8668 3d3e c88e 123f f58d b3be 9ecb bcbe

embedder.embedding_continuous.embedding.bias f4 [4]
-0.20929587 0.13009793 0.29010966 0.4424007
00000000: a851 56be 6438 053e 4189 943e 5882 e23e

embedder.embedding_discrete.embedding.weight f4 [8, 4]
0.10326118 0.5908632 2.5112169 0.058849785 0.667116 -0.7814133 -0.32099667 0.32753652
-0.6690319 -0.9249318 -2.7135966 -0.20919195 -0.13597152 -1.1482129 -0.6920785 -0.9106051
-0.33609927 -0.5256868 1.4708265 -0.5111625 0.7221895 0.58013564 -1.312305 -1.623567
1.7152721 -1.1152326 -0.1175031 -0.060936417 -0.028253729 -0.40649962 0.78784984 -1.7990892
00000000: 997a d33d d042 173f c7b7 2040 790c 713d
00000010: 1dc8 2a3f b40a 48bf ad59 a4be deb2 a73e
00000020: ad45 2bbf 55c8 6cbf 91ab 2dc0 6a36 56be
00000030: 1e3c 0bbe a4f8 92bf 0e2c 31bf 6a1d 69bf
00000040: 3415 acbe 6993 06bf 0b44 bc3f 8cdb 02bf
00000050: 69e1 383f c583 143f 9cf9 a7bf 0bd1 cfbf
00000060: 098e db3f f1bf 8ebf 77a5 f0bd 7798 79bd
00000070: 5d74 e7bc b820 d0be 87b0 493f 8e48 e6bf

encoder.epic.epic_proj.local_0.bias f4 [4]
0.08696288 0.19019127 0.22181626 -0.27159905
00000000: 9819 b23d 80c1 423e cd23 633e 080f 8bbe

encoder.epic.epic_proj.local_0.weight_g f4 [4, 1]
0.5269742 0.7505044 0.3916917 0.61659056
00000000: c8e7 063f 0e21 403f d18b c83e e1d8 1d3f

encoder.epic.epic_proj.local_0.weight_v f4 [4, 12]
0.17613792 -0.017256493 -0.16424522 -0.29901415 -0.14451566 0.07608964 0.09091744 -0.030046327
0.179038 0.22110185 -0.20299253 0.009960051 0.24556898 0.29792488 -0.2262689 -0.21030489
-0.25012732 -0.18944791 -0.24437317 0.086408354 0.15220201 0.25443554 0.060434043 0.1529146
-0.006126579 -0.019918881 -0.069554195 -0.1882668 0.005477695 -0.10727678 0.058534626 -0.2105708
-0.13752455 0.04929129 0.035161152 0.13416642 -0.20053521 -0.1921706 -0.25846273 0.10214714
-0.08477592 0.07363541 -0.14963935 -0.17174159 0.2635621 -0.17653045 0.16992852 0.037589982
00000000: 805d 343e 7d5d 8dbc e62f 28be 6218 99be
00000010: eafb 13be e3d4 9b3d ec32 ba3d b723 f6bc
00000020: bd55 373e 8668 623e 46dd 4fbe 7b2f 233c
00000030: 6f76 7b3e 9c89 983e 09b3 67be 2a5a 57be
00000040: b010 80be a2fe 41be f63c 7abe ddf6 b03d
00000050: d8da 1b3e 6045 823e b089 773d a595 1c3e
00000060: 78c1 c8bb ec2c a3bc 6e72 8ebd 03c9 40be
00000070: 3c7e b33b eeb3 dbbd 01c2 6f3d df9f 57be
00000080: 3cd3 0cbe aae5 493d 2405 103d ec62 093e
00000090: 1a59 4dbe 5fc8 44be 3a55 84be 8532 d13d
000000a0: ff9e adbd 29ce 963d 0f3b 19be 07dd 2fbe
000000b0: 9df1 863e 66c4 34be be01 2e3e f4f7 193d

encoder.epic.epic_proj.global_0.bias f4 [4]
-0.20732048 -0.024277857 -0.2734948 0.16412763
00000000: d24b 54be 5be2 c6bc 8307 8cbe 1311 283e

encoder.epic.epic_proj.global_0.weight_g f4 [4, 1]
0.6143223 0.68837094 0.6435601 0.62742984
00000000: 3a44 1d3f 1439 303f 5bc0 243f 3e9f 203f

encoder.epic.epic_proj.global_0.weight_v f4 [4, 12]
-0.17732325 0.05433384 0.22531545 -0.09502591 0.053968325 0.29686937 -0.08740312 0.24181402
0.05901181 -0.17779848 0.16131425 -0.089477494 -0.18706489 0.25059402 -0.26228315 -0.24553862
-0.13706154 0.2644873 -0.255598 -0.18129848 0.070196494 0.08216353 -0.11107832 0.10638392
-0.2100736 0.08790947 0.033590104 -0.16688037 -0.26816437 0.17543258 0.1820844 -0.15925926
0.20685443 -0.24563701 -0.0066038244 0.16572742 0.073887445 0.2591638 0.2046471 0.28901824
0.1649173 -0.21932909 -0.056616466 -0.015004109 0.2964455 -0.013891481 0.2402327 -0.1759548
00000000: 3a94 35be 298d 5e3d 18b9 663e f29c c2bd
00000010: e40d 5d3d 43ff 973e 6800 b3bd 189e 773e
00000020: 5eb6 713d ce10 36be 902f 253e fa3f b7bd
00000030: f08d 3fbe dc4d 803e fa49 86be 7a6e 7bbe
00000040: dc59 0cbe e16a 873e bedd 82be 4fa6 39be
00000050: 2ec3 8f3d 5a45 a83d 087d e3bd d0df d93d
00000060: 891d 57be e109 b43d c795 093d b0e2 2abe
00000070: d74c 89be 99a4 333e 5574 3a3e dc14 23be
00000080: a6d1 533e 4588 7bbe e564 d8bb 73b4 293e
00000090: 4d52 973d 1eb1 843e 028f 513e 33fa 933e
000000a0: 15e0 283e ce97 60be abe6 67bd cbd3 75bc
000000b0: b4c7 973e 1899 63bc 90ff 753e 7f2d 34be

encoder.epic.epic_proj.global_1.bias f4 [4]
0.15410285 0.041648712 -0.00097610825 -0.16219872
00000000: 23cd 1d3e d797 2a3d 84e1 7fba 6c17 26be

encoder.epic.epic_proj.global_1.weight_g f4 [4, 1]
0.54248303 0.43004975 0.59626675 0.61581683
00000000: 2be0 0a3f 7b2f dc3e f0a4 183f 2ca6 1d3f

encoder.epic.epic_proj.global_1.weight_v f4 [4, 4]
0.13089538 0.33670107 0.3067554 -0.2395876 0.38579747 -0.08971694 -0.027293133 0.119455345
-0.40890774 -0.07643203 -0.21319418 -0.34414843 0.14272903 -0.26027906 -0.37866148 -0.43542078
00000000: 7009 063e 1564 ac3e 0b0f 9d3e 7456 75be
00000010: 3f87 c53e 84bd b7bd d995 dfbc 01a5 f43d
00000020: 5b5c d1be 6588 9cbd 934f 5abe 3934 b0be
00000030: 8f27 123e 4c43 85be ebdf c1be 79ef debe

encoder.epic.epic_proj.global_2.bias f4 [4]
-0.28033325 -0.3907451 0.4157062 0.39564538
00000000: d787 8fbe be0f c8be 71d7 d43e 0892 ca3e

encoder.epic.epic_proj.global_2.weight_g f4 [4, 1]
0.4981998 0.45941713 0.41523492 0.9376177
00000000: 0b14 ff3e b938 eb3e ac99 d43e b707 703f

encoder.epic.epic_proj.global_2.weight_v f4 [4, 4]
-0.023495672 -0.10960579 -0.44477576 -0.0585555 -0.32606164 -0.14069393 0.16078913 0.27198264
0.01898414 0.050383125 -0.3053231 -0.20002672 -0.4166627 -0.5055533 -0.481189 -0.4498426
00000000: ff79 c0bc 0079 e0bd a6b9 e3be e4d7 6fbd
00000010: 8df1 a6be 1212 10be e8a5 243e 4f41 8b3e
00000020: a184 9b3c 895e 4e3d 4f53 9cbe ced3 4cbe
00000030: d054 d5be f16b 01bf 685e f6be c551 e6be

encoder.epic.epic_layers.0.fc_global1.bias f4 [4]
-0.01090674 -0.26924652 0.100955844 0.037530363
00000000: 2fb2 32bc aeda 89be f0c1 ce3d 70b9 193d

encoder.epic.epic_layers.0.fc_global1.weight_g f4 [4, 1]
0.64530396 0.530047 0.6143677 0.670421
00000000: a432 253f 29b1 073f 3447 1d3f b6a0 2b3f

encoder.epic.epic_layers.0.fc_global1.weight_v f4 [4, 16]
0.14401042 0.20443115 -0.1718608 0.03877104 -0.23152743 -0.12603036 0.13521266 0.0301165
0.02535932 0.03818178 0.05708735 0.19775914 -0.17283545 -0.17150049 -0.18765867 -0.09663394
0.0134481 -0.04406829 0.22765858 -0.22966662 -0.047259454 0.10520707 -0.19114837 0.21351704
-0.12058181 -0.18828729 0.06694001 0.07490236 0.054342717 0.009996432 -0.10151479 -0.2380554
0.2291052 -0.23117208 -0.004360563 -0.0015397639 -0.23221847 -0.12295766 0.20283476 -0.13418134
0.047742534 0.047899287 -0.03151016 0.16039519 -0.06164166 -0.20521717 -0.011906653 0.055273253
0.026940826 -0.102810055 -0.20514831 0.18933512 -0.17646192 0.098693386 0.117410615 -0.16123456
-0.20655215 -0.1969143 0.20098282 0.10707341 -0.066821 0.18500485 0.18829487 0.05791881
00000000: 7877 133e 6656 513e 47fc 2fbe 62ce 1e3d
00000010: 8715 6dbe 1a0e 01be 3075 0a3e e1b6 f63c
00000020: 59be cf3c 8064 1c3d 6dd4 693d 5f81 4a3e
00000030: c7fb 30be d39d 2fbe 9829 40be 04e8 c5bd
00000040: 6b55 5c3c f480 34bd 551f 693e ba2d 6bbe
00000050: 2193 41bd ce76 d73d 66bc 43be 36a4 5a3e
00000060: 99f3 f6bd 62ce 40be d817 893d 6966 993d
00000070: 7896 5e3d 13c8 233c fce6 cfbd cbc4 73be
00000080: 8e9a 6a3e 60b8 6cbe 0ee3 8ebb e7d1 c9ba
00000090: aeca 6dbe 3ad1 fbbd eab3 4f3e d566 09be
000000a0: ad8d 433d 0b32 443d cc10 01bd a33e 243e
000000b0: f77b 7cbd 7324 52be 1f14 43bc 3566 623d
000000c0: 02b3 dc3c 148e d2bd 6612 52be 11e1 413e
000000d0: 6fb2 34be c21f ca3d fa74 f03d ac1a 25be
000000e0: 6882 53be e7a3 49be 71ce 4d3e 4e49 db3d
000000f0: 73d9 88bd e971 3d3e 5fd0 403e 463c 6d3d

encoder.epic.epic_layers.0.fc_global2.bias f4 [4]
-0.29831827 -0.47411665 -0.18280293 -0.29286268
00000000: 2cbd 98be 6bbf f2be b130 3bbe 19f2 95be

encoder.epic.epic_layers.0.fc_global2.weight_g f4 [4, 1]
0.5002667 0.733549 0.63664246 0.58071643
00000000: 7a11 003f dec9 3b3f 00fb 223f d5a9 143f

encoder.epic.epic_layers.0.fc_global2.weight_v f4 [4, 4]
-0.44384682 -0.16563663 -0.089276865 -0.20865515 -0.41068736 0.38449985 -0.41753072 -0.047730025
-0.31886423 -0.37670723 0.0024807125 0.35637793 0.37439236 0.2039926 -0.11986393 -0.3792785
00000000: e43f e3be a69c 29be cad6 b6bd b2a9 55be
00000010: 9d45 d2be 2add c43e 96c6 d5be 8f80 43bd
00000020: 2c42 a3be c5df c0be 7393 223b 2b77 b63e
00000030: 5bb0 bf3e 70e3 503e 387b f5bd cb30 c2be

encoder.epic.epic_layers.0.fc_local1.bias f4 [4]
-0.104084305 -0.24264155 -0.05129839 0.09326589
00000000: 272a d5bd 0777 78be 431e 52bd 3002 bf3d

encoder.epic.epic_layers.0.fc_local1.weight_g f4 [4, 1]
0.4760468 0.511815 0.50454354 0.52200025
00000000: 68bc f33e 4f06 033f c429 013f cfa1 053f

encoder.epic.epic_layers.0.fc_local1.weight_v f4 [4, 12]
-0.10012095 0.12208149 0.07615138 -0.14905147 0.121965036 0.13294697 0.24578305 -0.015803253
0.0080771195 -0.111260004 0.20616558 -0.04864503 -0.13684793 -0.06279756 0.2219023 0.21081814
0.15187535 -0.10691068 -0.074144565 -0.30665192 0.108350076 0.03864308 -0.048204497 0.17741698
-0.1801129 -0.017761428 0.19691868 0.052061357 0.13940296 0.0399361 -0.20566824 0.021671968
-0.29880857 0.10389387 0.20490795 0.0020480817 0.11659229 -0.14317527 0.20596057 0.12314045
-0.07375152 -0.15002307 -0.06195402 0.12532847 0.19825956 -0.22467843 0.024696654 0.21807502
00000000: 360c cdbd dc05 fa3d 41f5 9b3d f3a0 18be
00000010: cec8 f93d 4023 083e 8dae 7b3e d375 81bc
00000020: e555 043c 49dc e3bd 121d 533e 0340 47bd
00000030: dd21 0cbe 029c 80bd 5b3a 633e b6e0 573e
00000040: 3685 1b3e fdf3 dabd 1bd9 97bd 7b01 9dbe
00000050: a5e6 dd3d 3548 1e3d 1472 45bd ccac 353e
00000060: 846f 38be 6a80 91bc 0da5 493e 4a3e 553d
00000070: a6bf 0e3e 0994 233d b29a 52be 6989 b13c
00000080: 70fd 98be 4fc6 d43d 64d3 513e 1c39 063b
00000090: f0c7 ee3d 8a9c 12be 54e7 523e 0f31 fc3d
000000a0: 090b 97bd a69f 19be 80c3 7dbd 1b56 003e
000000b0: 8e04 4b3e 1a12 66be a350 ca3c 0f4f 5f3e

encoder.epic.epic_layers.0.fc_local2.bias f4 [4]
-0.038695976 0.22311142 0.03166888 -0.16980462
00000000: ac7f 1ebd 5277 643e 3ab7 013d 43e1 2dbe

encoder.epic.epic_layers.0.fc_local2.weight_g f4 [4, 1]
0.71518755 0.38898566 0.782705 0.56350154
00000000: 8816 373f 2129 c73e 5b5f 483f a341 103f

encoder.epic.epic_layers.0.fc_local2.weight_v f4 [4, 4]
0.21814272 -0.34075707 -0.40217817 0.47742158 0.25582543 -0.038083818 -0.32171738 -0.03360677
-0.46704102 -0.15664908 0.4537395 -0.33928072 -0.3029492 -0.23658006 -0.22031984 -0.28437918
00000000: ce60 5f3e b677 aebe 4cea cdbe 9a70 f43e
00000010: 8dfb 823e c7fd 1bbd 24b8 a4be 41a7 09bd
00000020: 0020 efbe 9e68 20be 8b50 e83e 34b6 adbe
00000030: 281c 9bbe 0b42 72be 869b 61be 269a 91be

encoder.epic.output_layer.bias f4 [11]
-0.3191542 -0.333433 -0.37088048 -0.013019688 0.07293677 -0.29755422 -0.42810532 -0.42848107
0.28917426 0.3937693 0.009991611
00000000: 2e68 a3be bbb7 aabe 0ce4 bdbe 8850 55bc
00000010: e05f 953d 0759 98be 9f30 dbbe df61 dbbe
00000020: a60e 943e 219c c93e dbb3 233c

encoder.epic.output_layer.weight_g f4 [11, 1]
0.5828055 0.42880756 0.595288 0.7708341 0.5051235 0.6689407 0.6418054 0.47908625
0.47324964 0.59414774 0.79832256
00000000: be32 153f aa8c db3e cb64 183f 6255 453f
00000010: c64f 013f b33f 2b3f 5c4d 243f cb4a f53e
00000020: c74d f23e 111a 183f de5e 4c3f

encoder.epic.output_layer.weight_v f4 [11, 4]
-0.33324254 0.16538337 0.4835464 -0.009789621 -0.30237648 0.13934425 -0.10679521 -0.27304846
-0.36248398 0.12208236 -0.3271615 0.33428475 -0.5118804 -0.29637513 -0.33353442 -0.4344811
0.05291412 -0.36353943 -0.26424113 0.16348921 -0.03381271 -0.19497524 -0.46680704 -0.5005208
0.30212283 0.19776613 0.21116541 -0.45416653 -0.13080846 -0.37363583 0.1915192 -0.1409736
-0.01497212 -0.38996702 0.1944089 0.12106893 0.013067338 -0.39074755 -0.09039996 0.4073312
0.49226862 0.39880154 -0.15673728 0.5005401
00000000: c49e aabe 425a 293e 6593 f73e a664 20bc
00000010: 17d1 9abe 42b0 0e3e 72b7 dabd 02cd 8bbe
00000020: 8097 b9be 5106 fa3d b681 a7be 5f27 ab3e
00000030: 980a 03bf 7bbe 97be 06c5 aabe 4f74 debe
00000040: 7abc 583d d721 babe 9d4a 87be b769 273e
00000050: 327f 0abd 97a7 47be 5501 efbe 2222 00bf
00000060: d8af 9a3e 3483 4a3e bf3b 583e 8488 e8be
00000070: a7f2 05be 324d bfbe 9c1d 443e 625b 10be
00000080: 9f4d 75bc c2a9 c7be 2013 473e fdf2 f73d
00000090: 6318 563c 1010 c8be 9d23 b9bd b78d d03e
000000a0: a20a fc3e b72f cc3e bd7f 20be 6523 003f

loss_multimode.loss_weights f4 [2]
0.022175116 0.022252334
00000000: 97a8 b53c 874a b63c

exp_avg f4 [4, 3]
0.003956024 0.0038102367 0.0036631036 -0.0028151565 -0.0018748243 -0.002201697 0.00016807555 0.001209417
0.0039532143 -0.0036471693 -0.0039159916 -0.007849172
00000000: 89a1 813b 2ab5 793b ae10 703b 7d7e 38bb
00000010: aabc f5ba 594a 10bb 703d 3039 4d85 9e3a
00000020: f789 813b 5905 6fbb b851 80bb d099 00bc

exp_avg_sq f4 [4, 3]
7.0164106e-07 4.7386303e-07 4.2633047e-07 1.26046e-06 5.081674e-07 4.4453625e-07 9.3083963e-07 7.071911e-07
2.106822e-06 4.9006195e-07 6.5714215e-07 3.392374e-06
00000000: 6858 3c35 3d67 fe34 6ae2 e434 132d a935
00000010: ff68 0835 99a8 ee34 d0de 7935 cdd5 3d35
00000020: ed62 0d36 cd8c 0335 7766 3035 8ba8 6336

exp_avg f4 [4]
-0.009920379 0.0131533025 0.026168978 -0.018162249
00000000: 1689 22bc f380 573c 5360 d63c ffc8 94bc

exp_avg_sq f4 [4]
7.5198004e-06 9.402998e-06 3.5397938e-05 1.3463235e-05
00000000: 9852 fc36 92c1 1d37 3f78 1438 27e0 6137

exp_avg f4 [4]
0.1432337 -0.039856218 0.050601438 0.0005135269
00000000: dbab 123e 4640 23bd 7443 4f3d 359e 063a

exp_avg_sq f4 [4]
0.00097237725 7.0242655e-05 0.00013650896 1.2218601e-08
00000000: 22e7 7e3a 3d4f 9338 d823 0f39 fae9 5132

exp_avg f4 [4, 1]
0.08153184 -0.0043797875 -0.006330872 -0.0004203031
00000000: 2afa a63d 5284 8fbb 3473 cfbb 215c dcb9

exp_avg_sq f4 [4, 1]
0.0003617868 2.1498677e-06 1.8034953e-06 7.3057027e-09
00000000: 34ae bd39 7246 1036 a00f f235 a405 fb31

exp_avg f4 [4, 12]
0.093671225 0.13944685 0.079339825 0.04257964 -0.014983441 0.0020065294 0.027887935 0.0604561
-0.0135785965 -0.05078465 -0.10213964 -0.033950545 -0.031718653 -0.039246395 -0.022486294 -0.00155459
0.0061045554 -0.007143142 -0.014302532 -0.01372368 -0.002141792 0.025917983 0.054083757 0.011522756
0.0396767 0.05202087 0.030790452 -0.002962501 -0.0064636534 0.0077336538 0.019799171 0.0108999545
-0.0041850503 0.00086709164 0.07597499 0.00694367 0.00028603064 0.00039285692 8.755486e-05 8.034875e-05
-0.00016081911 0.00013841382 2.2990569e-05 0.00010135107 0.00022022666 -0.0002620168 0.00020891936 -2.8783395e-05
00000000: b3d6 bf3d 28cb 0e3e eb7c a23d fd67 2e3d
00000010: 1b7d 75bc fa7f 033b 3d75 e43c d1a0 773d
00000020: c378 5ebc 9103 50bd 962e d1bd ba0f 0bbd
00000030: 6beb 01bd d4c0 20bd 2d35 b8bc 62c3 cbba
00000040: b908 c83b 0511 eabb 2b55 6abc 49d9 60bc
00000050: 4f5d 0cbb f351 d43c ee86 5d3d f1c9 3c3c
00000060: 0984 223d d613 553d 423c fc3c 8526 42bb
00000070: 0ecd d3bb 976a fd3b df31 a23c b995 323c
00000080: bf22 89bb 894d 633a c798 9b3d ba87 e33b
00000090: 62f6 9539 5df8 cd39 a89d b738 e880 a838
000000a0: 8da1 28b9 2d23 1139 dfdb c037 718c d438
000000b0: a5ec 6639 4d5f 89b9 5d11 5b39 df73 f1b7

exp_avg_sq f4 [4, 12]
0.00040544078 0.00093814963 0.00031969853 9.775507e-05 9.172048e-06 1.4041359e-06 3.5735768e-05 0.00019443936
1.0955961e-05 0.00015195536 0.00046238466 4.739126e-05 4.4598968e-05 6.542614e-05 2.1024984e-05 2.2953333e-07
2.4336632e-06 2.4274673e-06 9.6294025e-06 1.0517441e-05 2.7944554e-07 2.4085532e-05 0.00011450232 5.418218e-06
8.483814e-05 0.00013939168 4.6476667e-05 4.3258316e-07 4.5199145e-06 3.0911115e-06 2.0792935e-05 1.2346194e-05
8.495542e-07 9.3387524e-07 0.00021655759 1.8233115e-06 4.3214485e-09 7.508387e-09 4.6073445e-10 2.8688066e-10
1.689879e-09 8.7629626e-10 3.5322437e-10 7.3155376e-10 2.351113e-09 3.2362062e-09 1.9469237e-09 8.761442e-11
00000000: 5791 d439 28ee 753a 369d a739 db01 cd38
00000010: a5e1 1937 be75 bc35 fde2 1538 6be2 4b39
00000020: 7fcf 3737 3556 1f39 386c f239 fac5 4638
00000030: c70f 3b38 6435 8938 cf5e b037 a475 7634
00000040: 0452 2336 92e7 2236 f88d 2137 1174 3037
00000050: b406 9634 490b ca37 f720 f038 23ce b536
00000060: 21eb b138 ab29 1239 f1ef 4238 c73d e834
00000070: c5a9 9736 e470 4f36 7d6c ae37 8022 4f37
00000080: ec0c 6435 6baf 7a35 bc13 6339 82b8 f435
00000090: dd7b 9431 3cfe 0032 9c4a fd2f ddb6 9d2f
000000a0: 5541 e830 dedf 7030 e92f c22f 8516 4930
000000b0: 3891 2131 f163 5e31 a5ca 0531 89aa c02e

exp_avg f4 [4]
-1.8555296e-05 -3.966703e-06 -5.2556684e-06 -2.0495813e-07
00000000: 32a7 9bb7 b819 85b6 d959 b0b6 7612 5cb4

exp_avg_sq f4 [4]
5.552007e-11 1.7016045e-11 1.840819e-11 2.0686148e-13
00000000: 0b2e 742e baac 952d 8feb a12d c3e7 682a

exp_avg f4 [4, 1]
-5.0125956e-05 -7.6522036e-07 3.880266e-06 1.9631045e-07
00000000: 563e 52b8 8b69 4db5 3b33 8236 68c9 5234

exp_avg_sq f4 [4, 1]
8.071677e-09 6.360047e-11 6.603151e-11 1.0301967e-13
00000000: 9cab 0a32 e2db 8b2e 6f34 912e ccfa e729

exp_avg f4 [4, 12]
-1.9572357e-05 1.9382978e-06 1.890302e-05 -9.238139e-06 -0.00012679916 -8.589522e-05 -7.078885e-05 2.9916244e-05
-3.1104646e-06 -3.621888e-05 -7.0188307e-06 -9.204729e-06 -1.0906168e-06 -6.836063e-07 -6.286936e-07 -2.303239e-07
-4.0260882e-05 -3.6985068e-05 -1.46576285e-05 1.5551013e-06 -2.1392607e-06 -3.9751676e-06 -3.9712295e-06 9.0575156e-08
4.65695e-07 -1.7983726e-06 -7.3884104e-07 1.1628473e-06 -3.9154147e-05 -3.605371e-05 -2.1787459e-05 3.2990094e-06
-4.2089314e-06 -3.7581297e-06 -5.810068e-06 -1.1714743e-06 -7.249547e-08 -1.318957e-07 -7.688182e-08 -7.9445726e-08
-1.7126312e-06 -1.8944236e-06 -6.458566e-07 6.051947e-08 -2.1983386e-07 -1.9195726e-07 -2.1173419e-07 4.6634938e-08
00000000: 512f a4b7 b413 0236 ed91 9e37 81fd 1ab7
00000010: 64f5 04b9 a522 b4b8 7974 94b8 a5f4 fa37
00000020: 60bd 50b6 bae9 17b8 4c83 ebb6 036e 1ab7
00000030: 4f61 92b5 1181 37b5 7fc3 28b5 f44e 77b4
00000040: cbdd 28b8 6a20 1bb8 09ea 75b7 e0b8 d035
00000050: 3890 0fb6 6e62 85b6 9a40 85b6 3882 c233
00000060: a204 fa34 9d5f f1b5 c554 46b5 2113 9c35
00000070: 7239 24b8 6038 17b8 36c4 b6b7 8d64 5d36
00000080: 723a 8db6 2d34 7cb6 1bf4 c2b6 8d3b 9db5
00000090: ceae 9bb3 379f 0db4 3a1a a5b3 c09b aab3
000000a0: 8fdd e5b5 e643 feb5 ed5e 2db5 eef6 8133
000000b0: 790b 6cb4 cf1c 4eb4 0d59 63b4 a84b 4833

exp_avg_sq f4 [4, 12]
9.910407e-10 3.8977238e-11 1.3798016e-09 2.7220354e-10 4.45294e-09 2.1422451e-08 3.9267904e-09 1.8992814e-09
2.160437e-11 1.4211473e-09 5.7814176e-10 2.4586447e-10 1.0108072e-11 4.174753e-12 1.2377089e-11 8.676646e-12
2.611896e-09 4.072689e-09 5.9006994e-10 9.967864e-13 5.784799e-12 1.2180552e-11 1.6242088e-11 1.6691379e-12
1.3591893e-11 6.932225e-13 2.3815411e-13 5.4263863e-12 2.2231585e-09 5.0162705e-09 8.200179e-10 1.8089297e-12
3.5150127e-12 5.344059e-11 1.039369e-11 5.356502e-12 2.9835905e-14 5.6374095e-14 1.922476e-14 1.7100482e-14
1.2965558e-11 1.2322681e-11 2.0394858e-12 9.023223e-15 2.0764317e-13 1.9646248e-13 1.2880766e-13 5.9295644e-15
00000000: 2535 8830 786c 2b2e 74a3 bd30 3ea5 952f
00000010: 7900 9931 7804 b832 6aec 8631 8384 0231
00000020: b708 be2d 2d52 c330 1ceb 1e30 592a 872f
00000030: b6d2 312d d5e2 922c 74bd 592d 24a4 182d
00000040: f67c 3331 c0ef 8b31 7b32 2230 0449 8c2b
00000050: d688 cb2c 5448 562d eedd 8e2d 08e9 ea2b
00000060: 721c 6f2d f21f 432b a011 862a 8bec be2c
00000070: 38c6 1831 955b ac31 a167 6130 9095 fe2b
00000080: d758 772c c108 6b2e 05d9 362d 1577 bc2c
00000090: 755e 0629 e8e2 7d29 4729 ad28 0707 9a28
000000a0: af17 642d 6cc8 582d 1c84 0f2c 458c 2228
000000b0: 12c9 692a 7432 5d2a 4806 112a 94a2 d527

exp_avg f4 [4]
-1.3818897e-05 -4.5581757e-05 3.132727e-06 1.6655762e-05
00000000: b6d7 67b7 0a2f 3fb8 d73b 5236 fab7 8b37

exp_avg_sq f4 [4]
2.7269506e-11 3.9329898e-10 2.2772322e-12 5.48377e-10
00000000: 78dd ef2d e937 d82f f83e 202c 9abc 1630

exp_avg f4 [4, 1]
1.1674793e-05 -7.5563665e-05 -4.7843814e-06 8.638013e-06
00000000: dbde 4337 ef77 9eb8 8689 a0b6 fceb 1037

exp_avg_sq f4 [4, 1]
7.601788e-10 1.0422826e-08 7.416479e-11 1.4179635e-10
00000000: d4f4 5030 1310 3332 1117 a32e 20e8 1b2f

exp_avg f4 [4, 4]
-1.5029973e-05 1.206673e-06 7.917141e-06 5.1527322e-06 -1.5800428e-05 -1.8260987e-05 1.8060053e-05 2.4734694e-05
4.1432754e-06 4.927952e-07 -2.6801779e-06 -2.9993578e-06 6.3461666e-05 1.9924284e-05 5.639104e-06 5.4477136e-06
00000000: 3e29 7cb7 f8f4 a135 ddd3 0437 a2e5 ac36
00000010: 298b 84b7 2c2f 99b7 ab7f 9737 5a7d cf37
00000020: 7706 8b36 a148 0435 1bdd 33b6 9348 49b6
00000030: b916 8538 1323 a737 8937 bd36 81cb b636

exp_avg_sq f4 [4, 4]
8.511187e-10 4.0210456e-12 1.887501e-11 1.5893717e-10 1.5602286e-09 8.774859e-09 2.9864304e-09 1.0715842e-09
1.6264858e-11 1.5611346e-11 5.5488383e-13 2.8763903e-11 7.915875e-09 6.7015415e-10 1.4559062e-10 5.789995e-11
00000000: 27f4 6930 5c7a 8d2c be06 a62d d6c0 2e2f
00000010: aa6f d630 3dc0 1632 d739 4d31 0447 9330
00000020: 3411 8f2d a051 892d 982f 1c2b 8d02 fd2d
00000030: 63fe 0732 e835 3830 1e14 202f 8ca5 7e2e

exp_avg f4 [4]
3.3598465e-07 -9.527551e-07 -0.000924396 -1.2953427e-07
00000000: 6161 b434 d5c0 7fb5 2a53 72ba 1c16 0bb4

exp_avg_sq f4 [4]
2.3043448e-14 1.7663318e-12 2.0290351e-07 1.9166189e-13
00000000: 938e cf28 cf96 f82b b1dd 5934 c7ca 572a

exp_avg f4 [4, 1]
-2.8214194e-08 9.4377197e-07 -7.3101044e-05 -3.1535959e-07
00000000: ab5b f2b2 8457 7d35 d34d 99b8 b14e a9b4

exp_avg_sq f4 [4, 1]
8.623427e-15 3.058254e-11 2.455613e-08 1.9082202e-13
00000000: 8a58 1b28 e180 062e 80ef d232 b4d8 562a

exp_avg f4 [4, 4]
-4.4190944e-08 2.0198748e-07 -2.7526939e-08 -8.1738827e-10 1.7103449e-07 -1.0906032e-06 -2.2691658e-07 -4.960761e-07
-0.00040303983 -0.0008586792 -5.1995517e-05 -5.4381653e-05 3.0762183e-07 4.1377433e-08 -1.694011e-07 -1.4854847e-07
00000000: 75cc 3db3 e5e1 5834 6174 ecb2 96ae 60b0
00000010: 9aa5 3734 d760 92b5 5ba6 73b4 172a 05b5
00000020: 174f d3b9 fc18 61ba c315 5ab8 db17 64b8
00000030: 3927 a534 f8b6 3133 9fe4 35b4 b180 1fb4

exp_avg_sq f4 [4, 4]
2.5427284e-13 1.350637e-13 1.0078333e-14 1.9654081e-16 3.784108e-12 7.597232e-12 2.786017e-12 9.114929e-12
1.7102883e-06 1.0458183e-06 1.5742499e-08 9.708934e-09 3.029318e-14 6.386314e-14 5.5086178e-14 3.0782173e-14
00000000: 9424 8f2a 7611 182a 1b8e 3528 9c98 6225
00000010: 3724 852c e4a6 052d 6c0c 442c fe59 202d
00000020: 0f8d e535 0b5e 8c35 1f3a 8732 58cc 2632
00000030: a96d 0829 98ce 8f29 0a16 7829 6ea1 0a29

exp_avg f4 [4]
3.5812297e-06 0.00021380324 4.55762e-07 -0.00030728223
00000000: 0f55 7036 5f30 6039 74af f434 b91a a1b9

exp_avg_sq f4 [4]
4.011036e-12 1.4457566e-08 3.289054e-13 1.9643753e-08
00000000: 3320 8d2c 0c61 7832 4328 b92a 12bd a832

exp_avg f4 [4, 1]
-1.7860628e-05 -7.4207775e-05 -3.4086486e-06 -0.00013325065
00000000: 68d3 95b7 ff9f 9bb8 23c0 64b6 33b9 0bb9

exp_avg_sq f4 [4, 1]
2.8395541e-10 4.1481197e-08 4.007146e-11 8.870542e-08
00000000: 2c1b 9c2f 0f29 3233 743c 302e 527e be33

exp_avg f4 [4, 16]
5.62477e-06 7.875001e-06 -5.43059e-06 1.5000855e-06 2.6583839e-05 3.658396e-05 1.9519832e-05 -4.0651238e-07
1.0891179e-06 1.4876246e-06 3.820902e-06 6.5764034e-06 -3.4976395e-06 -1.8611514e-06 -2.697282e-06 -3.3372512e-06
2.907665e-05 3.3984365e-05 3.995644e-05 -2.6964826e-05 0.0013459849 0.0015834421 0.00073011004 -6.525897e-05
-1.466242e-05 -2.2164002e-05 9.224707e-05 9.032778e-06 9.541549e-05 0.00019991797 0.00021455418 -2.3442728e-05
1.5723734e-06 -1.264198e-06 -3.616495e-08 2.1212935e-08 6.016604e-06 6.667564e-06 3.2176429e-06 -1.0929962e-06
3.6718316e-07 3.6615293e-07 -1.2620257e-08 1.0321912e-06 -3.969627e-08 -8.224067e-07 1.821185e-07 4.1620376e-07
-5.468448e-05 -0.00010457213 -7.4036696e-05 4.5853805e-05 -0.0024358004 -0.0027911728 -0.0011893212 9.708648e-05
-4.5275374e-05 -4.2313823e-05 -0.00010216288 2.6712298e-05 -0.00019005098 -0.0002941657 -0.00029395794 1.2155248e-05
00000000: 68bc bc36 df1e 0437 6a38 b6b6 8c56 c935
00000010: 5c00 df37 ba71 1938 85be a337 a33e dab4
00000020: ce2d 9235 64aa c735 4c35 8036 e0aa dc36
00000030: fdb8 6ab6 adcc f9b5 f402 35b6 8af5 5fb6
00000040: a1e9 f337 6f8a 0e38 e796 2738 8632 e2b7
00000050: c26b b03a 808b cf3a db64 3f3a a5db 88b8
00000060: 9dfe 75b7 d5ec b9b7 c574 c138 7c8b 1737
00000070: cd19 c838 12a1 5139 f3f9 6039 e0a6 c4b7
00000080: 570a d335 83ad a9b5 c853 1bb3 bd37 b632
00000090: 3ce2 c936 f0b9 df36 afee 5736 10b3 92b5
000000a0: 4521 c534 ad93 c434 7ad0 58b2 d289 8a35
000000b0: 837e 2ab3 5cc3 5cb5 5a8c 4334 9c72 df34
000000c0: 035d 65b8 bc4d dbb8 2644 9bb8 2653 4038
000000d0: f3a1 1fbb 1cec 36bb ffe2 9bba e89a cb38
000000e0: 10e6 3db8 1f7a 31b8 4740 d6b8 3914 e037
000000f0: 6c48 47b9 403a 9ab9 5e1e 9ab9 65ee 4b37

exp_avg_sq f4 [4, 16]
2.5562961e-11 5.533302e-11 2.688585e-11 2.0355044e-12 3.4303288e-10 3.0182863e-09 3.876212e-10 1.2360531e-13
1.0518641e-12 1.9210033e-12 1.00778075e-11 3.812604e-11 1.37548e-11 1.1233752e-11 2.5199207e-11 1.00580785e-11
2.5468616e-10 3.727476e-09 4.1818073e-09 5.8072764e-09 1.26735e-06 6.0279517e-06 6.0012735e-07 1.278266e-08
1.5188737e-09 3.732467e-09 1.4943167e-09 6.6480416e-10 4.593851e-09 1.1903254e-08 1.0000489e-08 6.465382e-09
8.310788e-12 5.8457987e-12 1.1580535e-15 2.066738e-15 4.708483e-11 4.697916e-10 5.7747793e-11 3.6122947e-12
4.0789155e-13 3.9716543e-13 3.5383925e-15 3.708862e-12 5.37853e-14 3.487844e-12 1.0803682e-14 5.347066e-13
4.4961118e-10 1.4127219e-08 1.4993175e-08 9.827569e-09 2.4158458e-06 1.161986e-05 8.439396e-07 1.4822842e-09
1.1243983e-08 9.930122e-09 1.3292573e-09 3.5629193e-09 2.2444677e-08 5.936143e-09 3.668561e-09 9.919218e-10
00000000: acda e02d 715b 732e 8d7d ec2d 633c 0f2c
00000010: 9695 bc2f 416a 4f31 d618 d52f ce2a 0b2a
00000020: 6609 942b b82d 072c 694a 312d 1bae 272e
00000030: 1dfa 712d 52a0 452d 92a7 dd2d 8ff1 302d
00000040: e403 8c2f 3a13 8031 91af 8f31 5889 c731
00000050: d019 aa35 b643 ca36 7018 2135 bc9a 5b32
00000060: 9ec0 d030 203f 8031 9860 cd30 6fbd 3630
00000070: f1d7 9d31 117f 4c32 9ece 2b32 1a26 de31
00000080: 7634 122d 46ae cd2c a2e4 a626 96ec 1427
00000090: ce14 4f2e a522 0130 3cfa 7d2e 5131 7e2c
000000a0: 5e9f e52a 9295 df2a d2f7 7e27 767e 822c
000000b0: 3b3a 7229 696f 752c 309f 4228 ac81 162b
000000c0: 262d f72f 2bb4 7232 57ca 8032 1bd6 2832
000000d0: ea1f 2236 ebf2 4237 168b 6235 3db9 cb30
000000e0: 8f2b 4132 2399 2a32 15b1 b630 8ad7 7431
000000f0: 5ecc c032 def6 cb31 021a 7c31 2554 8830

exp_avg f4 [4]
-1.2198744e-05 -0.00012435125 -0.0008730107 2.1558239e-05
00000000: 35a9 4cb7 4964 02b9 c2da 64ba f7d7 b437

exp_avg_sq f4 [4]
2.6475747e-11 2.067108e-08 1.8416783e-07 2.7504743e-10
00000000: 15e2 e82d 3090 b132 abbf 4534 7c35 972f

exp_avg f4 [4, 1]
6.793297e-06 -3.997102e-05 -0.00027521336 -1.0401249e-05
00000000: faf1 e336 8ea6 27b8 834a 90b9 0681 2eb7

exp_avg_sq f4 [4, 1]
1.1618005e-11 1.5818454e-08 2.2648054e-08 5.575795e-11
00000000: d862 4c2d 26e1 8732 998b c232 df39 752e

exp_avg f4 [4, 4]
5.9901417e-06 -4.0096415e-06 1.4825443e-06 -9.63e-06 -1.7878074e-05 -3.9266957e-05 -1.8842591e-05 9.8342956e-05
-0.00012530811 4.133211e-05 2.2979011e-05 -9.3286144e-05 5.521218e-06 2.371719e-05 -3.1641084e-06 1.9552881e-05
00000000: edfe c836 8f8a 86b6 d6fb c635 8990 21b7
00000010: dff8 95b7 93b2 24b8 2810 9eb7 793d ce38
00000020: 2465 03b9 045c 2d38 0dc3 c037 9ea2 c3b8
00000030: e742 b936 47f4 c637 f856 54b6 7e05 a437

exp_avg_sq f4 [4, 4]
8.907861e-12 8.497058e-12 4.84779e-13 1.5701884e-11 4.323566e-09 3.627576e-08 4.6357433e-09 8.4222236e-08
4.363774e-09 1.9030814e-07 3.843374e-10 2.7854992e-07 3.4439927e-11 4.6332843e-10 8.5795005e-13 6.007878e-11
00000000: 71b5 1c2d 597b 152d 0274 082b 801d 8a2d
00000010: 7d8e 9431 9fcd 1b33 6e48 9f31 aadd b433
00000020: 29f0 9531 8157 4c34 ae4a d32f 9c8b 9534
00000030: e977 172e aeb7 fe2f d17d 712b 591d 842e

exp_avg f4 [4]
-0.00038927273 -0.00033128323 -2.1600206e-06 0.014632534
00000000: 4d17 ccb9 15b0 adb9 dff4 10b6 4cbd 6f3c

exp_avg_sq f4 [4]
8.68597e-07 4.943232e-09 2.8618437e-08 2.8618253e-05
00000000: 8829 6935 21d9 a931 9cd4 f532 3b11 f037

exp_avg f4 [4, 1]
-0.0011491629 8.594167e-06 0.0001307039 -0.0014539622
00000000: 829f 96ba ab2f 1037 900d 0939 e092 beba

exp_avg_sq f4 [4, 1]
2.768419e-07 3.518904e-12 1.9648791e-09 1.3843314e-07
00000000: dca0 9434 f09e 772c 8506 0731 36a4 1434

exp_avg f4 [4, 12]
0.0025797754 0.00053987716 -0.00037757627 -0.00042859963 0.00032450046 0.0008499018 0.00087683165 -5.666048e-05
0.0008164621 -0.00069716957 -0.001615682 -0.00016462283 -8.497276e-05 -0.00016235668 -4.0110917e-05 -5.469187e-07
4.8072e-07 -1.6668604e-05 -0.00025475054 7.320704e-06 -0.00026531614 -0.00031412527 -0.00014251612 -4.1768526e-06
-3.0433015e-05 -2.3339197e-05 -7.650923e-06 -1.0847818e-05 -3.170058e-05 -2.2272325e-05 -2.1216578e-05 -3.7931861e-06
2.3287992e-05 -2.5034047e-05 2.1446722e-05 6.0173114e-08 0.0069387043 0.0061427294 0.0021985918 0.00019224347
-0.00030683444 -0.0001843415 0.008203675 0.00024886653 0.013113904 0.013770508 0.0059111435 0.00065836334
00000000: 7311 293b 8b86 0d3a 6ef5 c5b9 abb5 e0b9
00000010: b721 aa39 f2cb 5e3a 2ddb 653a baa6 6db8
00000020: d807 563a 42c2 36ba 4bc5 d3ba 9b9e 2cb9
00000030: 6733 b2b8 4a3e 2ab9 c53c 28b8 f8cf 12b5
00000040: d40a 0135 8ed3 8bb7 0a90 85b9 5ea4 f536
00000050: 211a 8bb9 2eb1 a4b9 6170 15b9 e426 8cb6
00000060: 674a ffb7 8bc8 c3b7 775c 00b7 06ff 35b7
00000070: 3df6 04b8 74d5 bab7 41fa b1b7 718e 7eb6
00000080: 955a c337 3500 d2b7 7ce8 b337 8538 8133
00000090: 125e e33b f348 c93b 4016 103b f794 4939
000000a0: 9fde a0b9 cb4b 41b9 b568 063c 4d7a 8239
000000b0: b3db 563c b29d 613c 44b2 c13b 0496 2c3a

exp_avg_sq f4 [4, 12]
1.7764587e-07 1.6665702e-07 3.6348105e-08 3.391666e-08 2.602455e-08 3.3192727e-08 1.9972056e-07 3.7230397e-10
6.0040173e-07 1.2031454e-06 1.4904695e-07 5.1782707e-09 4.2793982e-10 1.0751481e-09 9.254927e-11 9.479517e-14
4.6999053e-14 1.02638184e-11 1.6809497e-09 2.0648704e-12 3.3421175e-09 4.607585e-09 9.403608e-10 7.8010455e-13
1.2657007e-10 4.2197703e-09 2.2876216e-09 1.5562012e-11 1.252273e-10 1.9728365e-11 4.757278e-09 2.4604943e-12
1.3970543e-08 2.4881095e-08 1.43999985e-08 1.2490516e-12 5.699926e-06 4.268901e-06 3.7592642e-07 7.4361193e-09
4.877585e-09 1.5617617e-08 3.8217427e-06 6.11273e-09 2.0592362e-05 2.7331878e-05 5.2721266e-06 2.4951055e-08
00000000: edbe 3e34 55f2 3234 2a1d 1c33 c3ab 1133
00000010: 978c df32 ca8f 0e33 c572 5634 20ad cc2f
00000020: 4b2b 2135 c37b a135 b709 2034 8dec b131
00000030: 2d43 eb2f 69c4 9330 9b84 cb2e b275 d529
00000040: 38aa 5329 2190 342d 2907 e730 664d 112c
00000050: 27ab 6531 bf50 9e31 013e 8130 7594 5b2b
00000060: 4f2a 0b2f 7efd 9031 4434 1d31 89e2 882d
00000070: 5ab0 092f 5488 ad2d 7675 a331 5324 2d2c
00000080: 1903 7032 1bba d532 dd63 7732 d4c9 af2b
00000090: fe41 bf36 953d 8f36 efd2 c934 cc80 ff31
000000a0: b197 a731 8127 8632 853c 8036 2408 d231
000000b0: c3bd ac37 c346 e537 39e7 b036 f353 d632

exp_avg f4 [4]
0.08860822 -0.019293647 0.028494718 0.00044696504
00000000: 3a78 b53d b60d 9ebc c16d e93c a256 ea39

exp_avg_sq f4 [4]
0.00033898943 1.53662e-05 4.7717225e-05 6.9392914e-09
00000000: 64ba b139 aae6 8037 fb23 4838 a76e ee31

exp_avg f4 [4, 1]
0.005054244 -0.0011149799 -0.0036456422 -4.2946664e-05
00000000: 129e a53b 8424 92ba baeb 6ebb a121 34b8

exp_avg_sq f4 [4, 1]
1.4917147e-06 3.6426847e-08 3.931886e-07 4.380901e-11
00000000: ed36 c835 be73 1c33 6e17 d334 8fac 402e

exp_avg f4 [4, 4]
0.010982518 0.0020002348 0.002375918 -0.0016535111 -0.0010524632 -5.1733376e-05 -0.00076892274 -0.0004508431
0.0036176143 -0.00087063626 0.0022516688 -0.001521769 5.1127787e-05 -2.189023e-05 -2.0627787e-05 -1.963502e-05
00000000: 05f0 333c 5f16 033b 4ab5 1b3b a0ba d8ba
00000010: cef2 89ba 4afc 58b8 8891 49ba 235f ecb9
00000020: 7f15 6d3b 693b 64ba bc90 133b 1876 c7ba
00000030: 0b72 5638 e9a0 b7b7 d609 adb7 e2b5 a4b7

exp_avg_sq f4 [4, 4]
2.7471935e-06 2.3894e-07 3.765529e-07 6.3633115e-07 3.0751565e-08 1.9642725e-10 1.770619e-08 9.198418e-08
3.485607e-07 2.3969546e-08 1.5790665e-07 1.5193883e-07 5.7589638e-11 1.1569508e-11 1.0039954e-11 1.6657438e-11
00000000: 6d5c 3836 aa47 8034 0929 ca34 58d0 2a35
00000010: b413 0433 5bf9 572f 5318 9832 d688 c533
00000020: d121 bb34 97e5 cd32 0d8d 2934 a124 2334
00000030: 2b48 7d2e 6f88 4b2d ef9f 302d 3785 922d

exp_avg f4 [11]
-0.044887077 -0.06403408 -0.10468541 -0.030920979 0.002539396 -0.027751615 -0.019990684 0.007077424
0.015105696 0.016317865 0.0376229
00000000: 83db 37bd 4d24 83bd 4e65 d6bd fe4d fdbc
00000010: ff6b 263b 5b57 e3bc 81c3 a3bc bce9 e73b
00000020: e27d 773c 0bad 853c 781a 1a3d

exp_avg_sq f4 [11]
8.6893284e-05 0.00020011277 0.00045647073 3.405887e-05 3.0478728e-07 2.6625481e-05 1.3874139e-05 1.8301434e-06
8.414231e-06 9.552157e-06 4.665949e-05
00000000: 7a3a b638 5dd5 5139 7752 ef39 6fda 0e38
00000010: a5a1 a334 c959 df37 f9c4 6837 40a3 f535
00000020: d92a 0d37 3442 2037 3fb4 4338

exp_avg f4 [11, 1]
0.007961119 0.0077530085 0.018004382 0.024609283 -0.0017019674 0.012394728 -0.0077168015 -0.0074186516
-0.015663585 -0.014372739 0.033370417
00000000: 5a6f 023c f30c fe3b ed7d 933c 6899 c93c
00000010: 8d14 dfba 4213 4b3c 39dd fcbb 2918 f3bb
00000020: eb50 80bc a37b 6bbc 6baf 083d

exp_avg_sq f4 [11, 1]
9.951678e-06 1.3262259e-05 4.295006e-05 2.333885e-05 1.5021256e-07 5.7462744e-06 2.18686e-06 1.7101831e-06
7.428139e-06 6.4626015e-06 3.632057e-05
00000000: 22f6 2637 f880 5e37 4725 3438 ccc7 c337
00000010: 1d4a 2134 1fd0 c036 f8c1 1236 7289 e535
00000020: 3a3f f936 53d9 d836 ea56 1838

exp_avg f4 [11, 4]
-0.037520688 -0.03908813 -0.013008648 0.0006664598 -0.034258932 -0.07374484 -0.009342152 0.0052491035
-0.041598883 -0.13026965 -0.009766612 -0.008613093 0.009654766 -0.038561575 0.0030258717 0.012976729
0.0011509905 0.0011273307 -0.0009293874 0.0005847152 -0.021161381 -0.02936199 0.0049765534 0.008556595
0.0021272749 -0.017326137 0.00064775196 -0.0056975638 0.00027581817 0.003157221 0.004393957 -0.0024546953
0.0050174287 0.006095632 0.00958636 0.0043006875 0.006495054 0.011311629 0.00016808219 0.0104915295
-0.0039960663 0.03439943 0.011851911 -0.020114232
00000000: 4baf 19bd e01a 20bd 3922 55bc 5cb5 2e3a
00000010: 1853 0cbd 8907 97bd d30f 19bc ac00 ac3b
00000020: 9763 2abd 6865 05be 2404 20bc ee1d 0dbc
00000030: 062f 1e3c bef2 1dbd b44d 463b 599c 543c
00000040: d5dc 963a f1c2 933a 22a2 73ba 9347 193a
00000050: a25a adbc 8e88 f0bc 5b12 a33b f630 0c3c
00000060: c069 0b3b 8bef 8dbc e6cd 293a a1b2 babb
00000070: b09b 9039 61e9 4e3b 2ffb 8f3b f4de 20bb
00000080: 3e69 a43b debd c73b 1c10 1d3c c8ec 8c3b
00000090: 76d4 d43b 6954 393c 383f 3039 aae4 2b3c
000000a0: 6ff1 82bb 6be6 0c3d 852e 423c 9ac6 a4bc

exp_avg_sq f4 [11, 4]
6.84694e-05 6.342637e-05 1.2205305e-05 1.4203834e-08 5.6866847e-05 0.00026155013 5.2127484e-06 4.9539663e-06
7.5985794e-05 0.0006455281 4.0537966e-06 1.0561869e-05 3.2200933e-06 4.7052356e-05 2.6503585e-07 6.522023e-06
9.340862e-08 5.8411086e-08 3.2482134e-08 1.8301627e-08 1.8591556e-05 2.6104359e-05 7.095445e-07 2.7917945e-06
1.5186296e-07 8.769686e-06 4.8928293e-08 1.1954423e-06 3.6826485e-08 3.6677935e-07 7.542449e-07 1.9629928e-07
1.2694624e-06 1.5128484e-06 3.482601e-06 5.8754273e-07 1.919007e-06 4.1620383e-06 1.1486329e-07 3.4636307e-06
4.0190008e-07 3.406176e-05 6.0111233e-06 1.316739e-05
00000000: 3b97 8f38 c603 8538 63c5 4c37 1f05 7432
00000010: 5084 6e38 aa20 8939 2be9 ae36 3f3a a636
00000020: 905a 9f38 a838 293a d905 8836 e232 3137
00000030: c818 5836 155a 4538 404a 8e34 c0d7 da36
00000040: ef97 c833 abdf 7a33 7c82 0b33 b435 9d32
00000050: 10f5 9b37 affa da37 8777 3e35 aa5a 3b36
00000060: c60f 2334 8421 1337 3a25 5233 1673 a035
00000070: 262b 1e33 c5e9 c434 5177 4a35 56c6 5234
00000080: 6562 aa35 130d cb35 a1b6 6936 a1b7 1d35
00000090: 4ac8 0036 a3a7 8b36 c3aa f633 b970 6836
000000a0: bac4 d734 89dd 0e38 28b3 c936 82e9 5c37

exp_avg f4 [2]
-0.59509164 -0.64531845
00000000: ed57 18bf 9733 25bf

exp_avg_sq f4 [2]
0.0127674695 0.014513478
00000000: a62e 513c f0c9 6d3c
