tests/output/multimodal-jets/a1b97e755a7c4ef3bc14f980f65bb542/checkpoints/better.ckpt (torch, 48184 bytes, 93 tensors)

embedder.embedding_continuous.embedding.weight f4 [4, 3]
0	0xbe3ee39f	-0.18641518
1	0xbde22e70	-0.110440135
2	0xbe2343b2	-0.15943792
3	0xbe9bc028	-0.3042004
4	0x3eba249b	0.36356053
5	0x3e6a5464	0.22883755
6	0x3ec179ac	0.3778814
7	0x3e2a2afa	0.16617957
8	0xbe5b6c6a	-0.21428075
9	0x3e2c9220	0.16852617
10	0xbe28b8cc	-0.16476744
11	0x3dac31fd	0.08407972

embedder.embedding_continuous.embedding.bias f4 [4]
0	0xbe746e03	-0.23870091
1	0x3ec9c7f4	0.39410365
2	0x3e20fb18	0.15720785
3	0x3f111e4d	0.5668686

embedder.embedding_discrete.embedding.weight f4 [8, 4]
0	0x3f8e9ca0	1.1141548
1	0x3fea5488	1.8307047
2	0x3f6891a8	0.90847254
3	0xbfdcec9e	-1.725971
4	0xbd2ac511	-0.041691843
5	0x3f1dd8d9	0.6165901
6	0x3f097c57	0.5370535
7	0xbfef850b	-1.8712476
8	0xbf9f8709	-1.2463084
9	0xbf4a5aae	-0.79044616
10	0xbe7d15ae	-0.24715301
11	0xbfa19203	-1.2622684
12	0xbdb52f53	-0.08846917
13	0x3eb73736	0.3578431
14	0xbf62d82f	-0.8861112
15	0xbdbd99b0	-0.09257829
16	0x3f927279	1.1441184
17	0x3e8d16a8	0.27556348
18	0x3ee655f9	0.44987467
19	0xbf0f0fb9	-0.55883366
20	0x3e1668b3	0.14688377
21	0x3fa229c1	1.2668992
22	0xbf47e934	-0.78090215
23	0xbe689f2b	-0.22716968
24	0x3f831c7d	1.0243069
25	0x3f2d812e	0.6777524
26	0xbfb9a838	-1.4504461
27	0xbe23436f	-0.15943693
28	0x3fab8f14	1.3403039
29	0x3e815334	0.2525879
30	0x3eb2a2dc	0.34889877
31	0x3ea6f133	0.32605895

encoder.epic.epic_proj.local_0.bias f4 [4]
0	0x3db0891d	0.08619902
1	0x3d996c76	0.074913904
2	0x3db758e2	0.089525
3	0xbe7ef673	-0.248987

encoder.epic.epic_proj.local_0.weight_g f4 [4, 1]
0	0x3f049411	0.5178843
1	0x3f1bd322	0.6086904
2	0x3f1f1d69	0.6215425
3	0x3f17ff7c	0.59374213

encoder.epic.epic_proj.local_0.weight_v f4 [4, 12]
0	0xbd55885e	-0.052132003
1	0x3ddbd43f	0.10733842
2	0x3de40443	0.11133625
3	0x3b51cf0a	0.0032014274
4	0xbe1c2ea3	-0.15252165
5	0xbd2495b2	-0.040181823
6	0x3e18ad57	0.14909874
7	0x3e5d80bd	0.21631141
8	0xbda6f21d	-0.08151648
9	0x3deede52	0.11663498
10	0xbdba2ed3	-0.09090962
11	0x3e71c3fb	0.23609917
12	0x3e8cf3d9	0.2752979
13	0xbd51f3d9	-0.051257942
14	0x3c46c1ec	0.0121311955
15	0x3e42a7d2	0.19009331
16	0x3e8690ca	0.2628234
17	0x3dee4bd9	0.116355605
18	0x3e21ed6d	0.15813227
19	0x3e55cb8f	0.20878433
20	0xbe4e31ca	-0.2013618
21	0xbdf81790	-0.12113869
22	0xbe15b0af	-0.1461818
23	0x3c8f00eb	0.017456492
24	0xbe93f3cb	-0.28896937
25	0x3db964db	0.0905244
26	0x3e55397d	0.20822711
27	0xbe276c7c	-0.16349977
28	0xbd366575	-0.04453035
29	0x3e608b36	0.21928105
30	0x3e0e9aac	0.1392619
31	0xbe909c1e	-0.28244108
32	0x3ce62af8	0.028096661
33	0xbe0cacf8	-0.13737857
34	0x3d2d44ea	0.04230205
35	0x3d030ac0	0.031992674
36	0x3db2e908	0.087358534
37	0xbd660dda	-0.056165554
38	0x3d842648	0.06452614
39	0xbe515267	-0.2044159
40	0xbe470892	-0.19436863
41	0xbeb324dd	-0.34989062
42	0x3e94213c	0.28931606
43	0x3e4f4e2b	0.20244662
44	0xbc0fb868	-0.008771993
45	0x3c8d3142	0.017235402
46	0xbb36b9ad	-0.0027881667
47	0x3d6ead4c	0.058270738

encoder.epic.epic_proj.global_0.bias f4 [4]
0	0x3e961dd2	0.29319626
1	0x3de2d250	0.1107527
2	0xbe88f872	-0.2675205
3	0xbdbf3f3c	-0.09338233

encoder.epic.epic_proj.global_0.weight_g f4 [4, 1]
0	0x3f186318	0.59526205
1	0x3f0c4d71	0.54805666
2	0x3f1da450	0.61578846
3	0x3f1f131a	0.6213852

encoder.epic.epic_proj.global_0.weight_v f4 [4, 12]
0	0xbd99d70b	-0.07511719
1	0xbe80cf29	-0.2515805
2	0xbde93627	-0.11387282
3	0x3e83a7bf	0.25713918
4	0xbd88efe5	-0.06686381
5	0xbe6bb22c	-0.23017186
6	0xbe5a8fb4	-0.21343881
7	0xbe91f7b3	-0.28509292
8	0x3ce485a0	0.027895749
9	0xbd1ff34c	-0.039050385
10	0x3e6fdd69	0.23424305
11	0xbe4280d5	-0.18994458
12	0xbe23c23c	-0.15992063
13	0xbe6033bd	-0.21894737
14	0x3e3b9976	0.1832026
15	0xbe087ec8	-0.13329613
16	0x3e563793	0.20919637
17	0xbe1588b3	-0.14602928
18	0x3d280e72	0.0410294
19	0xbe0741ad	-0.13208647
20	0x3ea8c2e8	0.32961202
21	0xbd43f659	-0.047842357
22	0xbe86cd3a	-0.2632845
23	0x3db50c80	0.08840275
24	0xbc049841	-0.008092941
25	0xbd4bad41	-0.049725775
26	0x3e8565c2	0.26054198
27	0xbe11e33c	-0.1424684
28	0x3d894c27	0.06703978
29	0x3e5ac18c	0.21362895
30	0xbe66c025	-0.22534235
31	0x3e2445fe	0.16042325
32	0xbe44478d	-0.1916792
33	0x3afba448	0.001919874
34	0x3e98a065	0.2980987
35	0xbe9666b1	-0.29375222
36	0x3e45c88d	0.19314785
37	0xbd2b4197	-0.0418106
38	0x3e1f3168	0.1554619
39	0x3e7f6491	0.24940707
40	0xbd1ff696	-0.039053522
41	0xbc1fcde6	-0.00975368
42	0xbe48a407	-0.19593821
43	0xbe465b94	-0.19370872
44	0x3e920dc1	0.28526118
45	0xbcfd65a8	-0.030932263
46	0xbe51ff6e	-0.20507595
47	0xbdc71c60	-0.09722209

encoder.epic.epic_proj.global_1.bias f4 [4]
0	0xbe892af1	-0.26790574
1	0x3e2118b2	0.15732077
2	0xbe4da1c9	-0.20081247
3	0xbf0cc71e	-0.5499133

encoder.epic.epic_proj.global_1.weight_g f4 [4, 1]
0	0x3eaeed25	0.34165302
1	0x3f3a05b0	0.7266493
2	0x3f2b19fa	0.6683651
3	0x3f017cf9	0.5058132

encoder.epic.epic_proj.global_1.weight_v f4 [4, 4]
0	0xbe987f3c	-0.29784572
1	0xbdc43b3f	-0.09581613
2	0x3d59dd51	0.05318958
3	0xbd812fa1	-0.063079126
4	0x3e45a957	0.1930288
5	0xbeb0c995	-0.34528795
6	0x3efbaf9d	0.4915742
7	0xbea34dd4	-0.31895316
8	0xbf000969	-0.5001436
9	0x3e95b7d5	0.29241815
10	0x3eb1fe06	0.34764117
11	0x3e7e703b	0.248475
12	0xbe90f5ce	-0.28312534
13	0xbea6be1b	-0.32566914
14	0x3e914dc2	0.28379637
15	0xbe6aebb2	-0.22941473

encoder.epic.epic_proj.global_2.bias f4 [4]
0	0xbeb8e789	-0.36114147
1	0xbe28b327	-0.16474591
2	0xbe6812fc	-0.22663492
3	0x3e48cb46	0.19608793

encoder.epic.epic_proj.global_2.weight_g f4 [4, 1]
0	0x3f208e72	0.62717354
1	0x3f055bdc	0.5209329
2	0x3ebaaf1c	0.36461723
3	0x3f12f714	0.5740826

encoder.epic.epic_proj.global_2.weight_v f4 [4, 4]
0	0xbeb29a8e	-0.3488354
1	0xbebad831	-0.36493066
2	0x3ebb9d5e	0.366435
3	0xbd096805	-0.033546466
4	0xbe5546ac	-0.2082774
5	0xbec85aaf	-0.39131686
6	0xbdc1010d	-0.094240285
7	0xbe69ebca	-0.22843853
8	0x3e6dc611	0.23220088
9	0xbe0d6cfe	-0.13811108
10	0x3cd662e4	0.026170202
11	0xbebf211a	-0.37329942
12	0x3ecca0f8	0.3996656
13	0x3d13243b	0.035923224
14	0x3acadfd3	0.0015478082
15	0xbedde443	-0.43338212

encoder.epic.epic_layers.0.fc_global1.bias f4 [4]
0	0xbe060ad2	-0.13090065
1	0xbe054a9d	-0.13016744
2	0x3e9a15a9	0.3009465
3	0x3e87d347	0.2652838

encoder.epic.epic_layers.0.fc_global1.weight_g f4 [4, 1]
0	0x3f00ad2a	0.5026423
1	0x3f288679	0.6583019
2	0x3f05384a	0.52039015
3	0x3f04214e	0.5161332

encoder.epic.epic_layers.0.fc_global1.weight_v f4 [4, 16]
0	0xbdc8557f	-0.09781932
1	0xbe376235	-0.17908557
2	0x3de970e1	0.11398483
3	0x3d9c4b98	0.07631606
4	0xbb55ac2c	-0.0032603843
5	0x3dc5fd2f	0.096674316
6	0xbd91b08b	-0.07113751
7	0xbda1df31	-0.079038985
8	0xbe05046d	-0.1298997
9	0x3dc0a2e0	0.09406066
10	0xbe798d50	-0.24370313
11	0xbe3daf65	-0.18523939
12	0x3da68138	0.08130115
13	0xbd1709c9	-0.036874566
14	0xbcd78710	-0.02630952
15	0xbe82985b	-0.25506863
16	0x3d954205	0.07287983
17	0xbddcfab1	-0.10790003
18	0xbd9b1c2b	-0.07573732
19	0xbdfdf17e	-0.123995766
20	0x3e4a3814	0.19747955
21	0x3c68c3ce	0.01420684
22	0xbe8568cd	-0.2605652
23	0x3e4a0778	0.19729412
24	0x3dbe90ab	0.09304937
25	0x3df96ccd	0.12178955
26	0x3e24a307	0.16077815
27	0x3d9410bd	0.07229755
28	0xbe3a9fc9	-0.18225016
29	0xbdcf379d	-0.10118029
30	0xbdd9a7c8	-0.10627705
31	0xbdde4d68	-0.10854608
32	0x3d1937a0	0.037406564
33	0xbd8f2f61	-0.06991459
34	0xbcd72267	-0.026261522
35	0x3d9e5322	0.077307
36	0x3e26a431	0.16273572
37	0x3e0b8afb	0.13627236
38	0x3cc18a48	0.023625508
39	0x3da398a0	0.07988095
40	0xbe6a2a8f	-0.22867797
41	0xbe261fe1	-0.16223098
42	0xbdd7dbc7	-0.10539966
43	0xbaa91c0b	-0.0012902034
44	0xbe5a1ca7	-0.21299993
45	0x3df38fa7	0.11892634
46	0xbdbd839f	-0.0925362
47	0xbdef4bb7	-0.11684363
48	0xbe34aa18	-0.1764301
49	0x3d90f199	0.07077331
50	0x3e26c8c2	0.1628752
51	0xbe7df4c1	-0.24800397
52	0xbe08fd03	-0.13377766
53	0xbd5cf811	-0.053947512
54	0xbdeded6b	-0.116175495
55	0xbd0b6d2b	-0.034039658
56	0xbe2371b2	-0.1596134
57	0xbe596fe1	-0.21234085
58	0xbd8618eb	-0.065477215
59	0xbe5738eb	-0.21017806
60	0x3de49206	0.11160664
61	0xbe064b08	-0.1311456
62	0xbe500b0b	-0.20316713
63	0x3e60198e	0.21884748

encoder.epic.epic_layers.0.fc_global2.bias f4 [4]
0	0x3e092176	0.1339167
1	0xbe962c23	-0.2933055
2	0x3e3175ec	0.1733014
3	0xbdaf0efa	-0.085477784

encoder.epic.epic_layers.0.fc_global2.weight_g f4 [4, 1]
0	0x3ed20272	0.4101749
1	0x3eeeefeb	0.46667418
2	0x3f170306	0.5898899
3	0x3f2915b6	0.66048753

encoder.epic.epic_layers.0.fc_global2.weight_v f4 [4, 4]
0	0xbe48e7b6	-0.1961964
1	0xbe4c7ed5	-0.19970258
2	0xbe522362	-0.2052131
3	0x3e8d8083	0.2763711
4	0xbe8e4502	-0.27787024
5	0x3df65021	0.12027002
6	0x3eb28f96	0.34875172
7	0xbe0bc68d	-0.1364996
8	0xbd551726	-0.05202403
9	0x3e046cf4	0.12932187
10	0x3f040b42	0.5157968
11	0x3e33d589	0.17561926
12	0xbe244d09	-0.16045012
13	0x3eeb6792	0.45977455
14	0xbe04b1fd	-0.12958522
15	0x3ed7e650	0.42167902

encoder.epic.epic_layers.0.fc_local1.bias f4 [4]
0	0x3eb6b280	0.3568306
1	0xbb3365d6	-0.0027373931
2	0x3d62dead	0.05538814
3	0x3e82aa4f	0.2552056

encoder.epic.epic_layers.0.fc_local1.weight_g f4 [4, 1]
0	0x3ef1850e	0.47171825
1	0x3f2db2b1	0.67850786
2	0x3f255598	0.6458373
3	0x3f1908ba	0.5977894

encoder.epic.epic_layers.0.fc_local1.weight_v f4 [4, 12]
0	0xbd42ea86	-0.04758694
1	0xbe3f4300	-0.18677902
2	0xbda1b1c4	-0.07895234
3	0xbd7a6f57	-0.06114134
4	0x3ceb3ca5	0.028715441
5	0xbcc48f39	-0.023994075
6	0x3e20700c	0.15667742
7	0x3c4ac916	0.012377044
8	0x3e2c877b	0.16848557
9	0x3cabfa01	0.020993235
10	0x3d0d9897	0.03456935
11	0xbdc9bb7c	-0.09850213
12	0xbe5f8e6f	-0.21831678
13	0x3e669034	0.22515947
14	0xbe4623d1	-0.193496
15	0xbe84b1b8	-0.2591684
16	0xbb97adaa	-0.0046288567
17	0xbe37504b	-0.17901723
18	0x3e878b8e	0.2647366
19	0x3bf923cf	0.0076031457
20	0xbbd339a8	-0.006446082
21	0x3e7822ff	0.242321
22	0x3d4d9c1c	0.050197706
23	0xbc96ae67	-0.018393708
24	0x3e70d1b4	0.23517495
25	0xbd25f5b7	-0.040517535
26	0x3cf00362	0.029298488
27	0xbdd478d3	-0.10374608
28	0x39cdbdc1	0.00039242025
29	0x3daaff5a	0.08349486
30	0x3e8868cc	0.26642454
31	0x3e65b9f2	0.22434214
32	0x3ec190f4	0.37805903
33	0x3e2ed668	0.17073977
34	0x3ca93a21	0.0206576
35	0x3aa0256e	0.0012218186
36	0x3d6629cb	0.0561922
37	0x3e70f815	0.23532136
38	0x3dd8eeb4	0.10592404
39	0x3eb08a36	0.34480447
40	0x3e236044	0.15954691
41	0xbe78b241	-0.24286748
42	0x3b04b8d7	0.0020251775
43	0x3d1c3d44	0.038144365
44	0x3e127ce6	0.14305457
45	0xbddde60f	-0.10834896
46	0xbd1fb8ca	-0.038994588
47	0x3e22af49	0.15887178

encoder.epic.epic_layers.0.fc_local2.bias f4 [4]
0	0x3dba4358	0.09094876
1	0xbe993b08	-0.2992785
2	0x3e300ee8	0.17193186
3	0xbd13fba9	-0.036128674

encoder.epic.epic_layers.0.fc_local2.weight_g f4 [4, 1]
0	0x3f1a9e09	0.6039739
1	0x3f0f55fe	0.5599059
2	0x3f1c4353	0.6104023
3	0x3f02d127	0.5110039

encoder.epic.epic_layers.0.fc_local2.weight_v f4 [4, 4]
0	0xbe8311fa	-0.25599653
1	0xbcb05e94	-0.021529473
2	0xbea2336c	-0.31679857
3	0x3ecf0bd2	0.40438706
4	0x3e89ccfb	0.269142
5	0x3dcb2ca2	0.099206224
6	0x3ebaafe3	0.36462316
7	0xbd7052a9	-0.05867258
8	0xbdf9b6d4	-0.12193075
9	0xbebe2bc0	-0.37142754
10	0xbd8ea08b	-0.06964215
11	0xbedde5d7	-0.43339416
12	0x3ec4aa7a	0.38411313
13	0x3c1d7d96	0.009612462
14	0x3ebdb11f	0.37049195
15	0xbd6aabdb	-0.0572928

encoder.epic.output_layer.bias f4 [11]
0	0xbe83f178	-0.25770164
1	0x3ebc9e2c	0.36839426
2	0xbb17fcff	-0.002319157
3	0x3e364a3e	0.17801759
4	0x3df6c444	0.120491534
5	0x3dc1fa7a	0.09471603
6	0x3e985940	0.29755592
7	0xbf1efb98	-0.6210265
8	0xbec8dabe	-0.39229387
9	0xbea8abd8	-0.32943606
10	0xbe2ee55f	-0.17079686

encoder.epic.output_layer.weight_g f4 [11, 1]
0	0x3f22ed57	0.636434
1	0x3f124737	0.57139915
2	0x3ef75815	0.4830939
3	0x3f28dbd9	0.6596046
4	0x3f2b1865	0.668341
5	0x3f670d99	0.90255123
6	0x3eb79dcf	0.35862586
7	0x3f2fe6e4	0.68711686
8	0x3f64ed41	0.8942452
9	0x3f487e0a	0.7831732
10	0x3ef02635	0.4690415

encoder.epic.output_layer.weight_v f4 [11, 4]
0	0x3e234e2c	0.15947789
1	0xbdfe4165	-0.12414817
2	0xbe96bef3	-0.29442558
3	0x3ec5ade5	0.38609233
4	0x3e64402d	0.22290106
5	0xbdddc718	-0.1082899
6	0x3e8f6169	0.28004006
7	0xbe741010	-0.23834252
8	0xbef0ee7e	-0.47056955
9	0xbdaa3929	-0.08311684
10	0x3edcd76f	0.43133113
11	0x3e76403d	0.24047942
12	0xbe623aeb	-0.22092788
13	0x3cc303d5	0.023805538
14	0xbcabc281	-0.02096677
15	0x3ec6b165	0.38807216
16	0x3e9a6b77	0.30160114
17	0xbed35955	-0.41279092
18	0x3d0a1f51	0.033721272
19	0xbe44219d	-0.19153447
20	0xbe83fb92	-0.2577787
21	0x3ec27eee	0.37987465
22	0x3e76789c	0.24069446
23	0xbd975d83	-0.07390883
24	0x3e3563ad	0.17713805
25	0x3e19717a	0.14984694
26	0xbeae199d	-0.34003916
27	0xbd9d49fc	-0.07680127
28	0x3d86627d	0.06561754
29	0xbeb55a2b	-0.35420355
30	0xbd7e3ec5	-0.06207158
31	0xbe446d95	-0.19182427
32	0xbe6da812	-0.23208645
33	0xbec6d7a2	-0.3883639
34	0x3e6abb16	0.2292293
35	0xbedeef5a	-0.43541986
36	0xbe3bb2c0	-0.18329906
37	0x3e469675	0.19393332
38	0xbe94d788	-0.29070687
39	0xbef85b4a	-0.48507148
40	0xbeab96ae	-0.33513397
41	0x3e82a2ce	0.25514835
42	0x3eead720	0.45867252
43	0x3daf37ed	0.08555589

loss_multimode.weights f4 [2]
0	0x3e3c78ed	0.18405505
1	0x3e1fbde0	0.15599775

exp_avg f4 [4, 3]
0	0x3c9f6091	0.019455226
1	0x3c15c69c	0.00914159
2	0x3b5c7b05	0.0033642661
3	0x3ceb4aa3	0.028722113
4	0x3be4d40e	0.0069832867
5	0x3b13eed8	0.0022572782
6	0xbd059742	-0.032614954
7	0xbc137ac7	-0.00900144
8	0xbb8f267f	-0.0043686028
9	0xbcd6ba8f	-0.026212005
10	0x3ac92577	0.0015346248
11	0x3b195988	0.0023399312

exp_avg_sq f4 [4, 3]
0	0x39057ddc	0.00012730755
1	0x37b59315	2.1645372e-05
2	0x36a7e23a	5.003324e-06
3	0x39a3aa87	0.00031216835
4	0x381eef98	3.7893275e-05
5	0x37840312	1.5737056e-05
6	0x39432213	0.00018609343
7	0x3787edb0	1.6203936e-05
8	0x371ac594	9.2251175e-06
9	0x398aeae7	0.00026496427
10	0x37f3e2d6	2.9073486e-05
11	0x37ac3e40	2.0532985e-05

exp_avg f4 [4]
0	0xba96bcb5	-0.0011500331
1	0xbba104ee	-0.0049139177
2	0x39eb3a2e	0.0004486604
3	0x3b0f4f5e	0.0021867375

exp_avg_sq f4 [4]
0	0x3753cb8a	1.262397e-05
1	0x3890e8d4	6.909823e-05
2	0x38525a40	5.0151953e-05
3	0x381452fa	3.5363228e-05

exp_avg f4 [8, 4]
0	0xb9bf2321	-0.00036456532
1	0x3a801d79	0.0009774409
2	0xb9f87b5b	-0.00047394153
3	0x39e26b36	0.00043185957
4	0xbb160bb2	-0.0022895155
5	0xbac0fc81	-0.001472369
6	0xbad44357	-0.0016194385
7	0xb979faa8	-0.00023839867
8	0x3b182b24	0.0023219073
9	0x3aed3bcb	0.0018099485
10	0x3ad28819	0.0016062289
11	0xb9734bb7	-0.00023202492
12	0xba044f26	-0.00050471944
13	0xbac1325c	-0.001473974
14	0xb9028130	-0.00012445892
15	0xbb084c5a	-0.0020797462
16	0x3a16c391	0.00057511876
17	0x39c1e3cd	0.00036981553
18	0x39dc933f	0.00042071377
19	0x3a1b3a6f	0.0005921488
20	0x395cf82f	0.0002107329
21	0x386d5265	5.658194e-05
22	0x3940fdc1	0.00018405078
23	0xb90075b4	-0.00012250879
24	0x39686de5	0.00022166183
25	0x39b3f836	0.00034326472
26	0x3910b0ac	0.00013798726
27	0x39f31e58	0.0004637118
28	0x39fa7b87	0.0004777575
29	0x3897b2e8	7.233565e-05
30	0x39c7baf2	0.00038095523
31	0xb7e17e90	-2.6881025e-05

exp_avg_sq f4 [8, 4]
0	0x347e25e5	2.366938e-07
1	0x354440db	7.3110067e-07
2	0x3465cc38	2.1401581e-07
3	0x35f8f186	1.8547732e-06
4	0x3559e917	8.117799e-07
5	0x34c1b741	3.6082386e-07
6	0x34d388b7	3.9401286e-07
7	0x343193d4	1.6538189e-07
8	0x35997dad	1.1435965e-06
9	0x35bbf5e9	1.4004155e-06
10	0x353e2e11	7.084755e-07
11	0x35943cc7	1.1044548e-06
12	0x3543762c	7.2815124e-07
13	0x35f2a7c9	1.8079237e-06
14	0x350d9814	5.2747896e-07
15	0x36194bdc	2.2842933e-06
16	0x33f91a38	1.1599735e-07
17	0x348b8050	2.5984127e-07
18	0x33a44022	7.648511e-08
19	0x3491ee1e	2.7181608e-07
20	0x33ea0d06	1.0898843e-07
21	0x344220b8	1.8079561e-07
22	0x33e87ed7	1.0826414e-07
23	0x34fcafef	4.7066666e-07
24	0x33d42e1d	9.880407e-08
25	0x3426666d	1.5497217e-07
26	0x33d38dc1	9.851238e-08
27	0x34b9f68e	3.4638327e-07
28	0x342e31c5	1.6223119e-07
29	0x34bfe8be	3.5745865e-07
30	0x341a78ab	1.4386266e-07
31	0x34ea7320	4.366966e-07

exp_avg f4 [4]
0	0xbbb37b8e	-0.0054773754
1	0xbb0b6b41	-0.0021273645
2	0xbbdddac7	-0.006770465
3	0x3c1989ef	0.009371265

exp_avg_sq f4 [4]
0	0x393552c6	0.0001729234
1	0x3918398a	0.00014517285
2	0x3a0bac4f	0.0005328105
3	0x398b7a98	0.00026603485

exp_avg f4 [4, 1]
0	0xbc894c24	-0.01675994
1	0xbbf636cf	-0.007513858
2	0xbbafcdcb	-0.0053651086
3	0xbd037872	-0.032097287

exp_avg_sq f4 [4, 1]
0	0x38c7a0d3	9.519015e-05
1	0x38401e63	4.5804667e-05
2	0x371de272	9.410653e-06
3	0x39a1ae2a	0.00030838075

exp_avg f4 [4, 12]
0	0xbc02486c	-0.007951837
1	0xbae1fcf1	-0.001724152
2	0x3afe6050	0.0019407365
3	0x390510b6	0.00012690094
4	0x3ad7b405	0.0016456848
5	0x3c020223	0.00793508
6	0xbc27b0a2	-0.010234984
7	0xb9427fd4	-0.00018548901
8	0x3b400e17	0.0029305273
9	0x3bc151ab	0.005899628
10	0x3bd0a26d	0.006367019
11	0x3beeaf94	0.007284114
12	0x3ad44ac4	0.0016196598
13	0xbb3c8514	-0.0028765844
14	0xba87682f	-0.0010330732
15	0x3b2776e0	0.0025553033
16	0x3b8f9a96	0.0043824418
17	0x3c0f8129	0.0087588215
18	0xbab628ec	-0.0013897694
19	0xbaeb8b5c	-0.001797061
20	0x3b334a3c	0.002735748
21	0x3c62b548	0.013837166
22	0x3b3c43f8	0.0028727036
23	0xbbbdddb9	-0.0057942537
24	0xbb89325c	-0.0041869115
25	0xbbd02d89	-0.0063530845
26	0xbc1462a3	-0.00905672
27	0xbae8da16	-0.001776519
28	0x3bd05e15	0.0063588717
29	0xbc091991	-0.008367912
30	0xbb202395	-0.002443527
31	0xbbc32335	-0.0059551247
32	0x3b27e393	0.0025617823
33	0xbc0f2373	-0.008736479
34	0xba4b006c	-0.00077438983
35	0x3c55f657	0.01305922
36	0x3caae1bd	0.020859594
37	0x3bd0c5a6	0.006371218
38	0xbbf4f944	-0.007476004
39	0xbc3d045b	-0.011536683
40	0x3c01417c	0.007889148
41	0xbb496e44	-0.003073589
42	0xbc850f45	-0.016242633
43	0x3bbfd0d6	0.0058537526
44	0x3bc6cec2	0.006067128
45	0x3b77731b	0.0037757817
46	0xbc2e1319	-0.01062467
47	0x3bb7984e	0.005602873

exp_avg_sq f4 [4, 12]
0	0x392e49cb	0.00016621423
1	0x391463d3	0.00014151567
2	0x37f62a6f	2.9345245e-05
3	0x34ce4325	3.8419344e-07
4	0x372ff43d	1.0487679e-05
5	0x384d5144	4.8951493e-05
6	0x3883dab5	6.287304e-05
7	0x383361e7	4.2768104e-05
8	0x38d99c6f	0.00010376504
9	0x38ff2b54	0.00012167418
10	0x3855ca9a	5.0971845e-05
11	0x397a555a	0.00023873654
12	0x3868dca0	5.5518583e-05
13	0x39224641	0.00015475696
14	0x38019505	3.0894782e-05
15	0x36d56cb2	6.3605485e-06
16	0x3842e5f8	4.646738e-05
17	0x381a1c6f	3.6742942e-05
18	0x37880185	1.6213171e-05
19	0x37d57769	2.5447183e-05
20	0x37dc2cbd	2.6246877e-05
21	0x386c5a68	5.6350982e-05
22	0x37d157b3	2.495558e-05
23	0x390af319	0.00013251267
24	0x39c7c68f	0.00038104175
25	0x3a0227bf	0.0004965029
26	0x3900238a	0.0001222027
27	0x359a2d0f	1.1487008e-06
28	0x383e9d2c	4.5445908e-05
29	0x390ec592	0.00013615776
30	0x384d91e5	4.9011684e-05
31	0x38e93e41	0.000111219015
32	0x386d4c47	5.6576242e-05
33	0x3862f18d	5.410756e-05
34	0x381f8ab4	3.803773e-05
35	0x395c63ca	0.0002101801
36	0x39340914	0.0001716952
37	0x398b6547	0.00026587603
38	0x3826ccf7	3.9768373e-05
39	0x38494595	4.7986938e-05
40	0x37e988c7	2.7839456e-05
41	0x3825122a	3.9355982e-05
42	0x38b765b9	8.745067e-05
43	0x386e551f	5.6822897e-05
44	0x38f84015	0.00011837498
45	0x391c7b97	0.0001492336
46	0x390e3c2a	0.00013564588
47	0x396f983e	0.00022849531

exp_avg f4 [4]
0	0xb49f95e6	-2.9725123e-07
1	0x37087774	8.134044e-06
2	0x3733400f	1.0684146e-05
3	0xb3d50ddc	-9.9211064e-08

exp_avg_sq f4 [4]
0	0x2a6754a5	2.0546288e-13
1	0x30b8a68c	1.3435097e-09
2	0x30e5f840	1.67325e-09
3	0x29d1d0c4	9.3176795e-14

exp_avg f4 [4, 1]
0	0xb5d84ad8	-1.6115036e-06
1	0x381ae62a	3.6930818e-05
2	0xb83db3b0	-4.522846e-05
3	0xb546b056	-7.401735e-07

exp_avg_sq f4 [4, 1]
0	0x2d1d7723	8.95087e-12
1	0x2fb302e9	3.2561978e-10
2	0x3341ecf9	4.515184e-08
3	0x2a69d5cc	2.0768733e-13

exp_avg f4 [4, 12]
0	0xb44ad356	-1.88896e-07
1	0xb528e34f	-6.2915655e-07
2	0xb4760c99	-2.2915118e-07
3	0x351c186b	5.815006e-07
4	0x361a80e0	2.3022803e-06
5	0x3569f029	8.7148743e-07
6	0x35a0e838	1.1988514e-06
7	0xb401e4c3	-1.2097284e-07
8	0xb4800f32	-2.3852914e-07
9	0xb4beedfa	-3.5563409e-07
10	0x35056ee6	4.970774e-07
11	0xb4e4e0c7	-4.2631856e-07
12	0x374e4e6f	1.2296819e-05
13	0x376dc032	1.417105e-05
14	0xb6e1fe4b	-6.735126e-06
15	0x3708ead3	8.160906e-06
16	0x39c5e970	0.00037748693
17	0x39c79aa0	0.00038071442
18	0x391d7f19	0.00015020034
19	0x38aa7029	8.127123e-05
20	0xb79639e5	-1.7908353e-05
21	0x3720a81a	9.575882e-06
22	0x37e0f952	2.681898e-05
23	0xb68f1f29	-4.2653596e-06
24	0xb5b2eac8	-1.3330364e-06
25	0xb42696bc	-1.5514792e-07
26	0x3770681c	1.4329355e-05
27	0xb72d99b5	-1.0347391e-05
28	0xb9761c72	-0.00023470985
29	0xb90a89b8	-0.0001321201
30	0xb91ab368	-0.00014753419
31	0xb84ca970	-4.879519e-05
32	0xb2c2391c	-2.2610543e-08
33	0x3727b36c	9.995751e-06
34	0x37aa796b	2.0322119e-05
35	0xb79cc571	-1.868859e-05
36	0x348ec743	2.6594543e-07
37	0xb3c1e424	-9.0287614e-08
38	0x347b4ed3	2.3404873e-07
39	0x34bb5bfc	3.4898392e-07
40	0x36133cb3	2.1940039e-06
41	0x35b8f0fb	1.3779203e-06
42	0x35863c2b	1.0001289e-06
43	0x3491c4dc	2.715159e-07
44	0x348b3e7c	2.593623e-07
45	0xb41f0b7c	-1.4812207e-07
46	0xb49c9aca	-2.9169888e-07
47	0xb40f72c9	-1.3359671e-07

exp_avg_sq f4 [4, 12]
0	0x2987f42f	6.0375634e-14
1	0x2b8149ce	9.186486e-13
2	0x2a7a58a6	2.2235217e-13
3	0x2ba8dd24	1.1998497e-12
4	0x2d7adf4b	1.4260436e-11
5	0x2db783a0	2.0863145e-11
6	0x2af31ac9	4.3184057e-13
7	0x2b343689	6.402453e-13
8	0x2a675e68	2.0549675e-13
9	0x294f9a75	4.6097203e-14
10	0x2bc0255e	1.3652792e-12
11	0x2b33744a	6.375496e-13
12	0x2ed72ca4	9.784998e-11
13	0x2f3617d9	1.6561276e-10
14	0x2d87eb1c	1.5452133e-11
15	0x2d799387	1.4186769e-11
16	0x340f0ffe	1.3323731e-07
17	0x347915f0	2.3197913e-07
18	0x316e266e	3.4655403e-09
19	0x31201f88	2.3300988e-09
20	0x3024db7b	5.9974753e-10
21	0x309d255f	1.1433875e-09
22	0x30190397	5.5666177e-10
23	0x2c785310	3.5289029e-12
24	0x2ebc044a	8.550012e-11
25	0x3021e002	5.8889793e-10
26	0x31d5873b	6.21449e-09
27	0x31084bf2	1.9833775e-09
28	0x3404be45	1.2362678e-07
29	0x344d8dc3	1.9143685e-07
30	0x325b8335	1.2777311e-08
31	0x31330efc	2.6056446e-09
32	0x320cc1e9	8.193163e-09
33	0x30b4944d	1.3138873e-09
34	0x31c2c4cb	5.668516e-09
35	0x320ab26e	8.073227e-09
36	0x2954bc29	4.723666e-14
37	0x2764fa0d	3.177691e-15
38	0x28adc33f	1.9291533e-14
39	0x295436fa	4.712114e-14
40	0x2d33e8c6	1.0226658e-11
41	0x2da73b39	1.9012002e-11
42	0x2a202476	1.4223505e-13
43	0x2a6252e9	2.0101598e-13
44	0x2a81b0fa	2.3037805e-13
45	0x29c43f68	8.715148e-14
46	0x280ca7b9	7.80793e-15
47	0x27eec576	6.6272358e-15

exp_avg f4 [4]
0	0xb820c06c	-3.832618e-05
1	0xb830d08e	-4.21559e-05
2	0x35796124	9.2901087e-07
3	0x3907fb3e	0.00012968198

exp_avg_sq f4 [4]
0	0x2f8c0cda	2.5474983e-10
1	0x2f6bb488	2.1437263e-10
2	0x2eac10e7	7.824657e-11
3	0x32f31144	2.8296775e-08

exp_avg f4 [4, 1]
0	0xb7e845e1	-2.7689095e-05
1	0xb835ecf8	-4.3374457e-05
2	0x3520f9f9	5.9968403e-07
3	0x38737108	5.8040983e-05

exp_avg_sq f4 [4, 1]
0	0x2f35b8d8	1.6527524e-10
1	0x302936ca	6.15597e-10
2	0x2f00e56a	1.1723036e-10
3	0x338061e2	5.978269e-08

exp_avg f4 [4, 4]
0	0xb7ce9158	-2.4624795e-05
1	0xb71139db	-8.656144e-06
2	0xb92cecaf	-0.0001649137
3	0xb6ade6d3	-5.1826732e-06
4	0x37578445	1.2845795e-05
5	0xb7b821c3	-2.195023e-05
6	0xb80f0df6	-3.410686e-05
7	0xb7a89c4d	-2.0099944e-05
8	0x34ce33e4	3.8408245e-07
9	0xb2e93ede	-2.7153359e-08
10	0x3535a017	6.7660716e-07
11	0xb44c8170	-1.904607e-07
12	0x37ed2da5	2.8273857e-05
13	0xb80fe032	-3.4302655e-05
14	0x36781cb4	3.6971587e-06
15	0x37c0a10c	2.2963177e-05

exp_avg_sq f4 [4, 4]
0	0x2f0fe1e3	1.3086025e-10
1	0x2d9081b0	1.6428497e-11
2	0x31c6f3ad	5.790261e-09
3	0x2cc909aa	5.7138365e-12
4	0x2e7a4820	5.690748e-11
5	0x2f938e7c	2.6840385e-10
6	0x30078b47	4.931064e-10
7	0x2f0ea5af	1.2973687e-10
8	0x2e55b746	4.8593372e-11
9	0x2da33576	1.8554696e-11
10	0x2f358844	1.6510265e-10
11	0x2d53efaa	1.20471775e-11
12	0x323a1d8f	1.0833346e-08
13	0x32cfb6f8	2.4181176e-08
14	0x34033ee2	1.2223202e-07
15	0x32035320	7.644104e-09

exp_avg f4 [4]
0	0x34b12b51	3.3000336e-07
1	0xb420ddaf	-1.4981809e-07
2	0xb780acb5	-1.5339212e-05
3	0xbab73fab	-0.0013980767

exp_avg_sq f4 [4]
0	0x2da41629	1.8654482e-11
1	0x2ef856c1	1.1293145e-10
2	0x3037c91d	6.686081e-10
3	0x34bf753e	3.5661827e-07

exp_avg f4 [4, 1]
0	0x34ab9f77	3.1967258e-07
1	0xb62db93c	-2.588683e-06
2	0xb7182df7	-9.070608e-06
3	0xb906b33e	-0.00012846009

exp_avg_sq f4 [4, 1]
0	0x2d4d0d40	1.1655843e-11
1	0x2fcd13a7	3.7303247e-10
2	0x2fa69856	3.0303465e-10
3	0x3177df63	3.6070211e-09

exp_avg f4 [4, 4]
0	0x34284478	1.5671128e-07
1	0xb5ea6208	-1.746289e-06
2	0xb5e0c553	-1.674673e-06
3	0xb56dfdc4	-8.865866e-07
4	0xb58d4a5e	-1.0526962e-06
5	0x34e183f8	4.2005536e-07
6	0x359c7da5	1.1659473e-06
7	0xb47f62d7	-2.3784683e-07
8	0x3681548a	3.8543412e-06
9	0x367eeedf	3.798799e-06
10	0x371063a0	8.606265e-06
11	0x35da789f	1.6277371e-06
12	0x38b4e009	8.624799e-05
13	0xba94763b	-0.0011326739
14	0xb9ba9275	-0.00035585804
15	0xb606d15c	-2.008942e-06

exp_avg_sq f4 [4, 4]
0	0x2c7dffd2	3.6095471e-12
1	0x2dfdc9f1	2.885245e-11
2	0x2e2fb4c5	3.995095e-11
3	0x2b7388c1	8.6520727e-13
4	0x2e9abb9c	7.036435e-11
5	0x2d40f480	1.0968226e-11
6	0x2f3d7c25	1.7233555e-10
7	0x2d21d0a5	9.198119e-12
8	0x2e79e983	5.6823445e-11
9	0x30219cb8	5.879417e-10
10	0x2fddd6b2	4.0352216e-10
11	0x2e06d513	3.065732e-11
12	0x30d68332	1.5607837e-09
13	0x350b055f	5.178935e-07
14	0x34220800	1.5090336e-07
15	0x31874f2f	3.9380192e-09

exp_avg f4 [4]
0	0x3991b230	0.00027789315
1	0xba4149f6	-0.0007373387
2	0xba214d01	-0.0006153137
3	0xb6fa11e4	-7.4526633e-06

exp_avg_sq f4 [4]
0	0x345b7cbd	2.0441344e-07
1	0x34b4d947	3.3685703e-07
2	0x3622e46b	2.4272838e-06
3	0x2e21070d	3.6613424e-11

exp_avg f4 [4, 1]
0	0x358dad03	1.0555672e-06
1	0xb9ca3050	-0.00038564438
2	0x3bc45804	0.0059919376
3	0xb65201da	-3.1293516e-06

exp_avg_sq f4 [4, 1]
0	0x350bb11c	5.2039263e-07
1	0x36134143	2.1942694e-06
2	0x38889c24	6.514069e-05
3	0x305193c8	7.6243767e-10

exp_avg f4 [4, 16]
0	0x37aea5ee	2.0819683e-05
1	0x382428e3	3.9138726e-05
2	0xb7962807	-1.7900033e-05
3	0x34ee5d4c	4.4398837e-07
4	0xba5f1157	-0.0008509359
5	0xba3fdf40	-0.00073193386
6	0xba7bc0f2	-0.0009603641
7	0xb92649a6	-0.0001585843
8	0xb533397d	-6.676635e-07
9	0xb43f95bc	-1.7842734e-07
10	0x359c8feb	1.1664791e-06
11	0x38c58ad1	9.4195486e-05
12	0x39912177	0.00027681488
13	0x398c7d68	0.00026796316
14	0x380fee70	3.431592e-05
15	0x35f32cd0	1.8117953e-06
16	0xb82c6ebd	-4.111113e-05
17	0xb9836134	-0.0002505869
18	0xb7c95558	-2.4000808e-05
19	0xb8f78e0e	-0.000118043376
20	0x3a314107	0.0006761704
21	0xb98fa207	-0.00027395805
22	0x3b0da082	0.0021610563
23	0x38b828b4	8.781385e-05
24	0x38ace33c	8.243925e-05
25	0x38d6f564	0.00010250023
26	0x390bb7e1	0.00013324573
27	0xb960f6df	-0.00021454271
28	0xba842006	-0.0010080345
29	0xba7aeee9	-0.00095723436
30	0xb9974ac5	-0.00028856672
31	0xb8c1a7c3	-9.234205e-05
32	0xb9fd92f5	-0.00048365412
33	0x3a6ba6d2	0.0008989397
34	0x39ecd8f6	0.00045175076
35	0xba85dff2	-0.0010213836
36	0x3bcb00df	0.006195172
37	0x3c0fefc0	0.008785188
38	0x3bc7c448	0.0060963966
39	0xb9b5baab	-0.0003466209
40	0x3b463fb8	0.0030250382
41	0x3b0c30ef	0.0021391471
42	0x3ab62f69	0.0013899627
43	0xb99aa06e	-0.00029492698
44	0x3b017d22	0.0019758423
45	0xbb11a840	-0.002222553
46	0x3ab36666	0.0013687133
47	0x3aca7071	0.0015444887
48	0xb5c36f5b	-1.4561041e-06
49	0xb55b699f	-8.1737556e-07
50	0x358427e2	9.846374e-07
51	0xb598e02e	-1.1390127e-06
52	0x36541d9d	3.16077e-06
53	0xb48e9fed	-2.6565922e-07
54	0x379e0035	1.8835164e-05
55	0xb5f12e72	-1.7969417e-06
56	0xb524a55f	-6.133541e-07
57	0xb5617109	-8.398352e-07
58	0xb48f6eb5	-2.6716376e-07
59	0xb63715dc	-2.7281849e-06
60	0xb6bc9923	-5.620664e-06
61	0xb6de02bc	-6.616434e-06
62	0xb611c711	-2.1722556e-06
63	0x35682b0c	8.6489376e-07

exp_avg_sq f4 [4, 16]
0	0x3338681c	4.2935525e-08
1	0x33f661e0	1.1473071e-07
2	0x3290f4e2	1.6875166e-08
3	0x31ce8e89	6.0115934e-09
4	0x37ac5ab1	2.054623e-05
5	0x37c72dc9	2.3743969e-05
6	0x3601e8af	1.9357938e-06
7	0x3617c5ac	2.2615814e-06
8	0x32fcfa0c	2.945037e-08
9	0x32851105	1.5490977e-08
10	0x33f7c31c	1.1537324e-07
11	0x339352b4	6.8602645e-08
12	0x33677599	5.3890833e-08
13	0x34694da3	2.172806e-07
14	0x335850a0	5.0364747e-08
15	0x340bfa07	1.3036343e-07
16	0x3267c499	1.3490671e-08
17	0x3484e27f	2.4751714e-07
18	0x338854b2	6.3483995e-08
19	0x343f518a	1.7817925e-07
20	0x37b58ec4	2.1643362e-05
21	0x38510ec1	4.9843224e-05
22	0x35f16f25	1.7988247e-06
23	0x359b8307	1.1586534e-06
24	0x33ca27d4	9.413603e-08
25	0x342782fa	1.5600736e-07
26	0x348b9830	2.6001499e-07
27	0x3248fb14	1.1698621e-08
28	0x35afe6fb	1.310574e-06
29	0x3584bd54	9.889868e-07
30	0x34d84ffd	4.0291334e-07
31	0x3405761b	1.2429557e-07
32	0x33e54660	1.06764446e-07
33	0x36342349	2.6842629e-06
34	0x3399268f	7.1316315e-08
35	0x35da5ce7	1.6269304e-06
36	0x38c1e5dc	9.245772e-05
37	0x3951ac61	0.0001999601
38	0x36e67061	6.867617e-06
39	0x372dc48a	1.0357364e-05
40	0x378e51a7	1.6965741e-05
41	0x370d1866	8.409936e-06
42	0x366a8a53	3.4949232e-06
43	0x345d978b	2.063736e-07
44	0x37e87a6d	2.7713564e-05
45	0x35c6f4a8	1.4823354e-06
46	0x36d63061	6.383329e-06
47	0x36937ca7	4.395453e-06
48	0x2e0d8a0d	3.2182302e-11
49	0x2cffa13e	7.2654374e-12
50	0x2e32cf62	4.0656707e-11
51	0x2ec62947	9.01133e-11
52	0x31013b91	1.880583e-09
53	0x31462bbf	2.883766e-09
54	0x2f189658	1.3877732e-10
55	0x2ef938f5	1.13333266e-10
56	0x2e182228	3.4591136e-11
57	0x2e94519a	6.744756e-11
58	0x2c253709	2.347846e-12
59	0x2e8e432b	6.469344e-11
60	0x2e4df062	4.6825106e-11
61	0x2d8f8d51	1.6319975e-11
62	0x2e2a7643	3.8758562e-11
63	0x2e9e10cb	7.187991e-11

exp_avg f4 [4]
0	0xb5d260ae	-1.5674357e-06
1	0xb829fadd	-4.0526375e-05
2	0xbab7164c	-0.0013968437
3	0xba984d03	-0.0011619631

exp_avg_sq f4 [4]
0	0x2d5458c9	1.2070519e-11
1	0x35c3504e	1.4552004e-06
2	0x36de4aa6	6.624806e-06
3	0x34c0c69f	3.5907303e-07

exp_avg f4 [4, 1]
0	0x34e6a47b	4.2960514e-07
1	0x3a5c3f51	0.0008401769
2	0x3b84e440	0.00405553
3	0xb884fc04	-6.341192e-05

exp_avg_sq f4 [4, 1]
0	0x2e9ccba7	7.1302346e-11
1	0x3739a187	1.1064468e-05
2	0x386a8d41	5.59215e-05
3	0x331e4099	3.6845993e-08

exp_avg f4 [4, 4]
0	0x3561fec7	8.418978e-07
1	0xb5b0be35	-1.3168379e-06
2	0x3420aaf7	1.4963358e-07
3	0xb4873879	-2.51868e-07
4	0x3a25896d	0.00063147285
5	0x39e72f26	0.00044094882
6	0x39e54005	0.00043725982
7	0x396b96b5	0.00022467489
8	0x3a9f455c	0.0012151408
9	0xb9dfc1bc	-0.00042678218
10	0x3a342089	0.0006871303
11	0xbab2348a	-0.001359598
12	0xb9af3207	-0.00033415874
13	0xba246408	-0.00062710093
14	0xbace0bac	-0.0015720031
15	0x383ab48c	4.4514003e-05

exp_avg_sq f4 [4, 4]
0	0x2c14478f	2.1071788e-12
1	0x2c333c82	2.5471019e-12
2	0x2e871924	6.143555e-11
3	0x2dcd211c	2.3320505e-11
4	0x36e04b46	6.684483e-06
5	0x34c20da9	3.6145255e-07
6	0x36950bfe	4.441942e-06
7	0x353200d5	6.631138e-07
8	0x36eb2f17	7.0090277e-06
9	0x363050f6	2.627317e-06
10	0x3582cc0a	9.745138e-07
11	0x36da744d	6.5104455e-06
12	0x3485f461	2.495099e-07
13	0x357c2745	9.393446e-07
14	0x369ce63f	4.6759665e-06
15	0x32950bc8	1.735124e-08

exp_avg f4 [4]
0	0xbb1f0314	-0.002426331
1	0xb97a833f	-0.00023890751
2	0xbb37181a	-0.002793795
3	0xb9b266a6	-0.00034027285

exp_avg_sq f4 [4]
0	0x37a63e36	1.9817711e-05
1	0x36c72f9b	5.936204e-06
2	0x37f7f7ff	2.9560177e-05
3	0x3697fc0a	4.529492e-06

exp_avg f4 [4, 1]
0	0x3a125e1b	0.0005583481
1	0xba0c7b81	-0.00053589797
2	0xba29765f	-0.0006464477
3	0xba7efa01	-0.00097265845

exp_avg_sq f4 [4, 1]
0	0x37ab0404	2.0386658e-05
1	0x364cf7c2	3.0542583e-06
2	0x3899e096	7.337441e-05
3	0x3493bffd	2.7520574e-07

exp_avg f4 [4, 12]
0	0x3a60847c	0.00085646636
1	0x39b394c0	0.00034252368
2	0x3b193160	0.0023375377
3	0xba8568e7	-0.0010178358
4	0xb8e2d9bf	-0.00010817078
5	0x3bb95052	0.005655327
6	0x3bf47dd6	0.00746129
7	0xba91242c	-0.0011073402
8	0xbb8ee185	-0.00436038
9	0xbb631e3d	-0.0034655475
10	0x38250085	3.933955e-05
11	0x396f0fb3	0.00022798665
12	0xb8dd2406	-0.00010544811
13	0x390f92d8	0.00013692246
14	0x3973a605	0.00023236133
15	0x38b373cf	8.556956e-05
16	0xb546000b	-7.376081e-07
17	0xb98ef827	-0.00027269238
18	0xb93381b5	-0.0001711909
19	0xb9a00806	-0.00030523556
20	0xb9f3f9db	-0.0004653473
21	0xb7e772c8	-2.7590795e-05
22	0x398c4a46	0.0002675822
23	0xb7849d67	-1.5808922e-05
24	0x3a9ac63f	0.001180835
25	0xb9e473d8	-0.0004357386
26	0x3ad856ce	0.0016505362
27	0x37b292ff	2.1287704e-05
28	0xb7bb1d47	-2.230577e-05
29	0x3b601dfe	0.0034197564
30	0x3b898c4f	0.0041976343
31	0xba3cdf8f	-0.00072049437
32	0xbb44233f	-0.0029928235
33	0xbb366411	-0.002783064
34	0x38bc0e16	8.967162e-05
35	0x3681d5df	3.8693975e-06
36	0xbacd369b	-0.0015656532
37	0x39980828	0.00028997776
38	0x39a8efa6	0.0003222201
39	0xbacf743d	-0.0015827488
40	0x3997b9f4	0.0002893951
41	0xbab5f423	-0.0013881963
42	0xbae3f377	-0.0017391284
43	0xb9a23439	-0.00030937957
44	0x391e34d0	0.00015087728
45	0xba0db10b	-0.00054051046
46	0xba20ad2e	-0.00061293214
47	0x398f5c4a	0.00027343846

exp_avg_sq f4 [4, 12]
0	0x368d391f	4.208777e-06
1	0x37b2d71e	2.1319425e-05
2	0x3601e50e	1.9355825e-06
3	0x36479ce1	2.9744626e-06
4	0x351c6fd5	5.8277266e-07
5	0x37ae5fc4	2.078701e-05
6	0x38832d68	6.255024e-05
7	0x3508258a	5.0718575e-07
8	0x37245795	9.7955535e-06
9	0x380ccfe4	3.3572214e-05
10	0x36e46b9d	6.8074573e-06
11	0x36941650	4.4133412e-06
12	0x361ab368	2.3052216e-06
13	0x338fa73b	6.6893755e-08
14	0x35bbc435	1.398969e-06
15	0x3583212e	9.769917e-07
16	0x306f80d3	8.7130764e-10
17	0x37823e9f	1.5526368e-05
18	0x37e248e1	2.6975236e-05
19	0x328cdc2a	1.6398264e-08
20	0x36967991	4.4845006e-06
21	0x366c8aa7	3.5247447e-06
22	0x35ce9d38	1.5393953e-06
23	0x328c8740	1.635965e-08
24	0x37217c75	9.625325e-06
25	0x3639ff1b	2.771564e-06
26	0x360451a5	1.9717056e-06
27	0x3686ecd0	4.02108e-06
28	0x328f25b9	1.6664545e-08
29	0x37003c38	7.643415e-06
30	0x381b17cf	3.6977053e-05
31	0x374295dd	1.1598194e-05
32	0x3692e7be	4.3781174e-06
33	0x37793e4d	1.4856062e-05
34	0x37061d0b	7.9937845e-06
35	0x3315bbaa	3.4862445e-08
36	0x3526728e	6.200652e-07
37	0x3510b2f7	5.390461e-07
38	0x347d0a73	2.3566263e-07
39	0x34fc41e0	4.6986588e-07
40	0x32f4f3e8	2.8516254e-08
41	0x360aa109	2.0657337e-06
42	0x3746b80d	1.1844572e-05
43	0x3285a231	1.5556994e-08
44	0x36536913	3.1502611e-06
45	0x36876866	4.035467e-06
46	0x3593d0b0	1.101309e-06
47	0x33083173	3.170994e-08

exp_avg f4 [4]
0	0xbb8eaf99	-0.004354429
1	0xbbbae8bf	-0.005704015
2	0xba960403	-0.0011445287
3	0xbbad525f	-0.0052893604

exp_avg_sq f4 [4]
0	0x3761ee4b	1.3466527e-05
1	0x384710c3	4.7460908e-05
2	0x384d56dd	4.8956706e-05
3	0x3916c3cd	0.00014378056

exp_avg f4 [4, 1]
0	0x3b7a8a3b	0.0038229364
1	0xbc66f1df	-0.0140957525
2	0x3a9d0c9f	0.0011981911
3	0x3ba74102	0.005104185

exp_avg_sq f4 [4, 1]
0	0x36a37a8f	4.8720462e-06
1	0x38d31f06	0.000100670426
2	0x375074bf	1.2424948e-05
3	0x39648a47	0.00021795287

exp_avg f4 [4, 4]
0	0xbb08a27e	-0.0020848806
1	0xbab13148	-0.0013518715
2	0xbb9d7e87	-0.004806343
3	0xbbabe33c	-0.0052455943
4	0x3a9412de	0.0011297127
5	0xbbba25ce	-0.005680776
6	0x3a095cc4	0.00052399584
7	0xba464d5d	-0.00075646286
8	0xba812801	-0.0009853841
9	0xb9ba7e4d	-0.00035570786
10	0xbaf0b011	-0.0018363019
11	0x3a66ceac	0.00088046
12	0xbb044790	-0.0020184256
13	0x3b9fb8eb	0.004874339
14	0x3a82d8bd	0.0009982806
15	0xbbc11b90	-0.0058931783

exp_avg_sq f4 [4, 4]
0	0x34f57945	4.572304e-07
1	0x36177c1b	2.2572992e-06
2	0x36930db1	4.3825353e-06
3	0x36d76f84	6.4204814e-06
4	0x355b3231	8.1656896e-07
5	0x37846aeb	1.5785414e-05
6	0x34f70229	4.6008907e-07
7	0x36d3f23c	6.31649e-06
8	0x368f8166	4.276796e-06
9	0x35338ef7	6.689074e-07
10	0x3876b08b	5.881539e-05
11	0x368f65ae	4.273569e-06
12	0x362238f6	2.4173037e-06
13	0x384474e7	4.6838915e-05
14	0x36512095	3.1162392e-06
15	0x37e1be3c	2.6910675e-05

exp_avg f4 [11]
0	0x3c842c87	0.016134514
1	0xbbbdaf5b	-0.0057887263
2	0x3d0a6c36	0.033794604
3	0xbcab5bc8	-0.020917788
4	0xbb602052	-0.0034198952
5	0xbbdaaecd	-0.00667367
6	0xbcee28c6	-0.029072177
7	0x3bae9a4b	0.0053284517
8	0x3bb62043	0.005558045
9	0x3c83233b	0.01600801
10	0x3d07f136	0.03318902

exp_avg_sq f4 [11]
0	0x3a97eb97	0.0011590597
1	0x3b8999d8	0.004199248
2	0x3b39f448	0.0028374363
3	0x398b396e	0.00026554934
4	0x380b11cb	3.3156753e-05
5	0x398ef120	0.00027264003
6	0x39977156	0.00028885406
7	0x3822bfb5	3.880235e-05
8	0x3833edfa	4.289856e-05
9	0x39085d53	0.00013004737
10	0x39d9cd3b	0.00041542374

exp_avg f4 [11, 1]
0	0xbcb6e883	-0.022327667
1	0x3c0e3993	0.008680719
2	0x3c0a7d18	0.008452676
3	0xbc9b19c1	-0.018933179
4	0x3ba20ed6	0.0049456162
5	0xbc86b4bd	-0.016443605
6	0xbc97f978	-0.018551573
7	0xbbf46d54	-0.007459322
8	0xbbeb440f	-0.007179744
9	0xbbb43110	-0.005499013
10	0x3ca9c096	0.020721715

exp_avg_sq f4 [11, 1]
0	0x39a5a2ff	0.00031592694
1	0x398459c7	0.0002524389
2	0x39670600	0.00022032112
3	0x3861fd4d	5.3880085e-05
4	0x36785f02	3.7010182e-06
5	0x38299145	4.0428033e-05
6	0x3807c146	3.2366508e-05
7	0x3755ff59	1.2755242e-05
8	0x378937c9	1.635765e-05
9	0x363d88f5	2.8242914e-06
10	0x39319e7d	0.00016939077

exp_avg f4 [11, 4]
0	0xbc5f2bd5	-0.01362129
1	0x3bd356ab	0.0064495406
2	0xbc83b146	-0.016075741
3	0xbb9da52d	-0.0048109503
4	0xbbd681bd	-0.0065462277
5	0xbca52621	-0.020159783
6	0xbca06087	-0.019577278
7	0xbca0d6c5	-0.01963366
8	0x3a83ec67	0.001006496
9	0x3cf363ec	0.029710732
10	0xbb129299	-0.002236521
11	0x3c81f729	0.015864925
12	0xbbfbddbe	-0.007686346
13	0xbb1c3677	-0.0023836175
14	0x389f98e3	7.610188e-05
15	0xbb8d9dfb	-0.0043218113
16	0xbb0e2c01	-0.002169371
17	0xba9ee22b	-0.0012121847
18	0xba090d11	-0.00052280823
19	0xba66083b	-0.000877503
20	0xbc4bb339	-0.012432867
21	0xbc96d71d	-0.01841312
22	0x3c2d8826	0.010591542
23	0xbc5a2dd4	-0.01331659
24	0xbc0ab534	-0.008466054
25	0xbd189498	-0.037251085
26	0xbc5a8092	-0.013336318
27	0xbce4c115	-0.0279241
28	0x3b6ae834	0.003584397
29	0xb99abd7a	-0.0002951434
30	0xbaefa4e5	-0.0018283395
31	0x3b220b0c	0.0024725823
32	0xbb19694b	-0.0023408707
33	0x3b3f538c	0.0029194085
34	0x3b62813b	0.003456189
35	0x3a0acef5	0.0005295121
36	0x3afdefc0	0.0019373819
37	0x3cf2dce0	0.029646337
38	0xbb363354	-0.002780159
39	0x3c592a25	0.013254677
40	0x3c5c51d9	0.013447248
41	0x3ce6c080	0.028167963
42	0xbc2f55bc	-0.010701593
43	0x3cb3553f	0.021891234

exp_avg_sq f4 [11, 4]
0	0x38fbae41	0.0001200107
1	0x3a2711eb	0.00063732144
2	0x3925d952	0.00015816584
3	0x39b0a18e	0.00033689704
4	0x3a0004d8	0.0004883534
5	0x3a912fb6	0.0011076841
6	0x3920980d	0.00015315432
7	0x3a58fce3	0.0008277429
8	0x395bdea3	0.00020968406
9	0x3a85ccc2	0.0010208117
10	0x37e79dfb	2.7610911e-05
11	0x3a1274e8	0.00055868784
12	0x37dfe371	2.6689582e-05
13	0x37b27b40	2.1276646e-05
14	0x33aadc8b	7.9563584e-08
15	0x37ce89af	2.4621228e-05
16	0x36e74b4a	6.8931013e-06
17	0x363e9dfa	2.840416e-06
18	0x341c52a1	1.4558692e-07
19	0x372336be	9.728303e-06
20	0x38088c09	3.2555345e-05
21	0x3999c933	0.0002933234
22	0x379cb8f7	1.868278e-05
23	0x3952e379	0.00020111901
24	0x3826d386	3.977448e-05
25	0x3926afdd	0.00015896508
26	0x37437931	1.1651123e-05
27	0x38cf47d6	9.88391e-05
28	0x36eb070c	7.004366e-06
29	0x35a08cc1	1.1961894e-06
30	0x360d831d	2.1086955e-06
31	0x3745e681	1.1795783e-05
32	0x3619b676	2.2904983e-06
33	0x3679bd20	3.7213977e-06
34	0x36b84d77	5.4926454e-06
35	0x36514663	3.1184397e-06
36	0x3650e1af	3.112578e-06
37	0x38e5386a	0.00010930079
38	0x3598120a	1.1330133e-06
39	0x385945bc	5.1801777e-05
40	0x387a7a64	5.971863e-05
41	0x3896085e	7.154116e-05
42	0x38229fb5	3.877255e-05
43	0x38cb679f	9.699095e-05

exp_avg f4 [2]
0	0xbf745f7a	-0.95458186
1	0xbdaf8099	-0.0856945

exp_avg_sq f4 [2]
0	0x3e808fa0	0.25109577
1	0x3be70ff6	0.0070514632
