tests/output/multimodal-jets/86127df00a6f41558a05e0fe1dcfcf1a/checkpoints/last.ckpt (torch, 60470 bytes, 118 tensors)

embedder.embedding_discrete.embedding.weight f4 [8, 4]
0.20387651 0.540995 0.19544147 -0.3537724 1.10178 0.43050602 2.797521 0.34411007
0.81205225 0.30513427 -1.0394202 0.47196293 1.645348 1.3706675 -1.426514 -0.78252983
0.96472543 -0.16876064 1.0715668 -1.2034433 -0.003642334 1.0836207 -1.2767093 0.6569986
-1.5513953 1.1285115 -0.09201847 1.2036831 0.871939 -0.72319156 -1.2737628 -0.9990107
00000000: 01c5 503e a67e 0a3f cf21 483e a821 b5be
00000010: 2107 8d3f 496b dc3e 960a 3340 322f b03e
00000020: a8e2 4f3f 8f3a 9c3e b90b 85bf 20a5 f13e
00000030: c39a d23f 0872 af3f 0398 b6bf e053 48bf
00000040: 3ff8 763f 97cf 2cbe 1a29 893f 6e0a 9abf
00000050: 39b4 6ebb 15b4 8a3f 366b a3bf 0f31 283f
00000060: 1f94 c6bf 1173 903f 2e74 bcbd 4a12 9a3f
00000070: 6537 5f3f 1523 39bf a90a a3bf 2abf 7fbf

encoder.epic.epic_proj.mlp_local.0.bias f4 [4]
-0.27459547 -0.21848546 0.19506685 -0.20244002
00000000: c797 8cbe a7ba 5fbe 9bbf 473e 704c 4fbe

encoder.epic.epic_proj.mlp_local.0.weight_g f4 [4, 1]
0.47014326 0.4546703 0.53483117 0.4668284
00000000: 9eb6 f03e 8cca e83e b2ea 083f 2204 ef3e

encoder.epic.epic_proj.mlp_local.0.weight_v f4 [4, 12]
0.088193245 0.13068864 -0.051681705 0.043735635 0.09416209 0.16762064 -0.20510924 0.14114335
0.14356752 0.06299299 0.12691882 -0.2031291 -0.06765181 -0.19314921 -0.009000735 0.0068039983
-0.22873509 0.01569727 0.1319303 0.024583094 -0.24230129 0.010760772 -0.031298015 0.20781042
-0.06332374 0.111348815 0.12836622 0.028697392 -0.17019513 -0.03162839 0.13565989 0.27479187
-0.17608239 -0.23581259 0.22910315 0.068868294 0.099858165 -0.07790049 -0.03651085 0.06465209
-0.21108676 -0.1445921 0.13543731 -0.07623193 0.1021652 0.22722529 -0.1890136 0.040081114
00000000: a99e b43d 3ed3 053e 32b0 53bd 2324 333d
00000010: 0ed8 c03d bfa4 2b3e 2808 52be e287 103e
00000020: 5d03 133e 7802 813d 02f7 013e 1301 50be
00000030: 088d 8abd e8c8 45be d277 13bc 13f4 de3b
00000040: 8839 6abe 9097 803c bd18 073e 7c62 c93c
00000050: d41d 78be f34d 303c 5932 00bd 41cc 543e
00000060: e1af 81bd d90a e43d 6f72 033e cb16 eb3c
00000070: a247 2ebe c58c 01bd 6dea 0a3e 85b1 8c3e
00000080: f14e 34be db78 71be 049a 6a3e d20a 8d3d
00000090: 7082 cc3d 4b8a 9fbd 678c 15bd 5168 843d
000000a0: 2127 58be f40f 14be 14b0 0a3e 7c1f 9cbd
000000b0: fd3b d13d bfad 683e c88c 41be 182c 243d

encoder.epic.epic_proj.mlp_local.2.bias f4 [4]
-0.24955359 -0.37323818 0.41331154 0.38772103
00000000: fa8a 7fbe 1319 bfbe 929d d33e 5f83 c63e

encoder.epic.epic_proj.mlp_local.2.weight_g f4 [4, 1]
0.5556102 0.9034792 0.5672647 0.40898976
00000000: 783c 0e3f 6a4a 673f 4238 113f 1b67 d13e

encoder.epic.epic_proj.mlp_local.2.weight_v f4 [4, 4]
-0.11780256 0.40492538 0.33604968 -0.096704185 -0.4828497 -0.4180564 0.4808353 0.4388214
-0.41476184 0.083100915 -0.3287635 -0.21102916 0.050178893 0.16986363 -0.018772818 0.37090677
00000000: 7842 f1bd 6152 cf3e b40e ac3e d80c c6bd
00000010: 1338 f7be 7d0b d6be 0b30 f63e 33ad e03e
00000020: aa5b d4be d030 aa3d b153 a8be 0718 58be
00000030: 6288 4d3d bbf0 2d3e 74c9 99bc 7ee7 bd3e

encoder.epic.epic_proj.mlp_global.0.bias f4 [4]
0.21621029 0.14317903 -0.23849301 -0.21102712
00000000: 3b66 5d3e 869d 123e 8337 74be 7e17 58be

encoder.epic.epic_proj.mlp_global.0.weight_g f4 [4, 1]
0.71249866 0.48383138 0.5766527 0.61289567
00000000: 5066 363f bfb8 f73e 839f 133f bbe6 1c3f

encoder.epic.epic_proj.mlp_global.0.weight_v f4 [4, 12]
-0.19440931 -0.29040816 0.2380227 -0.29595724 -0.22980444 -0.19573604 -0.013725452 -0.056953013
0.16403887 0.26743558 0.27157798 0.015725115 -0.22096272 -0.023322335 0.033603527 0.13642435
0.16583098 -0.091391295 -0.1623859 0.06222372 -0.015088298 -0.14554131 0.24988991 0.12788811
-0.071460634 0.28773695 0.09467246 -0.2474811 0.22885695 -0.23152293 0.054375578 0.19392921
0.09786782 -0.034667984 0.11665631 0.13916616 0.017088147 0.23862554 -0.18785927 -0.14809856
-0.16696995 0.26870233 0.1980857 -0.10824268 0.053276516 0.13831986 -0.23979527 0.21742621
00000000: 3c13 47be 61b0 94be 39bc 733e b587 97be
00000010: db51 6bbe 076f 48be b8e0 60bc 9047 69bd
00000020: cef9 273e 51ed 883e 450c 8b3e f5d1 803c
00000030: 0d44 62be 7b0e bfbc daa3 093d d3b2 0b3e
00000040: 99cf 293e 5c2b bbbd 7d48 26be 4dde 7e3d
00000050: e934 77bc c808 15be 24e3 7f3e 1af5 023e
00000060: f459 92bd 4252 933e a2e3 c13d af6b 7dbe
00000070: 7a59 6a3e 5914 6dbe edb8 5e3d 6195 463e
00000080: ec6e c83d 0400 0ebd 81e9 ee3d 9381 0e3e
00000090: 71fc 8b3c 415a 743e 2e5e 40be 26a7 17be
000000a0: 2cfa 2abe 5a93 893e fad6 4a3e 57ae ddbd
000000b0: 7a38 5a3d b9a3 0d3e e48c 75be faa4 5e3e

encoder.epic.epic_proj.mlp_global.2.bias f4 [4]
0.29536515 -0.27025253 -0.18016075 -0.22336775
00000000: 1a3a 973e 8a5e 8abe 0f7c 38be 84ba 64be

encoder.epic.epic_proj.mlp_global.2.weight_g f4 [4, 1]
0.75417465 0.5087861 0.6655425 0.6557256
00000000: 9711 413f ce3f 023f fe60 2a3f a2dd 273f

encoder.epic.epic_proj.mlp_global.2.weight_v f4 [4, 4]
0.44995594 0.17379768 0.47536847 0.3557707 -0.2430068 -0.26259422 0.37043574 -0.10402354
-0.282947 -0.4478897 0.30615172 -0.30551344 0.3299454 0.269702 -0.48283535 0.113761716
00000000: a060 e63e 05f8 313e 7f63 f33e 9427 b63e
00000010: c6d6 78be c072 86be c1a9 bd3e 4b0a d5bd
00000020: 6ede 90be cc51 e5be ebbf 9c3e 426c 9cbe
00000030: 9aee a83e 6116 8a3e 3236 f7be e7fb e83d

encoder.epic.epic_layers.0.fc_glob1.bias f4 [4]
0.10693735 -0.20444348 -0.004081331 0.16568881
00000000: f801 db3d a259 51be b0bc 85bb 54aa 293e

encoder.epic.epic_layers.0.fc_glob1.weight_g f4 [4, 1]
0.600619 0.6047908 0.59641653 0.6374676
00000000: 2bc2 193f 92d3 1a3f c1ae 183f 1431 233f

encoder.epic.epic_layers.0.fc_glob1.weight_v f4 [4, 16]
-0.13243939 0.05383198 0.16976818 -0.041580334 0.23420048 -0.19150493 -0.17750172 0.13175371
0.20114991 -0.13311994 -0.17158458 0.21114707 0.13536273 -0.068583824 0.074467644 -0.12659606
0.064930506 -0.056748357 0.089158446 -0.17775768 0.24685314 -0.13147818 0.2036929 0.19980787
0.037724167 -0.137035 0.21740486 0.04991799 0.043473255 -0.14436701 -0.19904146 -0.21510969
0.15824743 -0.0010458785 -0.13423917 0.18912049 -0.14627975 0.21969329 0.027325422 0.14630231
0.22825761 0.02391898 0.22319014 -0.13548659 -0.12017903 -0.13787456 0.10348717 0.030344581
-0.153589 0.25663885 0.096659355 -0.002235424 -0.041809164 0.18276964 -0.22250502 0.058992077
-0.17555524 0.21727708 0.004956681 -0.20810835 -0.25376055 0.12636887 0.092548266 0.055308424
00000000: 319e 07be ec7e 5c3d b6d7 2d3e 2450 2abd
00000010: 40d2 6f3e de19 44be 03c3 35be 72ea 063e
00000020: 3efa 4d3e 9850 08be deb3 2fbe f036 583e
00000030: 879c 0a3e ad75 8cbd 7e82 983d 66a2 01be
00000040: 49fa 843d f770 68bd b498 b63d 1c06 36be
00000050: 12c7 7c3e 37a2 06be df94 503e 6f9a 4c3e
00000060: a884 1a3d e752 0cbe 619f 5e3e ce76 4c3d
00000070: 0311 323d f2d4 13be 86d1 4bbe b745 5cbe
00000080: 9d0b 223e dc15 89ba fe75 09be cda8 413e
00000090: 5cca 15be 47f7 603e 90d9 df3c 46d0 153e
000000a0: 5dbc 693e bdf1 c33c f58b 643e ffbc 0abe
000000b0: 6c20 f6bd fd2e 0dbe 15f1 d33d 3395 f83c
000000c0: 6f46 1dbe 2b66 833e 57f5 c53d 3180 12bb
000000d0: 1640 2bbd f727 3b3e 5bd8 63be ada1 713d
000000e0: c1c4 33be e27d 5e3e a76b a23b 5b1a 55be
000000f0: e7ec 81be d766 013e f289 bd3d 168b 623d

encoder.epic.epic_layers.0.fc_glob2.bias f4 [4]
0.30385575 0.45702288 -0.14180265 -0.28667846
00000000: fb92 9b3e e7fe e93e b734 11be 85c7 92be

encoder.epic.epic_layers.0.fc_glob2.weight_g f4 [4, 1]
0.5709248 0.56377554 0.44703582 0.49046707
00000000: 2128 123f 9853 103f e1e1 e43e 801e fb3e

encoder.epic.epic_layers.0.fc_glob2.weight_v f4 [4, 4]
0.017077029 -0.23163207 0.4836044 0.23485488 -0.1427574 0.44515112 -0.057076477 0.3428781
-0.42267475 0.069588944 0.017462162 -0.10961054 -0.10036057 -0.295341 0.076762415 -0.34371966
00000000: 20e5 8b3c f530 6dbe ff9a f73e cc7d 703e
00000010: ff2e 12be d9ea e33e 06c9 69bd b88d af3e
00000020: d368 d8be a684 8e3d cf0c 8f3c 7e7b e0bd
00000030: d889 cdbd f036 97be 9d35 9d3d 06fc afbe

encoder.epic.epic_layers.0.fc_loc1.bias f4 [4]
-0.1460177 -0.15742974 -0.18092924 -0.17403358
00000000: aa85 15be 4335 21be 8445 39be dc35 32be

encoder.epic.epic_layers.0.fc_loc1.weight_g f4 [4, 1]
0.6832748 0.6008451 0.5526135 0.5724759
00000000: 19eb 2e3f fcd0 193f 1478 0d3f c88d 123f

encoder.epic.epic_layers.0.fc_loc1.weight_v f4 [4, 12]
-0.2752742 0.16027707 -0.17747913 0.102637045 0.051487695 0.22078444 -0.19625993 -0.24061874
0.079916194 0.25169086 0.110729724 -0.279216 -0.14113513 -0.14341521 -0.03225089 -0.20871232
0.12035698 -0.1997599 -0.2455035 0.02935803 -0.20415653 0.07062846 0.27425122 0.17274188
-0.14693241 0.00766872 -0.053119253 0.21274906 0.2950693 -0.149591 -0.10191689 -0.04056973
-0.16533674 -0.24604185 0.18370938 0.085012734 0.2554929 -0.18537012 -0.1228423 -0.2177516
-0.04715315 -0.13720393 0.012524418 0.1806423 0.09926596 -0.09730414 -0.1928185 -0.25793448
00000000: bdf0 8cbe ac1f 243e 17bd 35be 5f33 d23d
00000010: c3e4 523d 5115 623e 5df8 48be c264 76be
00000020: 1aab a33d a0dd 803e 44c6 e23d 66f5 8ebe
00000030: ba85 10be 70db 12be 8219 04bd afb8 55be
00000040: b87d f63d dc8d 4cbe 4565 7bbe 4080 f03c
00000050: 690e 51be a7a5 903d a86a 8c3e 3fe3 303e
00000060: 7375 16be e349 fb3b 9393 59bd e4da 593e
00000070: 5313 973e 622e 19be cdb9 d0bd 722c 26bd
00000080: 094e 29be 65f2 7bbe 501e 3c3e 281b ae3d
00000090: f7cf 823e aad1 3dbe be94 fbbd 47fa 5ebe
000000a0: a923 41bd 307f 0cbe 3733 4d3c 4cfa 383e
000000b0: f44b cb3d 6547 c7bd 3672 45be fd0f 84be

encoder.epic.epic_layers.0.fc_loc2.bias f4 [4]
0.4384339 -0.4103562 -0.43103078 0.18178022
00000000: 687a e03e 351a d2be 11b0 dcbe 9824 3a3e

encoder.epic.epic_layers.0.fc_loc2.weight_g f4 [4, 1]
0.4617627 0.5439437 0.15371989 0.51996493
00000000: 296c ec3e e53f 0b3f bf68 1d3e 6c1c 053f

encoder.epic.epic_layers.0.fc_loc2.weight_v f4 [4, 4]
-0.39316812 -0.22045764 -0.029581198 -0.050353754 -0.28059876 0.43397272 -0.03407951 0.11275733
-0.080750726 -0.08689358 -0.060118448 0.05407282 0.2421358 0.132092 -0.37636825 0.25474477
00000000: 554d c9be a6bf 61be 4554 f2bc bd3f 4ebd
00000010: a4aa 8fbe ac31 de3e f596 0bbd 51ed e63d
00000020: a360 a5bd 43f5 b1bd c33e 76bd 767b 5d3d
00000030: 72f2 773e 2043 073e 57b3 c0be e86d 823e

encoder.epic.epic_layers.1.fc_glob1.bias f4 [4]
-0.102434605 -0.07262946 -0.023595268 0.2403239
00000000: 3cc9 d1bd c1be 94bd dd4a c1bc 7817 763e

encoder.epic.epic_layers.1.fc_glob1.weight_g f4 [4, 1]
0.57898575 0.5357097 0.5839991 0.66014695
00000000: 6938 143f 4524 093f f780 153f 64ff 283f

encoder.epic.epic_layers.1.fc_glob1.weight_v f4 [4, 16]
-0.008745545 0.19324248 -0.105542704 -0.23480025 0.046162806 -0.14169987 0.080954045 -0.12982224
-0.022907555 0.050334267 0.13642475 0.25534853 0.12371791 0.21666585 0.14057687 0.1866581
-0.15290251 -0.029187225 0.14418764 -0.13896072 -0.02337732 0.037886728 -0.20182014 -0.110764675
-0.14447361 0.23867606 0.01331327 -0.010486171 -0.24379352 0.12551609 -0.023154031 -0.015503501
-0.0016362959 0.22749099 -0.103146486 -0.15131441 -0.23377776 0.21356861 -0.12266897 0.21087164
0.08294981 0.059378415 -0.1982895 -0.10039884 -0.1354766 -0.08048207 0.14991996 -0.078862734
0.13907704 0.1950812 -0.17966574 0.16546798 0.12466703 0.24493149 0.08305695 -0.21757546
-0.20944317 -0.10122652 -0.0210742 -0.2396929 0.16937722 -0.038368464 0.06328633 -0.15836097
00000000: 7949 0fbc 5be1 453e c626 d8bd 7a6f 70be
00000010: 3615 3d3d c519 11be 3ccb a53d 1ff0 04be
00000020: a0a8 bbbc 4e2b 4e3d eeb2 0b3e 0bbd 823e
00000030: d15f fd3d a7dd 5d3e 62f3 0f3e 4d23 3f3e
00000040: 7a92 1cbe 0c1a efbc eda5 133e b84b 0ebe
00000050: cb81 bfbc 1d2f 1b3d f0a9 4ebe 97d8 e2bd
00000060: e4f0 13be 7f67 743e e71f 5a3c 30ce 2bbc
00000070: 02a5 79be 4a87 003e 86ad bdbc 6502 7ebc
00000080: fb78 d6ba 66f3 683e 773e d3bd 2af2 1abe
00000090: 7063 6fbe bbb1 5a3e de39 fbbd bcee 573e
000000a0: 97e1 a93d c836 733d 670c 4bbe e89d cdbd
000000b0: 61ba 0abe c9d3 a4bd 9e84 193e c982 a1bd
000000c0: 366a 0e3e 5ec3 473e 4cfa 37be 7070 293e
000000d0: 6e51 ff3d 52cf 7a3e c319 aa3d 1acc 5ebe
000000e0: 4578 56be da4f cfbd cda3 acbc 0e72 75be
000000f0: 3971 2d3e 4028 1dbd 439c 813d 6129 22be

encoder.epic.epic_layers.1.fc_glob2.bias f4 [4]
0.41957018 -0.41839895 0.03128637 -0.47073945
00000000: e7d1 d63e 6338 d6be 2326 003d c304 f1be

encoder.epic.epic_layers.1.fc_glob2.weight_g f4 [4, 1]
0.3539427 0.82300067 0.6055841 0.18935284
00000000: fa37 b53e 2cb0 523f 8f07 1b3f b6e5 413e

encoder.epic.epic_layers.1.fc_glob2.weight_v f4 [4, 4]
0.11203068 0.10679769 -0.30610126 0.12794963 0.4359172 0.36817566 0.39246118 -0.47319108
0.21314448 0.3807376 -0.14099431 -0.3737874 -0.16528498 -0.01575796 -0.020763021 0.07211702
00000000: 5770 e53d bfb8 da3d 4eb9 9cbe 3a05 033e
00000010: 8a30 df3e 8581 bc3e acf0 c83e 1a46 f2be
00000020: 8c42 5a3e 0af0 c23e d060 10be 1061 bfbe
00000030: 7740 29be d616 81bc 3617 aabc 17b2 933d

encoder.epic.epic_layers.1.fc_loc1.bias f4 [4]
0.02074873 0.1621173 0.0016408447 0.061041813
00000000: 3ef9 a93c 1402 263e 9d11 d73a fb06 7a3d

encoder.epic.epic_layers.1.fc_loc1.weight_g f4 [4, 1]
0.602686 0.56929034 0.5717336 0.5939637
00000000: a149 1a3f 03bd 113f 225d 123f 010e 183f

encoder.epic.epic_layers.1.fc_loc1.weight_v f4 [4, 12]
0.12278523 -0.11894108 -0.1176904 0.13083099 0.20913385 -0.13128638 0.25055557 -0.28927916
0.12965429 -0.17813268 0.22863866 -0.0992083 0.29030854 0.16222124 -0.15896712 -0.039654832
0.059314724 0.25352255 -0.1823357 0.066155024 -0.21476889 -0.04292384 -0.14278415 -0.14379098
-0.0003454228 0.26384962 0.2788486 -0.16825151 -0.10447405 -0.072598666 -0.09066888 0.07114136
-0.14540936 0.20808913 -0.0013772987 -0.26382518 -0.11005446 -0.064449936 -0.2801892 0.22956567
-0.093621954 0.23028941 0.039333485 0.21691427 0.0945838 -0.22613688 0.14054507 0.103644885
00000000: d376 fb3d 6297 f3bd aa07 f1bd 8ff8 053e
00000010: 2f27 563e f06f 06be d248 803e 661c 94be
00000020: 18c4 043e 6a68 36be 4120 6a3e b92d cbbd
00000030: 52a3 943e 531d 263e 47c8 22be 1b6d 22bd
00000040: fff3 723d b5cd 813e 36b6 3abe 497c 873d
00000050: 60ec 5bbe e9d0 2fbd 0236 12be f13d 13be
00000060: dd19 b5b9 4c17 873e 3ec5 8e3e 204a 2cbe
00000070: 7ef6 d5bd 9cae 94bd 9bb0 b9bd 90b2 913d
00000080: 31e6 14be 5115 553e 7a86 b4ba 1814 87be
00000090: 3c64 e1bd 54fe 83bd f574 8fbe 4313 6b3e
000000a0: debc bfbd fdd0 6b3e 261c 213d c61e 5e3e
000000b0: 27b5 c13d 6d90 67be 0ceb 0f3e c543 d43d

encoder.epic.epic_layers.1.fc_loc2.bias f4 [4]
0.2995991 0.31487703 -0.19156452 0.14976986
00000000: 0e65 993e 9037 a13e 7d29 44be 455d 193e

encoder.epic.epic_layers.1.fc_loc2.weight_g f4 [4, 1]
0.6371528 0.5084938 0.7156595 0.6087465
00000000: 721c 233f a62c 023f 7635 373f d0d6 1b3f

encoder.epic.epic_layers.1.fc_loc2.weight_v f4 [4, 4]
0.121391304 -0.47967184 0.3249111 0.28776962 0.28855193 -0.15423949 -0.40579674 0.020480968
0.22014987 0.5025521 0.105317414 0.47276053 0.48883024 0.10258485 -0.106963515 -0.3310451
00000000: 019c f83d 8c97 f5be bf5a a63e 8a56 933e
00000010: 14bd 933e f5f0 1dbe 97c4 cfbe b4c7 a73c
00000020: f86e 613e 41a7 003f a8b0 d73d ab0d f23e
00000030: f547 fa3e 0118 d23d b00f dbbd be7e a9be

encoder.epic.output_layer.bias f4 [8]
0.029230736 -0.22918427 -0.06375803 0.22575736 0.08940706 0.1369076 -0.15227404 0.20447189
00000000: 4c75 ef3c 48af 6abe 9293 82bd f02c 673e
00000010: 0c1b b73d 8231 0c3e baed 1bbe 1461 513e

encoder.epic.output_layer.weight_g f4 [8, 1]
0.71452063 0.57759875 0.58011264 0.54790336 0.61171335 0.46387818 0.5016353 0.6988723
00000000: d3ea 363f 83dd 133f 4382 143f 6543 0c3f
00000010: 3f99 1c3f 7181 ed3e 2c6b 003f 4ce9 323f

encoder.epic.output_layer.weight_v f4 [8, 12]
0.29509643 -0.26868826 0.19810532 -0.2638157 -0.050070547 -0.14823158 0.29538593 -0.20037898
-0.1542952 0.19845936 0.10377055 -0.19207533 -0.12765545 0.13910717 -0.17249809 0.21984017
0.059395198 0.16360463 -0.22977448 0.08312233 -0.21132033 0.22426519 0.0098457765 -0.2405418
0.0031909414 -0.0055639264 -0.22677973 -0.26981005 -0.0164267 -0.19891892 -0.21310794 0.16527249
0.10357051 0.115392864 0.20391385 0.087398276 -0.033709023 -0.07590179 0.051463153 0.18686865
0.048455827 0.15215082 0.034618154 0.07726715 0.28572065 -0.11665884 -0.20590837 0.2657118
0.279418 -0.070409305 -0.092456326 -0.16993167 0.22011006 0.15724857 0.27379873 -0.15339038
0.12756816 -0.0916217 -0.24432331 -0.027172584 0.17723824 -0.013593025 0.119859 0.2780377
-0.11385299 0.14046788 -0.14807713 0.114250846 0.08731672 0.026895948 0.16375384 -0.05393506
-0.101910636 -0.19790512 0.15766013 -0.09400662 -0.1563911 -0.029216314 -0.11073221 -0.10801662
0.18250875 -0.2229055 0.050397944 -0.16892086 -0.1409131 -0.19756131 -0.24465741 -0.14867473
0.24293736 -0.26875073 0.25973192 -0.1248385 -0.19740842 -0.17487882 -0.07592086 0.19132188
00000000: e116 973e 8291 89be 1fdc 4a3e da12 87be
00000010: c616 4dbd 05ca 17be d33c 973e 2630 4dbe
00000020: 90ff 1dbe ee38 4b3e a785 d43d 65af 44be
00000030: 1cb8 02be 1c72 0e3e 57a3 30be c81d 613e
00000040: 6148 733d f987 273e 004a 6bbe 0a3c aa3d
00000050: 5b64 58be c6a5 653e 2e50 213c 9750 76be
00000060: 1d1f 513b 9951 b6bb f238 68be 8b24 8abe
00000070: 4991 86bc 67b1 4bbe f838 5abe 313d 293e
00000080: c71c d43d 1853 ec3d cbce 503e defd b23d
00000090: 7912 0abd 6672 9bbd 07cb 523d 7f5a 3f3e
000000a0: 9e79 463d 6dcd 1b3e c4cb 0d3d 3d3e 9e3d
000000b0: fa49 923e d4ea eebd a5d9 52be 610b 883e
000000c0: e00f 8f3e c132 90bd be59 bdbd 9102 2ebe
000000d0: 8864 613e c505 213e 592f 8c3e 5e12 1dbe
000000e0: 3aa1 023e 28a4 bbbd e42f 7abe 0a99 debc
000000f0: f17d 353e 47b5 5ebc a378 f53d f55a 8e3e
00000100: c22b e9bd d0d6 0f3e 88a1 17be 59fc e93d
00000110: 1cd3 b23d e454 dc3c 16af 273e 02eb 5cbd
00000120: 86b6 d0bd a4a7 4abe a871 213e 8b86 c0bd
00000130: fd24 20be 0d57 efbc 92c7 e2bd d137 ddbd
00000140: 93e3 3a3e 5741 64be 136e 4e3d 97f9 2cbe
00000150: 864b 10be 834d 4abe 7987 7abe 303e 18be
00000160: 92c4 783e b299 89be 95fb 843e 54ab ffbd
00000170: 6f25 4abe 6f13 33be 657c 9bbd e2e9 433e

exp_avg f4 [4]
-0.008966147 -0.0003277567 0.0079471525 -0.0031601235
00000000: bfe6 12bc c2d6 abb9 c634 023c 131a 4fbb

exp_avg_sq f4 [4]
1.9962506e-06 2.5698048e-09 1.5105549e-06 2.4239912e-07
00000000: 53f7 0536 7c98 3031 45be ca35 1523 8234

exp_avg f4 [4, 1]
-0.00655126 9.57823e-05 0.0009937269 -0.0027588974
00000000: f4ab d6bb bbde c838 f13f 823a 9ece 34bb

exp_avg_sq f4 [4, 1]
1.0570718e-06 3.160112e-10 3.154595e-08 1.7200837e-07
00000000: b6e0 8d35 9fba ad2f 247d 0733 4db1 3834

exp_avg f4 [4, 12]
-0.0066902447 -0.007258298 -0.0045830626 0.0006435752 -0.0066039455 -0.006724324 -0.0068015107 0.0020522468
-0.0004321576 -0.0012043813 0.005774411 -0.002724775 -0.00022700915 -0.00028329677 -0.00019893772 -2.8300822e-06
-0.00019408537 -0.0003259995 -0.00022775869 -6.486284e-06 0.00017593775 -8.407947e-05 0.00046752824 -0.00014435741
0.0065548513 0.0076155607 0.0036397066 -4.717719e-06 0.006746602 0.007872091 0.00362662 -0.00044386624
-0.0021764848 0.0007336777 -0.0009926845 -2.1181748e-05 -0.0019526205 -0.0036877787 -0.0020050502 0.00039480295
-0.0038450484 -0.004093552 -0.0009576145 -0.00050397456 -0.0026285667 -0.0017619538 0.0049863337 0.0003108191
00000000: d739 dbbb 04d7 edbb 842d 96bb 9ab5 283a
00000010: e965 d8bb b857 dcbb 35df debb fd7e 063b
00000020: 3693 e2b9 55dc 9dba 4537 bd3b 2492 32bb
00000030: 4e09 6eb9 7387 94b9 f099 50b9 71ec 3db6
00000040: 6583 4bb9 eaea aab9 82d2 6eb9 c1a4 d9b6
00000050: ee7b 3839 d253 b0b8 941e f539 a65e 17b9
00000060: 14ca d63b f48b f93b 2588 6e3b e64c 9eb6
00000070: 9912 dd3b f1f9 003c 96ac 6d3b b8b6 e8b9
00000080: 5ba3 0ebb 4754 403a f71c 82ba 75af b1b7
00000090: 12ef ffba a9ae 71bb 2967 03bb 8efd ce39
000000a0: 35fd 7bbb 3423 86bb 6c08 7bba 291d 04ba
000000b0: 0844 2cbb 5cf1 e6ba 6664 a33b 6ff5 a239

exp_avg_sq f4 [4, 12]
1.1048476e-06 1.3119777e-06 5.458888e-07 1.0488792e-08 1.0767317e-06 1.1285211e-06 1.1735141e-06 1.04197916e-07
9.538313e-09 4.2837385e-08 7.799298e-07 1.7956404e-07 1.2366728e-09 1.8779005e-09 9.617763e-10 2.0800149e-13
8.9497554e-10 2.5494358e-09 1.298969e-09 1.2476731e-12 7.6105733e-10 2.5622754e-10 4.9968802e-09 5.370416e-10
1.0326725e-06 1.3882034e-06 3.2027916e-07 8.339167e-12 1.0977977e-06 1.489359e-06 3.1781693e-07 6.530534e-09
1.2857775e-07 1.7792106e-08 3.648921e-08 1.8199482e-09 9.7977754e-08 3.2384455e-07 9.868648e-08 3.5668186e-09
3.4351987e-07 3.947883e-07 2.7847628e-08 5.803756e-09 1.5960563e-07 7.637002e-08 5.8220303e-07 3.6511942e-09
00000000: 464a 9435 3617 b035 3189 1235 3232 3432
00000010: 3884 9035 b177 9735 a381 9d35 69c3 df33
00000020: f2dd 2332 34fc 3733 5e5c 5135 30ce 4034
00000030: 8ef7 a930 600c 0131 7f2f 8430 5930 6a2a
00000040: 4e02 7630 2632 2f31 6987 b230 2998 af2b
00000050: a632 5130 d2dc 8c2f 06b1 ab31 f19e 1330
00000060: 5b9a 8a35 4e52 ba35 d5f2 ab34 45b4 122d
00000070: 0b58 9335 fce5 c735 6da0 aa34 2f63 e031
00000080: 2f0f 0a34 41d5 9832 50b8 1c33 bc21 fa30
00000090: d767 d233 dbdc ad34 77ed d333 231c 7531
000000a0: 036d b834 4af3 d334 9535 ef32 616a c731
000000b0: 1060 2b34 dd00 a433 b048 1c35 7de8 7a31

exp_avg f4 [4]
0.014205532 0.022045406 0.01604063 -0.011246966
00000000: 52be 683c 9198 b43c a467 833c 3245 38bc

exp_avg_sq f4 [4]
4.9552923e-06 1.1582582e-05 7.838328e-06 3.5909027e-06
00000000: a345 a636 d052 4237 5d81 0337 3dfb 7036

exp_avg f4 [4, 1]
-0.000491259 0.0012191739 0.00075752486 -0.0006058951
00000000: d5c7 00ba b0cc 9f3a a294 463a efd4 1eba

exp_avg_sq f4 [4, 1]
5.6554175e-09 4.295215e-08 1.7065942e-08 3.4698612e-08
00000000: 9451 c231 637a 3833 6798 9232 8707 1533

exp_avg f4 [4, 4]
0.00019195133 -0.0018328748 0.0016145073 -0.0020767206 0.00054494094 -0.0027822747 0.0013928453 -0.0036479079
0.0007523561 -0.0025426517 -0.0012747957 -0.00041102341 -0.00043373046 0.0020655815 0.0046263454 -0.0007240485
00000000: 8b46 4939 133d f0ba e09d d33a 9719 08bb
00000010: 5eda 0e3a d356 36bb 2290 b63a bd11 6fbb
00000020: c339 453a 9ea2 26bb 0c17 a7ba a17e d7b9
00000030: 5166 e3b9 b55e 073b 9998 973b 13ce 3dba

exp_avg_sq f4 [4, 4]
1.1626858e-09 8.606519e-08 6.5641466e-08 1.0517423e-07 6.809539e-09 1.8139214e-07 4.9993126e-08 3.278301e-07
1.4610256e-08 1.9791638e-07 4.188842e-08 3.1982815e-08 1.5161941e-08 1.0074196e-07 4.9393276e-07 1.36045095e-08
00000000: 5fcc 9f30 d7d2 b833 c7f6 8c33 25dc e133
00000010: 57f9 e931 b1c4 4234 06b8 5633 a000 b034
00000020: 9600 7b32 d782 5434 cee8 3333 7a5d 0933
00000030: 763d 8232 7a57 d833 cd96 0435 44b9 6932

exp_avg f4 [4]
0.045296848 0.012847146 0.013854881 0.011278145
00000000: 3089 393d d67c 523c 95ff 623c f8c7 383c

exp_avg_sq f4 [4]
5.0261297e-05 4.038717e-06 4.8439e-06 3.1046784e-06
00000000: a8cf 5238 5184 8736 c988 a236 f859 5036

exp_avg f4 [4, 1]
0.03795196 0.00019150118 0.0020958262 4.676696e-05
00000000: 8473 1b3d b5cd 4839 215a 093b a427 4438

exp_avg_sq f4 [4, 1]
3.5843528e-05 6.204887e-09 1.2556714e-07 7.285731e-10
00000000: b256 1638 c332 d531 a2d3 0634 c644 4830

exp_avg f4 [4, 12]
0.004945942 0.009125337 -0.00083074113 0.024031164 0.0091291275 0.006978817 0.006347102 0.0073794313
0.029970933 0.0306898 0.0046799663 -0.00040389583 -0.0013078732 -0.0016026652 0.0032114591 0.0025159423
-0.0007820915 -0.00079279044 0.0017308855 0.0012999593 0.011015088 0.012863607 0.0054344344 1.1498321e-05
-0.0012242586 -0.002715093 0.0031064486 0.0035986344 -0.0015661474 -8.0150865e-05 0.0015987965 0.0007315018
0.011330815 0.013773505 0.00558987 -0.00041041564 -0.0012258685 -0.0014436689 0.002803912 0.0022441107
-0.0006171813 -0.00075243996 0.0014261538 0.0011583852 0.00981208 0.011119131 0.004335369 2.981445e-05
00000000: 9211 a23b 7082 153c 18c6 59ba 01dd c43c
00000010: 5692 153c 8fae e43b 5afb cf3b 28cf f13b
00000020: 9a85 f53c 2d69 fb3c 675a 993b fbc1 d3b9
00000030: f16c abba 8510 d2ba 5877 523b 82e2 243b
00000040: 4605 4dba 44d3 4fba e1de e23a 6563 aa3a
00000050: a178 343c e1c1 523c 5713 b23b eae8 4037
00000060: 4d77 a0ba b4ef 31bb 8f95 4b3b 11d7 6b3b
00000070: 3047 cdba ab16 a8b8 b58e d13a 41c2 3f3a
00000080: e2a4 393c 44aa 613c 3a2b b73b 0e2d d7b9
00000090: 52ad a0ba 7d39 bdba d6c1 373b ee11 133b
000000a0: 56ca 21ba 643f 45ba c8ed ba3a f5d4 973a
000000b0: d9c2 203c 042d 363c b60f 8e3b 0b1a fa37

exp_avg_sq f4 [4, 12]
6.242075e-07 2.1280357e-06 1.6393258e-08 1.425073e-05 2.0926386e-06 1.2321485e-06 9.949724e-07 1.3189438e-06
2.1674965e-05 2.2932863e-05 6.3753976e-07 3.5410408e-09 3.8534033e-08 6.090706e-08 2.5592587e-07 1.4876288e-07
1.6591919e-08 1.4389467e-08 7.853538e-08 3.981106e-08 2.9436821e-06 4.0758237e-06 7.3894216e-07 2.2508896e-10
3.6200944e-08 1.9124099e-07 2.4735382e-07 3.3308436e-07 6.521577e-08 6.4115896e-10 6.5216874e-08 1.2239132e-08
3.2128974e-06 4.8165816e-06 8.2603816e-07 4.8235202e-09 3.6351064e-08 5.067229e-08 1.9782208e-07 1.2246994e-07
9.062796e-09 1.41757805e-08 5.0420436e-08 3.2849936e-08 2.3388889e-06 3.028348e-06 4.876916e-07 9.0431496e-11
00000000: 368f 2735 60cf 0e36 28d1 8c32 6b16 6f37
00000010: 426f 0c36 4d60 a535 fe8a 8535 9006 b135
00000020: a2d2 b537 f35f c037 6623 2b35 a656 7331
00000030: 9e80 2533 03cc 8233 2f66 8934 a1bb 1f34
00000040: 0486 8e32 8c35 7732 48a7 a833 b9fc 2a33
00000050: 138c 4536 0fc3 8836 b85b 4635 e97c 772f
00000060: 5c7b 1b33 ec57 4d34 0dcc 8434 c4d2 b234
00000070: c00c 8c33 8d3d 3030 5b0d 8c33 4644 5232
00000080: 289d 5736 1f9e a136 e9bc 5d35 22bc a531
00000090: 6b20 1c33 c6a2 5933 eb68 5434 4880 0334
000000a0: 99b2 1b32 be89 7332 db8d 5833 e316 0d33
000000b0: cef5 1c36 9f3a 4b36 e9e9 0235 68dc c62e

exp_avg f4 [4]
0.0888964 -0.009849252 -0.006084482 4.6230925e-05
00000000: 510f b63d c25e 21bc 5660 c7bb 14e8 4138

exp_avg_sq f4 [4]
0.00019268399 2.2134998e-06 8.4052584e-07 3.2392776e-08
00000000: 370b 4a39 a38b 1436 7fa0 6135 3c20 0b33

exp_avg f4 [4, 1]
0.029012645 0.0037158814 0.0019359405 -2.6401189e-05
00000000: edab ed3c 2586 733b 62bf fd3a 1f78 ddb7

exp_avg_sq f4 [4, 1]
2.15399e-05 3.2091245e-07 8.720392e-08 5.6268545e-09
00000000: 95b0 b437 df49 ac34 dd44 bb33 5656 c131

exp_avg f4 [4, 4]
0.04034993 0.0009536171 -0.023537133 -0.020958684 -0.0045344625 0.0010033849 -0.0019200258 0.0015349308
-0.003069473 0.00074858137 -0.00044884492 0.0013619723 -2.4393714e-05 -4.053892e-05 -3.2023796e-05 2.8190583e-05
00000000: f845 253d 29fc 793a f2d0 c0bc 8cb1 abbc
00000010: d495 94bb 0384 833a 60a9 fbba bb2f c93a
00000020: 3629 49bb 723c 443a f252 ebb9 3584 b23a
00000030: 1aa1 ccb7 5508 2ab8 4a51 06b8 d17a ec37

exp_avg_sq f4 [4, 4]
4.008602e-05 3.3975606e-08 1.3775927e-05 1.0964233e-05 4.7539305e-07 2.2761009e-08 8.8044e-08 5.3792707e-08
2.1657375e-07 1.2793117e-08 5.0603908e-09 4.2660258e-08 7.4039566e-09 1.7948636e-10 2.0659998e-09 9.628947e-10
00000000: 0922 2838 93ec 1133 281f 6737 06f3 3737
00000010: 8639 ff34 fd83 c332 b312 bd33 b509 6733
00000020: 578b 6834 b9c8 5b32 abdf ad31 7339 3733
00000030: e465 fe31 eb58 452f 74f9 0d31 d856 8430

exp_avg f4 [4]
0.00031477137 -0.00010832311 0.00017908528 0.002850472
00000000: e607 a539 872b e3b8 d7c8 3b39 fcce 3a3b

exp_avg_sq f4 [4]
4.6431623e-09 2.8335292e-10 7.8344464e-10 2.6674556e-07
00000000: b089 9f31 61c6 9b2f 045a 5730 3b35 8f34

exp_avg f4 [4, 1]
0.00012893154 2.9883777e-05 -4.0809962e-05 -0.00053468364
00000000: cc31 0739 ecae fa37 5d2b 2bb8 032a 0cba

exp_avg_sq f4 [4, 1]
8.503804e-10 2.2977766e-11 3.789209e-11 9.35341e-09
00000000: 33c0 6930 541d ca2d b3a6 262e bbb0 2032

exp_avg f4 [4, 16]
-5.6878307e-06 -5.181137e-05 4.0165814e-05 7.044948e-05 -6.806613e-05 1.6575194e-05 8.052395e-05 6.5590307e-06
7.639873e-05 -1.7601324e-05 -5.412327e-06 -3.9423598e-05 0.00026761473 0.0003268635 6.8349626e-05 2.671807e-05
8.433494e-06 1.6089238e-05 -3.099399e-05 -1.2759851e-05 -5.626311e-06 1.3003049e-05 -2.3335726e-05 -2.0312194e-05
-4.286068e-05 2.233662e-05 4.0983127e-06 -4.19829e-06 -9.4571194e-05 -9.967113e-05 -3.466018e-05 9.607705e-06
-8.923543e-06 -2.3401024e-05 3.6526253e-05 5.0239094e-05 -2.0838148e-05 4.1091257e-06 2.5712568e-05 2.9354624e-05
8.682091e-05 -2.5781688e-05 -9.355734e-06 -6.461922e-06 0.00014910384 0.00017235747 8.3948646e-05 3.2277405e-06
-0.00043250658 -0.00011153166 0.0008242301 0.0005705656 -0.00019307924 -1.4195567e-05 0.00019824493 0.00034820286
0.0010241406 -0.000254099 -0.00040505678 -9.953245e-05 0.0019190836 0.0029737006 0.0019403195 7.099391e-05
00000000: 18da beb6 0950 59b8 b777 2838 47be 9338
00000010: babe 8eb8 f50a 8b37 f7de a838 a515 dc36
00000020: 4138 a038 8ea6 93b7 899b b5b6 c45a 25b8
00000030: a44e 8c39 e05e ab39 ed56 8f38 9e20 e037
00000040: 957d 0d37 60f7 8637 8bff 01b8 2513 56b7
00000050: a5c9 bcb6 ac27 5a37 17c1 c3b7 1b64 aab7
00000060: 4ec5 33b8 875f bb37 3d84 8936 09df 8cb6
00000070: 8654 c6b8 8806 d1b8 1660 11b8 c730 2137
00000080: 53b6 15b7 514d c4b7 c433 1938 d1b7 5238
00000090: 95cd aeb7 1fe1 8936 52b1 d737 933e f637
000000a0: 9f13 b638 c145 d8b7 92f6 1cb7 7dd3 d8b6
000000b0: c258 1c39 dbba 3439 960d b038 299c 5836
000000c0: 0dc2 e2b9 1be6 e9b8 2511 583a 0292 153a
000000d0: 5075 4ab9 7f29 6eb7 f8df 4f39 ff8e b639
000000e0: 753c 863a 9738 85b9 cd5d d4b9 14bc d0b8
000000f0: c389 fb3a 6be2 423b 5252 fe3a 91e2 9438

exp_avg_sq f4 [4, 16]
8.7549304e-13 1.1739304e-10 8.073154e-11 2.2916045e-10 2.2418026e-10 1.8998171e-11 3.1671524e-10 1.533643e-12
2.9496416e-10 1.3029702e-11 1.0069666e-12 7.365323e-11 3.0151672e-09 5.034554e-09 5.0456167e-10 3.667155e-11
1.644988e-12 6.1851878e-12 2.3858856e-11 3.723856e-12 9.063787e-13 4.1446165e-12 1.36807935e-11 1.0191564e-11
4.600409e-11 1.23491e-11 3.7322974e-13 4.592592e-13 2.1534571e-10 2.3992883e-10 3.0335227e-11 2.3746974e-12
2.1346351e-12 1.3042235e-11 3.422613e-11 5.958606e-11 1.0133785e-11 4.1125008e-13 1.6361482e-11 2.0280453e-11
1.8485707e-10 1.6435712e-11 2.7308143e-12 9.172007e-13 5.3746585e-10 7.2559037e-10 1.776082e-10 2.4884012e-13
5.995244e-09 4.091924e-10 2.2713587e-08 1.0479346e-08 1.1637771e-09 2.5735622e-11 1.3267464e-09 3.7844763e-09
3.5762397e-08 2.194305e-09 5.467163e-09 3.3192518e-10 1.2408171e-07 2.8976885e-07 1.2050117e-07 1.6656053e-10
00000000: ec6d 762b 3413 012f d187 b12e eff6 7b2f
00000010: 227d 762f 141c a72d b51d ae2f 50d7 d72b
00000020: 8428 a22f 9038 652d ccb7 8d2b 15f7 a12e
00000030: 6233 4f31 68fc ac31 5fb1 0a30 7f48 212e
00000040: f082 e72b 389f d92c 5edd d12d 8305 832c
00000050: 781f 7f2b 63d3 912c d1ac 702d b94a 332d
00000060: 0054 4a2e 673f 592d 131c d22a 1d45 012b
00000070: 6ec6 6c2f fbe6 832f 6e6a 052e bf1a 272c
00000080: 2b36 162c 0171 652d 3287 162e f807 832e
00000090: 8346 322d 6283 e72a c8ea 8f2d 8563 b22d
000000a0: a440 4b2f ef91 902d fa29 402c a315 812b
000000b0: ccbc 1330 e272 4730 4448 432f a415 8c2a
000000c0: b9fe cd31 b6f4 e02f b51b c332 a708 3432
000000d0: c4f2 9f30 785f e22d bd58 b630 9b08 8231
000000e0: 2c99 1933 9fca 1631 add9 bb31 517a b62f
000000f0: 523b 0534 8791 9b34 1c63 0134 9f22 372f

exp_avg f4 [4]
0.036865983 -0.0047622686 0.0021798993 0.0020778764
00000000: c900 173d ce0c 9cbb a4dc 0e3b fb2c 083b

exp_avg_sq f4 [4]
3.3188353e-05 5.3729013e-07 1.1288259e-07 1.0168985e-07
00000000: b933 0b38 4c3a 1035 dc69 f233 9660 da33

exp_avg f4 [4, 1]
0.0008274589 0.00039081147 -0.00075957156 -0.00017736238
00000000: d4e9 583a d4e5 cc39 fc1d 47ba 5afa 39b9

exp_avg_sq f4 [4, 1]
2.1183174e-08 3.728678e-09 1.4165569e-08 7.728934e-10
00000000: 4bf6 b532 cc1d 8031 d55c 7332 8a73 5430

exp_avg f4 [4, 4]
0.012938626 0.00018225145 -0.00072171586 0.00048955134 -0.0015687967 -0.0002755294 4.188055e-05 -0.00031263888
5.893612e-05 0.00011861077 3.373821e-05 -0.00013480104 0.0007220306 -0.00012220902 2.7754493e-05 -8.9323905e-05
00000000: 88fc 533c c01a 3f39 8831 3dba 3c55 003a
00000010: 15a0 cdba ee74 90b9 e6a8 2f38 aee9 a3b9
00000020: 2d32 7738 acbe f838 2182 0d38 6159 0db9
00000030: a746 3d3a 3c25 00b9 52d2 e837 6853 bbb8

exp_avg_sq f4 [4, 4]
4.257656e-06 1.2220611e-09 1.5757621e-08 9.228828e-09 6.056986e-08 1.8660382e-09 4.1324257e-11 2.5213547e-09
8.592475e-11 3.550756e-10 3.1505812e-11 4.2805917e-10 1.2560311e-08 3.6379694e-10 1.944264e-11 1.8212021e-10
00000000: fddc 8e36 74f5 a730 605b 8732 d18c 1e32
00000010: a212 8233 b13b 0031 fabe 352e 2444 2d31
00000020: 56f3 bc2e 7334 c32f 6490 0a2e f953 eb2f
00000030: d5c8 5732 deff c72f ef04 ab2d 483e 482f

exp_avg f4 [4]
-0.009038618 -0.0015559486 -1.3041027e-05 -8.853477e-06
00000000: b616 14bc f9f0 cbba c9ca 5ab7 6589 14b7

exp_avg_sq f4 [4]
1.9434895e-06 6.2076545e-08 7.98929e-12 2.8073986e-12
00000000: e56c 0236 f14e 8533 908c 0c2d 998d 452c

exp_avg f4 [4, 1]
-0.0077722347 -0.00057279377 1.6251388e-06 5.5953146e-06
00000000: 3bae febb 8a27 16ba 581f da35 63bf bb36

exp_avg_sq f4 [4, 1]
1.4250543e-06 8.269674e-09 2.162059e-13 1.0283942e-12
00000000: 7e44 bf35 6912 0e32 1c6d 732a cebb 902b

exp_avg f4 [4, 12]
-0.0022730094 0.0030723875 -0.004820327 -0.0005484537 -0.005885226 0.0002609849 0.00166646 4.6878263e-06
-0.0070402147 -0.0062330468 -0.0025583894 -0.003338082 3.961255e-05 5.4638673e-05 -0.0005174004 -0.00044932173
-0.0010416745 -0.00061572855 0.00045492945 0.000517373 -0.00132958 -0.0015016247 -0.000799775 0.00015983106
8.150623e-07 1.1223884e-06 5.5399516e-07 -3.4146467e-06 -9.94776e-06 -2.8236955e-06 5.737943e-06 4.011863e-06
-1.1095056e-05 -1.217478e-05 -4.859555e-06 -2.7589033e-07 -9.3205705e-07 3.1275174e-06 -3.7772604e-06 6.460261e-07
-5.731406e-06 -9.559708e-07 3.658973e-06 9.577305e-07 -8.328543e-06 -7.809231e-06 -2.3709006e-06 2.3873295e-06
00000000: c5f6 14bb 1c5a 493b d5f3 9dbb 1bc6 0fba
00000010: dbd8 c0bb cdd4 8839 1e6d da3a 1f4c 9d36
00000020: 9ab1 e6bb 963e ccbb a7aa 27bb b9c3 5abb
00000030: a725 2638 d42b 6538 27a2 07ba f192 ebb9
00000040: cc88 88ba d868 21ba 9983 ee39 50a0 073a
00000050: 4d45 aeba 2ad2 c4ba fea7 51ba 5398 2739
00000060: a8ca 5a35 f9a4 9635 42b6 1435 2f27 65b6
00000070: 4ee5 26b7 b87e 3db6 8e88 c036 a49d 8636
00000080: e724 3ab7 4842 4cb7 420f a3b6 141e 94b4
00000090: 7932 7ab5 57e2 5136 d77c 7db6 936a 2d35
000000a0: 6750 c0b6 e84e 80b5 ad8c 7536 5f8b 8035
000000b0: d2ba 0bb7 6404 03b7 c31b 1fb6 0236 2036

exp_avg_sq f4 [4, 12]
1.2235445e-07 2.2337419e-07 5.4999333e-07 7.724866e-09 8.4390297e-07 1.8380913e-09 6.933621e-08 5.6056444e-11
1.1706514e-06 9.281078e-07 1.6961917e-07 2.634311e-07 4.4386543e-11 8.4296764e-11 6.7628396e-09 5.24852e-09
2.862448e-08 9.589516e-09 5.469238e-09 6.8445103e-09 4.5008857e-08 5.7777815e-08 1.6720437e-08 6.4836947e-10
9.184769e-14 8.9082245e-14 2.7789695e-13 5.126519e-13 4.8983643e-12 3.50471e-13 1.6083102e-12 7.6022137e-13
5.911792e-12 6.8800035e-12 1.2422779e-12 5.367705e-15 4.3242543e-14 3.2744185e-13 3.4345874e-13 1.38607176e-14
1.2161164e-12 3.6992734e-14 4.83257e-13 4.1474084e-14 2.5428958e-12 2.222014e-12 2.5007882e-13 1.8673076e-13
00000000: 8960 0334 a1d8 6f34 41a3 1335 52b6 0432
00000010: 9288 6235 17a0 fc30 fce5 9433 f289 762e
00000020: 471f 9d35 1523 7935 9020 3634 b26d 8d34
00000030: ce36 432e dc5e b92e 915e e831 7856 b431
00000040: e6e1 f532 23bf 2432 edeb bb31 f32c eb31
00000050: c34f 4133 6127 7833 a1a0 8f32 f238 3230
00000060: 97d2 ce29 6b98 c829 2c71 9c2a 764c 102b
00000070: 8b58 ac2c 324c c52a 7b59 e22b b9fb 552b
00000080: b000 d02c 9011 f22c c7d5 ae2b 5764 c127
00000090: 42bf 4229 5855 b82a 9f59 c12a 47b1 7928
000000a0: 3627 ab2b b899 2629 5606 082b 5dc8 3a29
000000b0: bdf0 322c 3f5c 1c2c 28c8 8c2a 7a3d 522a

exp_avg f4 [4]
0.023459585 0.00051516533 1.6342825e-05 0.001338725
00000000: 512e c03c 290c 073a f317 8937 2878 af3a

exp_avg_sq f4 [4]
1.337387e-05 6.1944117e-09 4.7884075e-11 2.70768e-07
00000000: 5660 6037 9fd6 d431 ad98 522e 125e 9134

exp_avg f4 [4, 1]
-0.008992928 -0.00011099194 -3.7941045e-06 0.00032016015
00000000: 1357 13bc 58c4 e8b8 389e 7eb6 2bdb a739

exp_avg_sq f4 [4, 1]
1.9122342e-06 2.818579e-10 2.7362453e-12 1.1044307e-08
00000000: ef53 0036 f9f3 9a2f d08b 402c 60bd 3d32

exp_avg f4 [4, 4]
0.002567137 -0.00406341 -0.0007220928 -0.0011938788 0.00017329944 0.00010306622 -9.202314e-06 2.2081515e-05
4.2563643e-06 -1.5078457e-06 -1.7228028e-06 1.4257457e-06 0.00054288213 -9.336264e-05 0.0002202158 -0.00015525971
00000000: 693d 283b 5b26 85bb d44a 3dba ed7b 9cba
00000010: b7b7 3539 4125 d838 a363 1ab7 b13b b937
00000020: e4d1 8e36 2f61 cab5 0e3b e7b5 405c bf35
00000030: 3450 0e3a b0cb c3b8 bbe9 6639 36cd 22b9

exp_avg_sq f4 [4, 4]
1.6051064e-07 3.9562562e-07 1.2915561e-08 3.4700783e-08 6.880115e-10 2.4128893e-10 1.9946657e-12 1.11886065e-11
4.4514258e-12 8.637181e-13 5.696772e-13 3.971735e-13 3.1414103e-08 9.230978e-10 5.2077223e-09 2.6858047e-09
00000000: d458 2c34 5f66 d434 3de3 5d32 ea09 1533
00000010: 811e 3d30 66a6 842f b45c 0c2c 01d5 442d
00000020: e19e 9c2c 731d 732b 9259 202b bc96 df2a
00000030: 2cec 0633 3cbd 7d30 9cef b231 2d91 3831

exp_avg f4 [4]
0.0034772407 4.2508356e-05 -0.00012371548 0.0041331355
00000000: 6be2 633b 004b 3238 9fb9 01b9 416f 873b

exp_avg_sq f4 [4]
3.5359324e-07 4.3085632e-11 3.7008677e-10 4.27534e-07
00000000: 7cd5 bd34 1c7e 3d2e 1575 cb2f d387 e534

exp_avg f4 [4, 1]
0.000811076 -2.8339176e-05 3.0772226e-05 -0.0008034705
00000000: 649e 543a ebb9 edb7 6d11 0138 fe9f 52ba

exp_avg_sq f4 [4, 1]
2.1000856e-08 1.9089995e-11 2.3845825e-11 1.5673672e-08
00000000: 5f65 b432 d9ea a72d 06c0 d12d c5a2 8632

exp_avg f4 [4, 16]
0.0001668775 -0.0006980152 0.0010049324 0.0026821988 1.5349311e-05 -3.0137344e-05 0.000330929 0.0013861593
0.0039662463 0.00033171262 -0.0006717905 -0.00027489956 0.0026817801 0.0031313112 0.0015023606 -0.0002289748
-6.676279e-06 -7.5431153e-06 1.8850435e-05 2.2608494e-05 -3.73979e-07 -1.1098261e-06 -5.62834e-06 9.827776e-06
4.0951294e-05 1.792954e-05 -5.5721052e-06 2.591157e-07 2.4109526e-05 5.0187744e-05 1.7122824e-05 -8.470855e-07
-5.175573e-06 4.4521e-06 -2.4989025e-05 -7.7033656e-05 8.890809e-06 -2.2709514e-06 -9.442467e-06 -5.4808974e-05
-0.00014245416 -1.5796222e-05 2.7189535e-05 3.0002757e-06 -9.838001e-05 -0.00011770193 -5.8884747e-05 3.2678813e-06
0.00036735 -0.0003174168 0.00082057616 0.003122387 0.0002574433 2.3670655e-05 0.0006439102 0.0012257763
0.004511767 0.0003098968 -0.000622865 -0.00024058174 0.0038538831 0.0041374876 0.0018094982 -0.00018448998
00000000: d6fb 2e39 02fb 36ba f0b7 833a d4c7 2f3b
00000010: 65c2 8037 74cf fcb7 8a80 ad39 caaf b53a
00000020: 49f7 813b b7e9 ad39 191b 30ba 6520 90b9
00000030: cec0 2f3b af36 4d3b dbea c43a f418 70b9
00000040: cd04 e0b6 de1a fdb6 0021 9e37 5fa7 bd37
00000050: 48c7 c8b4 56f5 94b5 13db bcb6 fae1 2437
00000060: 1ec3 2b38 6567 9637 05f8 bab6 971c 8b34
00000070: d03e ca37 ae80 5238 fca2 8f37 4663 63b5
00000080: d5a9 adb6 3f63 9536 869f d1b7 218d a1b8
00000090: bc29 1537 a666 18b6 166b 1eb7 b0e2 65b8
000000a0: bf5f 15b9 2182 84b7 1515 e437 5858 4936
000000b0: 5e51 ceb8 bed6 f6b8 04fb 76b8 c64d 5b36
000000c0: e298 c039 f66a a6b9 ef1b 573a f6a0 4c3b
000000d0: 74f9 8639 5890 c637 15cc 283a 3aaa a03a
000000e0: 72d7 933b a579 a239 c347 23ba ab44 7cb9
000000f0: 6e91 7c3b c393 873b af2c ed3a a773 41b9

exp_avg_sq f4 [4, 16]
1.1742787e-09 1.4597976e-08 3.0721623e-08 2.1267203e-07 3.292255e-11 3.2316618e-11 3.2504917e-09 5.7081785e-08
4.878408e-07 2.9103684e-09 1.3715058e-08 2.4317892e-09 2.1388213e-07 2.8636543e-07 6.2678076e-08 1.6872171e-09
1.0135363e-12 1.344699e-12 8.534568e-12 1.2099237e-11 4.7321728e-15 3.109485e-14 7.485442e-13 2.3091032e-12
4.1576877e-11 7.431178e-12 7.613686e-13 4.271182e-15 1.3744242e-11 5.9846676e-11 7.296887e-12 1.8920853e-14
8.693387e-13 4.4470634e-13 1.5352154e-11 1.4243164e-10 1.878693e-12 1.8653061e-13 2.1761022e-12 7.305329e-11
5.106529e-10 5.8745786e-12 1.8344454e-11 2.1426959e-13 2.3251717e-10 3.3599845e-10 8.76701e-11 2.637585e-13
3.822372e-09 2.5073597e-09 1.7536447e-08 2.4047614e-07 1.7941127e-09 4.7778524e-11 1.0517813e-08 3.7715395e-08
5.3077207e-07 2.5199065e-09 9.842859e-09 1.3541651e-09 3.6535695e-07 4.2675444e-07 8.631929e-08 8.2483215e-10
00000000: 4264 a130 94ca 7a32 c8f2 0333 d85a 6434
00000010: 7fcb 102e 4721 0e2e 415f 5f31 162a 7533
00000020: 2af4 0235 beff 4731 779f 6b32 7d1c 2731
00000030: 79a7 6534 c4bd 9934 a399 8633 ade3 e730
00000040: 7ea4 8e2b e33f bd2b 4724 162d 1fda 542d
00000050: 977e aa27 ec09 0c29 4bb2 522b 1b7d 222c
00000060: 67db 362e 0dbb 022d 644e 562b b3e2 9927
00000070: 90ca 712d af9a 832e 425e 002d 846c aa28
00000080: 75b2 742b f058 fa2a fa09 872d f19a 1c2f
00000090: 8633 042c ca03 522a 2c21 192c 59a5 a02e
000000a0: 015e 0c30 80b1 ce2c 0a5c a12d 013f 712a
000000b0: c4a7 7f2f 94b7 b82f e1c9 c02e 9b7b 942a
000000c0: f155 8331 f04d 2c31 0ea3 9632 ca1a 8134
000000d0: bb94 f630 d621 522e d5b1 3432 84fc 2133
000000e0: 617a 0e35 aa2a 2d31 5a19 2932 731d ba30
000000f0: 4726 c434 af1c e534 885e b933 67ba 6230

exp_avg f4 [4]
0.0363199 -0.0028729334 0.0039714486 -0.004959017
00000000: 2dc4 143d d347 3cbb ed22 823b 407f a2bb

exp_avg_sq f4 [4]
3.1743664e-05 2.0432061e-07 3.877008e-07 6.048543e-07
00000000: 8024 0538 3963 5b34 3125 d034 455d 2235

exp_avg f4 [4, 1]
0.0018396934 0.00015781066 -0.00026074934 -8.670322e-05
00000000: de21 f13a fa79 2539 2fb5 88b9 70d4 b5b8

exp_avg_sq f4 [4, 1]
9.760792e-08 6.201915e-10 1.7067086e-09 2.1596906e-10
00000000: 869c d133 197a 2a30 7891 ea30 e375 6d2f

exp_avg f4 [4, 4]
0.00042568953 -0.00066135364 0.0014385944 0.003436002 -0.00016380605 -5.6086534e-05 -6.767189e-05 -0.00024612425
0.00021395266 0.00015410234 -7.1395414e-05 0.0003139873 -0.000228474 1.4546063e-05 -1.174039e-06 -0.0005658255
00000000: 152f df39 b15e 2dba 388f bc3a 8c2e 613b
00000010: 5ac3 2bb9 753e 6bb8 12eb 8db8 3d0a 81b9
00000020: 7b58 6039 8896 2139 1fba 95b8 a99e a439
00000030: 8692 6fb9 dd0a 7437 ac93 9db5 e853 14ba

exp_avg_sq f4 [4, 4]
1.4235837e-08 1.1903551e-08 6.0384906e-08 3.0378686e-07 8.6762003e-10 7.888128e-11 1.13768286e-10 1.7203161e-09
1.4908476e-09 5.9773236e-10 1.2902995e-10 2.7578901e-09 1.393547e-09 6.8584548e-12 1.6282508e-12 8.9529095e-09
00000000: e091 7432 5f80 4c32 f4ac 8133 2618 a334
00000010: 557d 6e30 3776 ad2e da2d fa2e 3e70 ec30
00000020: 89e6 cc30 ad4d 2430 b4de 0d2f 5185 3d31
00000030: 1387 bf30 784f f12c eb27 e52b 50cf 1932

exp_avg f4 [4]
0.017592084 -0.0001526387 -0.0003910064 0.00011131805
00000000: 461d 903c a40d 20b9 feff ccb9 6c73 e938

exp_avg_sq f4 [4]
7.61918e-06 5.407621e-10 4.2717363e-09 3.261773e-10
00000000: 42a8 ff36 c0a4 1430 97c6 9231 6051 b32f

exp_avg f4 [4, 1]
0.01729276 0.00010130794 2.663183e-05 -5.538094e-05
00000000: 8ca9 8d3c 4975 d438 6b67 df37 d548 68b8

exp_avg_sq f4 [4, 1]
7.6192377e-06 2.4373095e-10 2.4922127e-11 7.6477415e-11
00000000: c1a8 ff36 15fe 852f a437 db2d f52c a82e

exp_avg f4 [4, 12]
-0.0021065937 0.0010588238 0.007348852 0.008236054 0.0211888 -0.0025318621 -0.009412098 7.8971796e-05
0.0112741655 0.022242118 0.00097196095 0.0027360204 -5.9095026e-05 -7.953928e-06 -9.856422e-06 -9.53374e-05
-0.00023928695 8.8260795e-06 5.3553944e-05 5.682631e-05 -9.426399e-05 -0.0001434761 -3.5805344e-05 2.3795712e-05
-2.4537394e-05 2.3481334e-05 -0.00012475852 -0.00014490263 -0.00042626582 0.00015320332 7.197584e-05 0.00016905798
-0.00030231563 -0.00039556608 -0.00020725511 9.5284795e-06 -8.123712e-06 -2.194012e-05 3.393504e-06 9.969117e-05
0.00014980855 -2.2255783e-05 -1.4421624e-05 -3.0226252e-05 0.00010220978 9.064862e-05 6.8123125e-05 1.0711849e-05
00000000: c70e 0abb 3bc8 8a3a a4ce f03b 84f0 063c
00000010: 2294 ad3c 99ed 25bb 3335 1abc a99d a538
00000020: 47b7 383c 1a35 b63c 32cb 7e3a ce4e 333b
00000030: cddc 77b8 dc71 05b7 035d 25b7 e0ef c7b8
00000040: 1ae9 7ab9 b913 1437 1c9f 6038 c958 6e38
00000050: 98af c5b8 1372 16b9 b22d 16b8 e79c c737
00000060: a7d5 cdb7 c8f9 c437 9cd1 02b9 01f1 17b9
00000070: 6e7c dfb9 34a5 2039 bcf1 9638 2845 3139
00000080: 1e80 9eb9 fb63 cfb9 9f52 59b9 82dc 1f37
00000090: 144b 08b7 0d0c b8b7 f4bb 6336 4a11 d138
000000a0: ed15 1d39 eeb1 bab7 67f4 71b7 628e fdb7
000000b0: 7559 d638 9b1a be38 53dd 8e38 0bb7 3337

exp_avg_sq f4 [4, 12]
1.0509227e-07 3.157611e-08 1.3787449e-06 1.6130437e-06 1.1314713e-05 1.7276562e-07 2.2380389e-06 2.9587628e-09
3.0872266e-06 1.2297807e-05 2.6516917e-08 1.8792701e-07 8.4052994e-11 1.6828482e-12 2.2542966e-12 2.1171292e-10
1.356514e-09 2.4032627e-12 6.727501e-11 7.4741956e-11 2.0394754e-10 4.7731324e-10 3.0398354e-11 1.3321172e-11
2.6771677e-11 2.5308379e-11 4.2002282e-10 5.155268e-10 4.7258517e-09 7.2502077e-10 1.4585454e-10 8.1040413e-10
2.543573e-09 4.299981e-09 1.2861514e-09 4.19522e-12 1.9517302e-12 1.2709443e-11 5.4423973e-13 2.6208435e-10
5.8368466e-10 1.3794528e-11 5.849398e-12 2.5619333e-11 2.7340435e-10 2.2066707e-10 1.2616601e-10 2.9031285e-12
00000000: 16af e133 4d9e 0733 500d b935 c27f d835
00000010: 53d4 3d37 7481 3934 3731 1636 1b53 4b31
00000020: 262e 4f36 ae52 4e37 51c7 e332 fcc8 4934
00000030: a1d5 b82e ffd6 ec2b cca1 1e2c e4c7 682f
00000040: 1870 ba30 551d 292c 77f0 932e fb5b a42e
00000050: 213e 602f ef33 0330 81b1 052e 3a59 6a2d
00000060: 757c eb2d 679d de2d f5e8 e62f f9b4 0d30
00000070: 0861 a231 cd4a 4730 675e 202f 1fc3 5e30
00000080: 02cb 2e31 08bf 9331 6ec4 b030 2f9b 932c
00000090: 3f57 092c 3e96 5f2d 9b30 192b 1815 902f
000000a0: 2871 2030 08ad 722d b1ce cd2c 9c59 e12d
000000b0: 3e4e 962f 42a0 722f 93b8 0a2f 1d4a 4c2c

exp_avg f4 [4]
0.020105224 0.051964067 0.0040518474 -0.001506109
00000000: b6b3 a43c 46d8 543d 5cc5 843b a268 c5ba

exp_avg_sq f4 [4]
9.785495e-06 6.281438e-05 8.562831e-07 2.835105e-07
00000000: 622c 2437 37bb 8338 54db 6535 6335 9834

exp_avg f4 [4, 1]
0.00233681 0.01796651 0.0007940387 -0.00053955964
00000000: 2b25 193b 812e 933c 0927 503a 3c71 0dba

exp_avg_sq f4 [4, 1]
1.4034224e-07 7.836575e-06 3.131663e-08 6.489686e-08
00000000: fbb0 1634 d579 0337 0081 0633 6d5d 8b33

exp_avg f4 [4, 4]
0.011485317 0.0016295474 -0.0011373841 -0.001050054 0.021419669 0.0050121685 0.013666386 -0.00069320557
0.0023571237 -0.0005494589 -9.667513e-05 -0.00052000745 -0.00024227858 9.8505174e-05 -0.00011901064 -0.00028667971
00000000: e92c 3c3c 8a96 d53a 4714 95ba f7a1 89ba
00000010: 4d78 af3c 1e3d a43b fae8 5f3c 3db8 35ba
00000020: f979 1a3b 9009 10ba 11be cab8 1c51 08ba
00000030: 290c 7eb9 9094 ce38 5a95 f9b8 804d 96b9

exp_avg_sq f4 [4, 4]
3.3429014e-06 6.881891e-08 3.373519e-08 2.8363697e-08 1.1018556e-05 6.067458e-07 4.541119e-06 1.0800367e-08
2.7428408e-07 1.5009597e-08 5.677327e-10 1.3346817e-08 1.2655675e-08 1.971338e-09 2.1085773e-09 1.8854754e-08
00000000: 9c56 6036 99c9 9333 3ce4 1033 6ea4 f332
00000010: 56dc 3837 41df 2235 ea5f 9836 848c 3932
00000020: 5141 9334 74ee 8032 a30e 1c30 ec4b 6532
00000030: 3f6c 5932 2578 0731 7ce6 1031 0bf6 a132

exp_avg f4 [8]
-0.12784791 -0.009995883 -0.09505964 -0.023362236 0.09188605 0.09166293 0.041505706 0.031210987
00000000: 90ea 02be c6c5 23bc a1ae c2bd 2962 bfbc
00000010: c12e bc3d c6b9 bb3d e301 2a3d 2fae ff3c

exp_avg_sq f4 [8]
0.0003774599 2.7943254e-06 0.00021114055 1.3498199e-05 0.0001974024 0.00019486937 3.998476e-05 2.258181e-05
00000000: cfe5 c539 2586 3b36 9c65 5d39 5376 6237
00000010: cefd 4e39 d955 4c39 4fb5 2738 116e bd37

exp_avg f4 [8, 1]
0.08674093 0.00899304 -0.011590841 -0.016490294 0.07329633 0.08528815 -0.004883205 -0.031151684
00000000: 3ba5 b13d 8b57 133c 83e7 3dbc a716 87bc
00000010: 631c 963d 8eab ae3d 4b03 a0bb d131 ffbc

exp_avg_sq f4 [8, 1]
0.00017985931 2.2215645e-06 3.1449504e-06 7.232017e-06 0.000131647 0.00017332597 5.8440844e-07 2.2219112e-05
00000000: 9e98 3c39 3016 1536 d60d 5336 8eaa f236
00000010: b90a 0a39 d6be 3539 3ee0 1c35 2e63 ba37

exp_avg f4 [8, 12]
-0.14401703 -0.0942166 -0.07577973 0.030158427 -0.03593826 -0.012515632 -0.08938287 -0.14630972
-0.22381598 -0.0036907985 0.0048398115 0.020480754 -0.0067347703 -0.011831703 -0.0011575271 -0.0032641753
-0.0049534924 -0.0044762674 0.0022457486 -0.012180053 -0.022690404 -0.0017866511 0.0011566079 0.0034097359
-0.08320697 -0.09750558 -0.047743764 -0.006249489 -0.031497765 -0.028578429 -0.05450122 -0.123051845
-0.17813452 0.017442055 0.017942753 0.00036710346 -0.021779265 -0.026175432 -0.00832046 0.0058261575
-0.0017868084 0.0013666808 -0.011990105 -0.02814093 -0.014613622 5.7646275e-06 -0.0032233063 0.008047036
0.046018876 0.09958326 0.048674718 0.020115044 0.0037423824 0.0026816963 0.011084095 0.13316931
0.15637349 -0.002725235 0.015797833 0.004067071 0.045641266 0.09181945 0.016911479 -0.047951173
0.046450917 -0.002575151 0.06541968 0.10541263 0.15024003 -0.01788549 -0.040743995 0.010166818
0.034673918 0.039751306 0.019907517 -0.0007515226 0.010834247 0.009387034 0.017632244 0.052693207
0.08187396 -0.008620106 -0.0053291377 -0.0010589153 0.021127304 0.022696517 0.002018386 -0.0068620825
0.021839 -0.0057962444 0.027160034 0.03442472 0.041298214 -0.013051586 -0.008045311 0.009408015
00000000: 3379 13be a2f4 c0bd 6732 9bbd ce0e f73c
00000010: ff33 13bd 5e0e 4dbc 5e0e b7bd 37d2 15be
00000020: 0430 65be 53e1 71bb 4897 9e3b 41c7 a73c
00000030: 59af dcbb c2d9 41bc 2ab8 97ba c6eb 55bb
00000040: e850 a2bb a7ad 92bb 692d 133b d88e 47bc
00000050: 3ae1 b9bc 102e eaba 5299 973a e075 5f3b
00000060: 6a68 aabd 01b1 c7bd f78e 43bd 83c8 ccbb
00000070: cd03 01bd 4f1d eabc ac3c 5fbd 9b02 fcbd
00000080: e568 36be a4e2 8e3c aefc 923c cb77 c039
00000090: 6e6a b2bc dc6d d6bc 8a52 08bc 5ae9 be3b
000000a0: 5733 eaba 3322 b33a 2572 44bc cf87 e6bc
000000b0: f96d 6fbc c66d c136 1b3e 53bb b7d7 033c
000000c0: 4a7e 3c3d 4ff2 cb3d 245f 473d 4ec8 a43c
000000d0: c242 753b 66bf 2f3b 109a 353c 895d 083e
000000e0: 5f20 203e db99 32bb 756a 813c 1045 853b
000000f0: 56f2 3a3d d60b bc3d f189 8a3c 7368 44bd
00000100: 5143 3e3d ddc3 28bb c1fa 853d 94e2 d73d
00000110: 86d8 193e 9784 92bc 2de3 26bd ba92 263c
00000120: 3d06 0e3d 44d2 223d 1715 a33c d401 45ba
00000130: 2082 313c 13cc 193c 7f71 903c d5d4 573d
00000140: 89ad a73d 583b 0dbc 0ca0 aebb 4dcb 8aba
00000150: 2b13 ad3c 0cee b93c e646 043b 52db e0bb
00000160: b4e7 b23c 6cee bdbb b87e de3c ef00 0d3d
00000170: 5128 293d 52d6 55bc 7bd0 03bc 1324 1a3c

exp_avg_sq f4 [8, 12]
0.00048260164 0.00020321697 0.00013599762 2.17227e-05 3.172786e-05 4.0652817e-06 0.00019076545 0.0004927498
0.0011864648 3.9753792e-07 5.213755e-07 9.931691e-06 1.2351792e-06 3.9145166e-06 9.0558004e-08 2.9431908e-07
7.449378e-07 6.2783397e-07 1.4735166e-07 4.662862e-06 1.3763521e-05 8.870344e-08 3.804936e-08 3.1717357e-07
0.00016008684 0.00022065063 5.309179e-05 8.9793093e-07 2.4035155e-05 1.8975768e-05 6.885784e-05 0.00035324556
0.0007463421 6.8842423e-06 7.184903e-06 3.2187963e-08 1.1651803e-05 1.695987e-05 1.8507186e-06 9.0441097e-07
1.5250522e-07 6.65027e-08 3.6093952e-06 1.9708436e-05 5.963745e-06 1.2730782e-08 3.127041e-07 1.7182778e-06
4.7840964e-05 0.0002323302 5.708644e-05 9.792209e-06 3.637907e-07 2.1201753e-07 2.8260001e-06 0.00041576131
0.0005802307 1.6569948e-07 6.2050676e-06 3.9367018e-07 4.7222442e-05 0.00019609147 6.8144805e-06 5.4925295e-05
5.2319472e-05 1.6440192e-07 0.00010211748 0.0002566641 0.0005333752 7.431271e-06 3.9373284e-05 2.4388103e-06
2.7937822e-05 3.7061418e-05 9.237299e-06 1.5393143e-08 3.0561575e-06 2.2099084e-06 7.528472e-06 6.447853e-05
0.00015720808 1.6573233e-06 6.83363e-07 3.8766782e-08 1.0352722e-05 1.20058385e-05 1.5768563e-07 1.0814625e-06
1.1199027e-05 7.333259e-07 1.7186729e-05 2.7414757e-05 4.0133702e-05 3.926089e-06 1.5050811e-06 2.0389866e-06
00000000: b205 fd39 a416 5539 959a 0e39 2539 b637
00000010: 8813 0538 8168 8836 3608 4839 e12b 013a
00000020: 2783 9b3a 326d d534 a7f4 0b35 4aa0 2637
00000030: 6fc8 a535 7159 8336 ca78 c233 e802 9e34
00000040: bcf7 4735 6c88 2835 b737 1e34 ae75 9c36
00000050: dfe9 6637 3b7d be33 b76b 2333 0148 aa34
00000060: fcdc 2739 745e 6739 e0ae 5e38 5809 7135
00000070: 1a9f c937 272e 9f37 c567 9038 d133 b939
00000080: 2ca6 433a 31ff e636 d915 f136 0a3f 0a33
00000090: 1d7c 4337 0b45 8e37 3566 f835 a6c6 7235
000000a0: 51c0 2334 3fd0 8e33 f038 7236 8b53 a537
000000b0: 2e1c c836 92b6 5a32 b9e1 a734 939f e635
000000c0: d8a8 4838 aa9d 7339 1970 6f38 3849 2437
000000d0: 034f c334 efa6 6334 50a6 3d36 8afa d939
000000e0: a01a 183a 20eb 3134 2035 d036 9e59 d334
000000f0: b610 4638 e79d 4d39 f1a7 e436 965f 6638
00000100: 9b71 5b38 7586 3034 e827 d638 df90 8639
00000110: 34d2 0b3a 225a f936 be24 2538 71aa 2336
00000120: 045c ea37 6572 1b38 e6f9 1a37 e139 8432
00000130: 6318 4d36 f04d 1436 159d fc36 a638 8738
00000140: 39d8 2439 3271 de35 5970 3735 8780 2633
00000150: 9ab0 2d37 af6c 4937 4c50 2934 c526 9135
00000160: 74e3 3b37 c6d9 4435 382c 9037 bef8 e537
00000170: 3c55 2838 d9bc 8336 3102 ca35 86d5 0836
