tests/output/multimodal-jets/791c773e7d2f4f61bb2b0007cac20eac/checkpoints/last.ckpt (torch, 44616 bytes, 87 tensors)

embedder.embedding_continuous.embedding.weight f4 [4, 3]
0	0xbd92ad97	-0.07162016
1	0xbeb094e4	-0.34488595
2	0xbefc915f	-0.4932966
3	0x3e975a58	0.29561114
4	0xbd676064	-0.05648841
5	0x3e4a991a	0.19784966
6	0xbea6a3e5	-0.32546917
7	0xbe5ec6a6	-0.21755466
8	0x3f0b6811	0.5445567
9	0x3e78ea67	0.24308167
10	0x3efb893c	0.4912814
11	0xbe190696	-0.14943919

embedder.embedding_continuous.embedding.bias f4 [4]
0	0xbe81803b	-0.25293145
1	0x3eb991b6	0.3624398
2	0x3ee85d79	0.45383814
3	0x3e444fa0	0.19171

encoder.epic.epic_proj.local_0.bias f4 [4]
0	0x3d844db3	0.064601324
1	0x3e2fce3f	0.1716852
2	0x3e259646	0.16170606
3	0x3e1b2c48	0.1515361

encoder.epic.epic_proj.local_0.weight_g f4 [4, 1]
0	0x3f085160	0.5324917
1	0x3efc918f	0.49329802
2	0x3f04d330	0.51884747
3	0x3f017bc3	0.5057947

encoder.epic.epic_proj.local_0.weight_v f4 [4, 8]
0	0x3da347ef	0.079727046
1	0xbe19739f	-0.14985512
2	0xbe07fde9	-0.13280453
3	0x3e91571f	0.2838678
4	0xbe8b1a29	-0.27168396
5	0x3dac249a	0.08405419
6	0x3e33da19	0.17563666
7	0xbe89d40e	-0.26919597
8	0xbdd0aa38	-0.10188717
9	0x3e9d4520	0.307168
10	0xbe4291c8	-0.19000924
11	0xbd1888e9	-0.037239943
12	0x3de09274	0.10965434
13	0xbe6a68c2	-0.22891524
14	0x3e733de2	0.23754075
15	0x3d25755c	0.040395126
16	0xbdefec29	-0.11714966
17	0x3e240c06	0.16020212
18	0x3dd3d7e2	0.10343911
19	0x3e8d8264	0.27638543
20	0xbe0d8666	-0.138208
21	0xbd8ff383	-0.07028868
22	0xbe2dc753	-0.16970567
23	0x3ea6849d	0.3252305
24	0xbea3c04d	-0.3198265
25	0x3c9ff54f	0.019526152
26	0xbe1dffb9	-0.15429582
27	0xbe08013e	-0.13281724
28	0x3dc1cf00	0.0946331
29	0x3c9b7ce7	0.018980457
30	0x3d4c0e93	0.049818587
31	0x3e901575	0.2814137

encoder.epic.epic_proj.global_0.bias f4 [4]
0	0x3e21a9a6	0.15787372
1	0x3e79acf7	0.24382387
2	0x3d107f56	0.035277687
3	0x3e2ab29d	0.16669698

encoder.epic.epic_proj.global_0.weight_g f4 [4, 1]
0	0x3f094bb5	0.53631145
1	0x3f19c0aa	0.6005961
2	0x3ee7f166	0.4530136
3	0x3f06fa7c	0.5272596

encoder.epic.epic_proj.global_0.weight_v f4 [4, 12]
0	0xbc5eab09	-0.013590583
1	0x3e89b20c	0.2689365
2	0x3d648100	0.055787086
3	0x3ce129c8	0.027485743
4	0x3e484190	0.1955626
5	0x3de6a6e8	0.112623036
6	0x3e628122	0.22119573
7	0x3e892584	0.26786435
8	0xbc47afdd	-0.012187925
9	0xbe0a8df9	-0.13530721
10	0x3da8f050	0.08248961
11	0xbe475cc8	-0.19468987
12	0xbe2e72a9	-0.17035927
13	0x3de87065	0.113495626
14	0x3db48345	0.088141
15	0xbd932fc0	-0.07186842
16	0x3e149c39	0.14512719
17	0x3e72e6b5	0.2372082
18	0x3d19a4bc	0.03751062
19	0x3e69d4ff	0.22835158
20	0xbcf4f71c	-0.029902987
21	0x3e45148e	0.19246122
22	0xbe6eec7e	-0.23332402
23	0xbe5e507f	-0.21710394
24	0xbe8525f9	-0.26005533
25	0x3da8c229	0.08240158
26	0xbdb35cb2	-0.087579146
27	0xbcaf42cc	-0.021394156
28	0xbd87136b	-0.065955006
29	0xbdb36a81	-0.087605484
30	0xbe13f058	-0.14447153
31	0x3c67aa6b	0.014139752
32	0xbe616883	-0.22012524
33	0x3d87beb3	0.0662817
34	0xbd88d7a8	-0.06681758
35	0x3cf23f6c	0.029571258
36	0x3e4ae311	0.19813181
37	0xbe36b36a	-0.17841879
38	0x3e4efa37	0.20212637
39	0x3e7e42e5	0.24830206
40	0x3e79f0db	0.24408285
41	0x3ca68eda	0.020331789
42	0x3d44d2c3	0.04805256
43	0xbe28cb41	-0.16483785
44	0x3dcd4a54	0.100239426
45	0x3d11bf90	0.03558308
46	0xbdab6dd4	-0.083705574
47	0xbe1430c7	-0.14471732

encoder.epic.epic_proj.global_1.bias f4 [4]
0	0x3d58bf02	0.052916534
1	0x3ed6855e	0.41898626
2	0xbb979211	-0.004625567
3	0xbc15e25c	-0.009148207

encoder.epic.epic_proj.global_1.weight_g f4 [4, 1]
0	0x3f41e9cf	0.7574739
1	0x3ec172aa	0.37782794
2	0x3f0f287f	0.5592117
3	0x3ed80f53	0.4219919

encoder.epic.epic_proj.global_1.weight_v f4 [4, 4]
0	0x3e86f3a8	0.2635777
1	0xbefad161	-0.48987868
2	0xbee5d291	-0.44887212
3	0x3e95904d	0.29211655
4	0xbe027ef6	-0.12743744
5	0x3dec3d42	0.115351215
6	0x3bed087a	0.0072336765
7	0xbea90b7f	-0.33016583
8	0x3ea7e7a6	0.3279392
9	0xbecb3279	-0.39686945
10	0x3e846e16	0.2586524
11	0xbd2cdbbb	-0.04220174
12	0xbe274f7a	-0.16338912
13	0xbe24c0eb	-0.16089217
14	0xbd6b6010	-0.05746466
15	0x3ea962d9	0.33083227

encoder.epic.epic_proj.global_2.bias f4 [4]
0	0x3eda865c	0.42680633
1	0xbe84f7cb	-0.259703
2	0xbdad5de2	-0.08465172
3	0xbdc434ef	-0.09580409

encoder.epic.epic_proj.global_2.weight_g f4 [4, 1]
0	0x3f23e0cc	0.6401489
1	0x3efb3dd7	0.49070618
2	0x3f323099	0.69605404
3	0x3f20f87c	0.6287916

encoder.epic.epic_proj.global_2.weight_v f4 [4, 4]
0	0xbe9af4ff	-0.30265042
1	0x3e87de85	0.26536956
2	0x3ed3573e	0.41277498
3	0x3ea92cd9	0.3304203
4	0xbe940252	-0.2890802
5	0x3e5fb693	0.2184699
6	0x3e95645d	0.29178134
7	0xbe1cbca9	-0.15306343
8	0xbef545c2	-0.47904783
9	0x3e8caf82	0.27477652
10	0x3ecfcb57	0.40584823
11	0x3e56e273	0.20984821
12	0x3eaa80d5	0.33301416
13	0x3dcebfb8	0.10095161
14	0x3eac9126	0.3370449
15	0x3ed2f278	0.41200614

encoder.epic.epic_layers.0.fc_global1.bias f4 [4]
0	0x3deac8df	0.11464094
1	0xbe4709ee	-0.19437382
2	0xbe55f760	-0.20895147
3	0xbc8e69e7	-0.017384483

encoder.epic.epic_layers.0.fc_global1.weight_g f4 [4, 1]
0	0x3f0fbe49	0.5614973
1	0x3f193c36	0.598575
2	0x3f06ad7f	0.52608484
3	0x3f25e319	0.6479965

encoder.epic.epic_layers.0.fc_global1.weight_v f4 [4, 16]
0	0xbe05b361	-0.13056709
1	0xbd97d1bc	-0.074130505
2	0x3dcada95	0.099049725
3	0xbaf1c1d0	-0.0018444601
4	0xbe46fd45	-0.19432552
5	0xbda228cd	-0.079179384
6	0x3e173c1c	0.14769024
7	0xbcde0d9a	-0.027106095
8	0x3e28c6e9	0.16482128
9	0x3dcc1049	0.09964044
10	0x3e6ec793	0.23318319
11	0x3e2fc9d3	0.17166834
12	0xbe281da8	-0.16417563
13	0xbe4252d7	-0.18976913
14	0x3d1cfb24	0.038325444
15	0x3c2b1e35	0.010444214
16	0x3e4ac311	0.19800974
17	0x3e1dc9e7	0.15409051
18	0xbe5fd6e9	-0.21859325
19	0x3ca06914	0.019581355
20	0xbe59448d	-0.21217556
21	0xbe303a11	-0.1720965
22	0x3e460ff7	0.19342028
23	0xbcc03251	-0.023461493
24	0x3e4e5120	0.20148134
25	0x3db91fe2	0.09039284
26	0xbdd3f757	-0.10349911
27	0x3e53c862	0.20681909
28	0xbc84f1e8	-0.016228631
29	0x3e4291fd	0.19001003
30	0xbe152b17	-0.14567219
31	0xbe0d2f63	-0.13787608
32	0x3d8c8d6a	0.0686291
33	0xbd9f9dc6	-0.07793765
34	0x3d4122a5	0.04715218
35	0x3d98c26a	0.074589565
36	0xbd4e667d	-0.05039071
37	0xbdec888e	-0.11549483
38	0xbdf0e321	-0.117620714
39	0x3e551345	0.20808132
40	0xbdf9cc59	-0.12197179
41	0x3d9a0438	0.07520336
42	0x3e668296	0.22510752
43	0xbdbc2630	-0.09186971
44	0x3d8f9226	0.070102975
45	0xbcc8fa04	-0.02453328
46	0x3d98bab3	0.07457485
47	0xbe49a97b	-0.19693558
48	0xbc986496	-0.01860265
49	0xbd6a4a56	-0.0571998
50	0xbde655b3	-0.112468146
51	0xbe648292	-0.22315434
52	0x3e29ffd1	0.16601492
53	0xbe1f3e2d	-0.15551062
54	0xbe081b88	-0.13291752
55	0xbd85c4af	-0.06531655
56	0x3de2a4d2	0.11066593
57	0x3dfbe41c	0.12299368
58	0xbe0e0334	-0.1386841
59	0xbd4c395d	-0.049859393
60	0x3e65e660	0.22451162
61	0x3e1a0376	0.15040383
62	0xbe5f783e	-0.21823213
63	0x3de24e7a	0.110501245

encoder.epic.epic_layers.0.fc_global2.bias f4 [4]
0	0x3ee313db	0.44351086
1	0x3ee2e446	0.44314784
2	0x3ee09d8b	0.43870196
3	0x3dd34bb2	0.10317172

encoder.epic.epic_layers.0.fc_global2.weight_g f4 [4, 1]
0	0x3f299b54	0.66252637
1	0x3ea7b2b9	0.32753542
2	0x3f022086	0.50830877
3	0x3f154a5c	0.5831659

encoder.epic.epic_layers.0.fc_global2.weight_v f4 [4, 4]
0	0xbedd5178	-0.43226218
1	0x3e54f0e8	0.20795023
2	0xbed16bc6	-0.40902537
3	0xbe69dbd1	-0.2283776
4	0x3d9d1e11	0.0767175
5	0x3e03a333	0.12855224
6	0x3e136bce	0.14396593
7	0x3e83de00	0.2575531
8	0xbe42651b	-0.18983881
9	0x3e474d0f	0.1946299
10	0x3ed9498f	0.42438933
11	0x3d29bcdb	0.041439872
12	0xbf0095dd	-0.50228673
13	0xbcac22e9	-0.02101274
14	0xbeaa9087	-0.3331339
15	0x3d76a734	0.06021805

encoder.epic.epic_layers.0.fc_local1.bias f4 [4]
0	0xbe07138b	-0.13191049
1	0x3c721c20	0.014777213
2	0xbe4538b3	-0.1925991
3	0x3e3941f4	0.18091565

encoder.epic.epic_layers.0.fc_local1.weight_g f4 [4, 1]
0	0x3f128729	0.5723749
1	0x3efdd471	0.49576142
2	0x3f23d1be	0.63991916
3	0x3f1c82a9	0.6113687

encoder.epic.epic_layers.0.fc_local1.weight_v f4 [4, 12]
0	0x3e54c8dd	0.20779748
1	0x3dbdffe6	0.092773244
2	0x3e6b5699	0.22982253
3	0xbcfc0e05	-0.030768404
4	0x3e30ac3e	0.17253205
5	0xbc270972	-0.010195123
6	0x3d819b04	0.06328395
7	0x3e39f092	0.18158177
8	0xbe9593cc	-0.29214323
9	0xbd4c7dba	-0.04992459
10	0x3e2de744	0.16982752
11	0xbe68f69a	-0.22750321
12	0xbe047c8d	-0.12938137
13	0x3d347229	0.044054184
14	0x3e8b4bf8	0.27206397
15	0xbce5894b	-0.028019568
16	0xbe88aac4	-0.26692784
17	0xbdeb884a	-0.115006045
18	0x3bc240f3	0.0059281527
19	0xb9aeb1de	-0.00033320388
20	0xbe013d1c	-0.12620968
21	0xbd39f668	-0.045401007
22	0x3e0e2e9b	0.13884966
23	0xbe445c59	-0.19175853
24	0x3e844919	0.2583702
25	0x3e8480f5	0.25879636
26	0xbe69dbce	-0.22837755
27	0xbe260c07	-0.16215526
28	0xbe199bf4	-0.15000898
29	0xbd5182cb	-0.051150125
30	0xbe2f13f6	-0.17097458
31	0x3e344c12	0.17607144
32	0xbe462362	-0.19349435
33	0x3e0ec6e9	0.13943066
34	0x3d8737d9	0.06602449
35	0x3e64eede	0.22356746
36	0xbe1be441	-0.1522379
37	0xbe12d226	-0.14337978
38	0xbe6770da	-0.22601643
39	0xbd92b249	-0.071629114
40	0x3d9cd215	0.076572575
41	0xbe637730	-0.22213435
42	0xbdefea3a	-0.11714597
43	0xbd917181	-0.07101727
44	0x3e955741	0.29168132
45	0x3e20f4b0	0.15718341
46	0x3d2c3106	0.04203894
47	0x3e311d97	0.17296444

encoder.epic.epic_layers.0.fc_local2.bias f4 [4]
0	0x3ec846fb	0.39116654
1	0x3df68e22	0.120388284
2	0xbbdbd858	-0.00670914
3	0xbe8373da	-0.25674325

encoder.epic.epic_layers.0.fc_local2.weight_g f4 [4, 1]
0	0x3f16a4b3	0.5884506
1	0x3ed8b93c	0.42328823
2	0x3f004bb2	0.501155
3	0x3f3a3067	0.72730106

encoder.epic.epic_layers.0.fc_local2.weight_v f4 [4, 4]
0	0xbe19643b	-0.14979641
1	0x3ed99029	0.42492798
2	0xbd8b636e	-0.06806074
3	0xbeae33f7	-0.3402402
4	0x3e464866	0.19363555
5	0xbdca90c7	-0.09890895
6	0x3dbbf861	0.09178234
7	0xbea1cbad	-0.31600705
8	0x3e8e8f8f	0.27843902
9	0xbeb399fe	-0.35078424
10	0xbe115d1c	-0.14195675
11	0xbe07dfb5	-0.13268931
12	0xbd81786e	-0.06321798
13	0xbebccd65	-0.36875454
14	0xbecf730a	-0.40517455
15	0xbedee6fc	-0.43535602

encoder.epic.output_layer.bias f4 [3]
0	0xbead2d14	-0.33823454
1	0xbe64d8ed	-0.22348376
2	0x3e117ce3	0.14207797

encoder.epic.output_layer.weight_g f4 [3, 1]
0	0x3f089a38	0.5336032
1	0x3e8971fd	0.2684478
2	0x3f07687d	0.5289381

encoder.epic.output_layer.weight_v f4 [3, 4]
0	0x3ef47528	0.47745633
1	0x3e2b8750	0.16750836
2	0x3e485ffa	0.19567862
3	0x3e1043b8	0.14088333
4	0xbe0b3ccc	-0.13597411
5	0x3ce13cbf	0.027494786
6	0x3db7ec2d	0.08980594
7	0x3e765fc7	0.24059974
8	0xbe6e1c78	-0.23253047
9	0x3e6f62fd	0.23377605
10	0x3e59ba76	0.21262535
11	0x3ec98c3f	0.39364812

exp_avg f4 [4, 3]
0	0xbca22fce	-0.019798186
1	0x3ba57f30	0.0050505623
2	0xbd32bdae	-0.043637924
3	0x3b0d5893	0.0021567687
4	0xbc1cb2fb	-0.009564157
5	0x3cf2d015	0.029640237
6	0x3d7442cf	0.059634026
7	0xbb39eef5	-0.002837119
8	0x3cccd949	0.025005953
9	0xbdb31a48	-0.08745247
10	0x3cf1eec5	0.0295328
11	0xbd8e39c1	-0.069446094

exp_avg_sq f4 [4, 3]
0	0x3803144a	3.125173e-05
1	0x3703e2b6	7.860994e-06
2	0x389e1af4	7.5390475e-05
3	0x3648c2fc	2.9915818e-06
4	0x371199b3	8.678459e-06
5	0x384534c8	4.7017616e-05
6	0x38fd9388	0.0001209146
7	0x369b3e78	4.6266323e-06
8	0x37e66382	2.7464474e-05
9	0x3986c5c6	0.00025705824
10	0x38895724	6.5489e-05
11	0x3951ea2d	0.0002001903

exp_avg f4 [4]
0	0xbca05132	-0.019569967
1	0xbd6959d0	-0.056970417
2	0x3d3b3229	0.045702133
3	0x3d371d88	0.044705898

exp_avg_sq f4 [4]
0	0x3849adca	4.8083988e-05
1	0x39013f7c	0.00012326048
2	0x38c68e81	9.467919e-05
3	0x390cab4c	0.00013415253

exp_avg f4 [4]
0	0x3dbbeda0	0.09176183
1	0x3e7b6fd9	0.24554385
2	0x3e2af903	0.16696553
3	0x3c8becc0	0.017080665

exp_avg_sq f4 [4]
0	0x3a18b5fb	0.0005825457
1	0x3b1c77aa	0.0023875036
2	0x3abf3ce4	0.001459029
3	0x38109114	3.446739e-05

exp_avg f4 [4, 1]
0	0x3d6f2497	0.058384504
1	0x3d254ff1	0.04035944
2	0x3d17c4d2	0.037052937
3	0xbbb8324f	-0.0056212316

exp_avg_sq f4 [4, 1]
0	0x394ba75a	0.00019421932
1	0x390f328d	0.00013656374
2	0x3926ec65	0.00015919057
3	0x3614bd18	2.2163786e-06

exp_avg f4 [4, 8]
0	0x3d3ff99d	0.04686891
1	0x3dd2a777	0.10285848
2	0x3dae6b22	0.08516528
3	0xbce15a7b	-0.027508965
4	0xbda1b34c	-0.07895526
5	0x3dc98d73	0.098414324
6	0x3d8d1542	0.0688882
7	0x3d36190d	0.044457484
8	0x3e4d4675	0.20046408
9	0x3e59ecc6	0.21281728
10	0x3e07797c	0.13229936
11	0x3b803e9b	0.003913713
12	0xbd65bddf	-0.05608928
13	0x3de67a9c	0.11253855
14	0x3cff101b	0.03113561
15	0x3da51c35	0.08062021
16	0x3e1548ab	0.14578502
17	0x3e1b46e3	0.1516376
18	0x3d82a154	0.06378427
19	0xbc916748	-0.017749444
20	0xbc1cba8a	-0.009565959
21	0x3c7a3f46	0.015273875
22	0x3da76781	0.08174039
23	0x3c393b3b	0.011305626
24	0x3c422463	0.011849496
25	0x3c934b12	0.017980132
26	0x3b7b88cd	0.00383811
27	0xbacca1cc	-0.0015612184
28	0xbb1904a5	-0.0023348716
29	0xbc713cf9	-0.01472401
30	0x3c1456a6	0.009053862
31	0x3c588f39	0.013217741

exp_avg_sq f4 [4, 8]
0	0x3980b2b8	0.00024547218
1	0x3a3b52ab	0.00071458024
2	0x39b0ece7	0.00033745842
3	0x383510a5	4.3169264e-05
4	0x3976b9b0	0.00023529562
5	0x39cdad0d	0.0003922958
6	0x39a56226	0.0003154438
7	0x38c9665e	9.603494e-05
8	0x3add5f1e	0.0016889309
9	0x3adcc78c	0.0016844138
10	0x3a43eb16	0.000747369
11	0x353e9d19	7.1009123e-07
12	0x399ac7c4	0.00029522006
13	0x3a18d82d	0.00058305525
14	0x38efb4f9	0.00011430117
15	0x3982e8a5	0.00024968866
16	0x3a97f79c	0.0011594179
17	0x3a96bfd7	0.0011501265
18	0x39674b32	0.00022057889
19	0x3817455b	3.6065798e-05
20	0x38d533af	0.00010166258
21	0x38f7c9a5	0.00011815437
22	0x39e5aa79	0.00043805296
23	0x37229226	9.68998e-06
24	0x37968c0f	1.7946613e-05
25	0x381ace8f	3.6908834e-05
26	0x36a4e3d8	4.9141054e-06
27	0x343e3029	1.771265e-07
28	0x3723e0c0	9.767886e-06
29	0x373c007b	1.1205785e-05
30	0x36e70a06	6.8855034e-06
31	0x37d3ef95	2.5264724e-05

exp_avg f4 [4]
0	0x388789c0	6.4629596e-05
1	0xb88e82ca	-6.795449e-05
2	0x35812b68	9.623882e-07
3	0xb857e6ac	-5.1474824e-05

exp_avg_sq f4 [4]
0	0x32bf5d3d	2.2277726e-08
1	0x331bee1c	3.630531e-08
2	0x2acdd659	3.656405e-13
3	0x3095b7eb	1.089345e-09

exp_avg f4 [4, 1]
0	0x3a5f2f41	0.0008513816
1	0xba2efcc3	-0.00066752377
2	0xb6b639db	-5.430758e-06
3	0xb7e527ba	-2.7317426e-05

exp_avg_sq f4 [4, 1]
0	0x370017db	7.634949e-06
1	0x36cc9b35	6.0977422e-06
2	0x2e2ae1f3	3.8854208e-11
3	0x336cc160	5.5123905e-08

exp_avg f4 [4, 12]
0	0x379528ca	1.7781178e-05
1	0xb9c61af7	-0.00037785593
2	0xb8542f88	-5.0589006e-05
3	0xb8057b91	-3.182475e-05
4	0x37352c12	1.0798702e-05
5	0x3a4ac319	0.00077347603
6	0x3a5cd1b4	0.0008423582
7	0xb9ab92f7	-0.0003272516
8	0x385b7925	5.2326493e-05
9	0x3987cec9	0.00025903273
10	0xb896d66a	-7.192495e-05
11	0x3995ffab	0.00028609982
12	0xb961fec0	-0.00021552574
13	0x38f74192	0.00011790091
14	0x38ab8037	8.177797e-05
15	0xb8c2cbc1	-9.288593e-05
16	0xb977e904	-0.0002364256
17	0xba6b2cd3	-0.0008971218
18	0xbab5b6e6	-0.0013863712
19	0x394eeda7	0.00019734223
20	0xb8b921c5	-8.8277775e-05
21	0x392bd1c8	0.0001638598
22	0xb9aec626	-0.00033335498
23	0xb98a6d84	-0.00026403007
24	0xb6701da7	-3.5780047e-06
25	0x35c07c1e	1.4341238e-06
26	0xb5531ced	-7.864572e-07
27	0xb4a2df00	-3.0337105e-07
28	0xb3d54958	-9.9319266e-08
29	0x36b6707f	5.437119e-06
30	0x37282ef6	1.0024514e-05
31	0x3594c7c0	1.1084994e-06
32	0xb62235c4	-2.4171177e-06
33	0x360591dc	1.9903446e-06
34	0xb429b5dc	-1.5805512e-07
35	0x34f40025	4.5448647e-07
36	0x36ffa01c	7.6182314e-06
37	0xb7a6cec3	-1.9885023e-05
38	0xb73a7d71	-1.11156705e-05
39	0x37308a68	1.0522643e-05
40	0x3806f244	3.2173717e-05
41	0xb9187fa4	-0.000145434
42	0xb9b7d3a3	-0.00035062162
43	0xb80490ec	-3.160622e-05
44	0xb7e7a1c6	-2.7612678e-05
45	0xb8487443	-4.7791993e-05
46	0xb829a8fe	-4.0450126e-05
47	0xb6f3a687	-7.2613507e-06

exp_avg_sq f4 [4, 12]
0	0x3097520b	1.1010014e-09
1	0x35ce1d32	1.5356693e-06
2	0x32fee58a	2.9673874e-08
3	0x31dcff45	6.4318635e-09
4	0x34167aec	1.4014557e-07
5	0x3706fbd3	8.045655e-06
6	0x3690fda9	4.3210644e-06
7	0x35a1aae6	1.2045173e-06
8	0x328212db	1.5142566e-08
9	0x3520e4a3	5.9937355e-07
10	0x33ad23c7	8.062448e-08
11	0x35665b94	8.581494e-07
12	0x3528b608	6.284977e-07
13	0x34550a48	1.9840911e-07
14	0x33f8f9da	1.1593848e-07
15	0x3403c266	1.2271047e-07
16	0x35d0701f	1.5529839e-06
17	0x37518852	1.248911e-05
18	0x378c49de	1.6723698e-05
19	0x351beec0	5.8089427e-07
20	0x33db406c	1.02097005e-07
21	0x34ede272	4.430945e-07
22	0x35ac9d2a	1.2860739e-06
23	0x3577ff55	9.238623e-07
24	0x2d8a6a64	1.573603e-11
25	0x2c2dab5e	2.4679907e-12
26	0x2bc5fc56	1.4067729e-12
27	0x2a529ab5	1.8705422e-13
28	0x2cd05acb	5.9217956e-12
29	0x2eba6d5b	8.477726e-11
30	0x2ef5c8a5	1.1176952e-10
31	0x2bdc1721	1.563836e-12
32	0x2d204cd5	9.112007e-12
33	0x2c53ae55	3.0081677e-12
34	0x2b17a597	5.387578e-13
35	0x2abcf14e	3.3562947e-13
36	0x31d1c712	6.1053322e-09
37	0x31fcbbc6	7.3555126e-09
38	0x31ba162f	5.4158344e-09
39	0x323992da	1.08018074e-08
40	0x331dd9cb	3.6752493e-08
41	0x3502c072	4.870882e-07
42	0x34f3c2cd	4.5404013e-07
43	0x324c4662	1.1890366e-08
44	0x2fc68a51	3.611427e-10
45	0x2fe164c9	4.0998874e-10
46	0x313954c6	2.6969231e-09
47	0x3176d188	3.5916816e-09

exp_avg f4 [4]
0	0xb88032c3	-6.112971e-05
1	0x388e518c	6.786277e-05
2	0x399036af	0.00027506563
3	0xb613d552	-2.2028876e-06

exp_avg_sq f4 [4]
0	0x328b0901	1.6185824e-08
1	0x2fd0c04a	3.797161e-10
2	0x340e09d7	1.322836e-07
3	0x2d976c97	1.7214936e-11

exp_avg f4 [4, 1]
0	0xb5398e75	-6.912517e-07
1	0xb851c8ce	-5.0016497e-05
2	0x38a82275	8.0172824e-05
3	0x377caa4e	1.5060023e-05

exp_avg_sq f4 [4, 1]
0	0x313f09e8	2.779979e-09
1	0x2fb3250f	3.2586242e-10
2	0x33470171	4.633461e-08
3	0x2f32ebf5	1.6272834e-10

exp_avg f4 [4, 4]
0	0x3749fa46	1.2038805e-05
1	0x382d6a89	4.1345633e-05
2	0xb44ddab2	-1.9171674e-07
3	0x3851d90d	5.0031627e-05
4	0x38e6f427	0.000110127316
5	0x38f4a093	0.00011664736
6	0x33813c42	6.0179914e-08
7	0xb535021b	-6.743082e-07
8	0x3ab633d0	0.0013900939
9	0x3a90c69f	0.0011045522
10	0xb8376504	-4.3724678e-05
11	0x39f19de1	0.0004608473
12	0xb7fdd6bb	-3.0259942e-05
13	0xb8103a6a	-3.4386678e-05
14	0x36234358	2.4328092e-06
15	0xb804eaec	-3.169004e-05

exp_avg_sq f4 [4, 4]
0	0x35ef0c3d	1.781045e-06
1	0x3597971e	1.1294358e-06
2	0x301f5453	5.7963695e-10
3	0x349b1f4b	2.8893768e-07
4	0x30dc88f1	1.6046028e-09
5	0x31026e5e	1.8980226e-09
6	0x271b4ca2	2.1552114e-15
7	0x2c862878	3.813002e-12
8	0x374919f7	1.1986579e-05
9	0x3708124f	8.1104945e-06
10	0x3253cfe4	1.2329085e-08
11	0x3609c852	2.0531193e-06
12	0x309f1726	1.1575352e-09
13	0x30357b88	6.6022965e-10
14	0x2cbbda52	5.339098e-12
15	0x303f6070	6.962244e-10

exp_avg f4 [4]
0	0xba66a449	-0.0008798284
1	0x38cc5d38	9.7448414e-05
2	0x38d2054c	0.00010014567
3	0x390e8fcf	0.00013595748

exp_avg_sq f4 [4]
0	0x34eca39e	4.4077473e-07
1	0x302c1ddd	6.2615674e-10
2	0x32129e5d	8.534326e-09
3	0x34d3dd78	3.9462952e-07

exp_avg f4 [4, 1]
0	0x3852b4b8	5.023621e-05
1	0x334746ef	4.6397812e-08
2	0x36ee0c33	7.094373e-06
3	0x3803426b	3.129469e-05

exp_avg_sq f4 [4, 1]
0	0x3020c311	5.8484867e-10
1	0x2a0259aa	1.1577428e-13
2	0x2f4b5f71	1.849665e-10
3	0x3372848a	5.646556e-08

exp_avg f4 [4, 4]
0	0x3889fe3d	6.580025e-05
1	0x37a4163e	1.956068e-05
2	0x3819d487	3.6675974e-05
3	0xb6142174	-2.207319e-06
4	0xb4616e2e	-2.0994841e-07
5	0xb5adde26	-1.2954158e-06
6	0xb394a6f5	-6.9221564e-08
7	0xb5c9d35a	-1.5037178e-06
8	0x36dc6f5b	6.5694744e-06
9	0xb66f02ab	-3.5615328e-06
10	0x3744cdde	1.1730443e-05
11	0xb66fd21e	-3.573608e-06
12	0x37654812	1.3666244e-05
13	0xb6c1dfa5	-5.777884e-06
14	0x375e8ef9	1.326552e-05
15	0xb7b4eb05	-2.1567112e-05

exp_avg_sq f4 [4, 4]
0	0x324ec01b	1.2034458e-08
1	0x2f206eae	1.4591237e-10
2	0x320dd8a7	8.256541e-09
3	0x2f8b277d	2.531201e-10
4	0x2cfad2dc	7.1288375e-12
5	0x29ef068e	1.0614869e-13
6	0x2cc892f5	5.7006574e-12
7	0x2a14faae	1.3232013e-13
8	0x2fc8fa67	3.655771e-10
9	0x2e0eae0d	3.244165e-11
10	0x3048858a	7.2949347e-10
11	0x2dfae578	2.8523614e-11
12	0x32530638	1.228323e-08
13	0x30de28a1	1.6164173e-09
14	0x31fb4128	7.312469e-09
15	0x32d5430d	2.4826955e-08

exp_avg f4 [4]
0	0xba0eebc3	-0.00054520014
1	0x39a6d61a	0.00031821505
2	0x37f1623b	2.877518e-05
3	0x3801f756	3.0986346e-05

exp_avg_sq f4 [4]
0	0x3330cd09	4.116467e-08
1	0x32e8490f	2.7041578e-08
2	0x2e248b8d	3.741323e-11
3	0x2e66c5a3	5.2471482e-11

exp_avg f4 [4, 1]
0	0xb9cdc499	-0.00039247124
1	0x3979edf9	0.00023835142
2	0xb9b730b9	-0.0003494078
3	0xb97964dd	-0.00023784065

exp_avg_sq f4 [4, 1]
0	0x3293d40d	1.7209482e-08
1	0x332a02a8	3.9583625e-08
2	0x319b0a68	4.5122768e-09
3	0x3129f99d	2.4734625e-09

exp_avg f4 [4, 16]
0	0xb91366f9	-0.00014057373
1	0xb961493d	-0.00021484956
2	0xb91668fc	-0.00014344224
3	0xb77a8194	-1.4931331e-05
4	0xbadccdda	-0.0016846017
5	0xbbc17bdd	-0.005904658
6	0xbbf9e884	-0.007626595
7	0xba010fd3	-0.00049233175
8	0xb901a4cf	-0.00012363795
9	0x38a50e9c	7.870534e-05
10	0x393c1666	0.00017937421
11	0x3908eaa4	0.00013057381
12	0xb9f9d129	-0.00047648817
13	0xba3b5b28	-0.0007147067
14	0xb9d9eadc	-0.0004156445
15	0x36411d0e	2.8776153e-06
16	0xb83255f3	-4.2518554e-05
17	0x380e07d7	3.386274e-05
18	0x394ca039	0.00019514644
19	0x34a59950	3.0845194e-07
20	0x3acd6867	0.0015671373
21	0x3ba14e69	0.0049226773
22	0x3bcd6da0	0.006269172
23	0x39c28cf4	0.00037107582
24	0x387bf5dc	6.0072038e-05
25	0xb806e7a3	-3.2163818e-05
26	0x381b0154	3.6956117e-05
27	0xb894a265	-7.087438e-05
28	0x394dbce7	0.00019620695
29	0x397424a1	0.00023283299
30	0x39920d4f	0.00027857206
31	0x3856fda2	5.125779e-05
32	0x3881f02d	6.1959356e-05
33	0xb8634cdb	-5.4192595e-05
34	0x38486155	4.7774363e-05
35	0x38828418	6.2234874e-05
36	0x399743cc	0.00028851477
37	0x3a3bd2cc	0.0007164895
38	0x3a160ef8	0.00057242764
39	0x393f2a6f	0.00018230987
40	0xb8b7dcc3	-8.76724e-05
41	0x388337db	6.256971e-05
42	0x39424b0a	0.00018529236
43	0xb8a013a6	-7.633054e-05
44	0x38b709f5	8.727975e-05
45	0x3754836f	1.26667865e-05
46	0x3898ed89	7.292169e-05
47	0xb92a06ca	-0.00016214993
48	0xb698044d	-4.5304537e-06
49	0xb78643d2	-1.6005626e-05
50	0xb83b0d17	-4.4596465e-05
51	0xb8dd63f9	-0.000105567226
52	0x39d81c7e	0.0004121996
53	0x3a4812b6	0.00076321827
54	0x3a235128	0.000623005
55	0xb79e0e03	-1.8841592e-05
56	0x388d6a9d	6.743262e-05
57	0x3875846b	5.8535876e-05
58	0xb88a7961	-6.6029614e-05
59	0xb7cb6c0f	-2.4249804e-05
60	0x390fc4a6	0.000137108
61	0x38df4288	0.00010645861
62	0xb8bd3c42	-9.023446e-05
63	0x385ddb7b	5.2894913e-05

exp_avg_sq f4 [4, 16]
0	0x31183302	2.2147906e-09
1	0x31cce38a	5.9630496e-09
2	0x318fe80b	4.188228e-09
3	0x2e1efa7d	3.614752e-11
4	0x353e112e	7.0805515e-07
5	0x3707df3e	8.098605e-06
6	0x374a98a4	1.2075678e-05
7	0x33379e60	4.275205e-08
8	0x31a5504a	4.81126e-09
9	0x303cc2e3	6.867095e-10
10	0x31720eff	3.522416e-09
11	0x31071136	1.9654869e-09
12	0x32fe0d95	2.9575668e-08
13	0x3383f5d3	6.144878e-08
14	0x32bcc8d6	2.197741e-08
15	0x2c5f69c9	3.1748929e-12
16	0x311a9c11	2.2498663e-09
17	0x30489cb0	7.298224e-10
18	0x329009b5	1.676822e-08
19	0x2cc4fabd	5.5984926e-12
20	0x353575b5	6.759904e-07
21	0x36dd9ecb	6.604799e-06
22	0x371f8147	9.507238e-06
23	0x333fe8ab	4.4682263e-08
24	0x309e4775	1.1516322e-09
25	0x3035c3f6	6.6125894e-10
26	0x3081b904	9.43857e-10
27	0x31483abb	2.9137215e-09
28	0x32551a87	1.2404263e-08
29	0x324f667d	1.2072289e-08
30	0x32c7df4f	2.3268198e-08
31	0x30eb1379	1.7104035e-09
32	0x2f1e7aad	1.44136e-10
33	0x2ee85411	1.0565072e-10
34	0x2ec6b5c6	9.036287e-11
35	0x2f1e692d	1.4407382e-10
36	0x31673673	3.3645875e-09
37	0x32ab13a3	1.991595e-08
38	0x326302b9	1.3213758e-08
39	0x30ac1883	1.2521614e-09
40	0x2f9696bc	2.7391944e-10
41	0x2f1faae9	1.4521685e-10
42	0x30aa116e	1.2374082e-09
43	0x2f6baa6c	2.1433672e-10
44	0x2f9fe618	2.9085423e-10
45	0x2d53da75	1.2042469e-11
46	0x2f66bcca	2.098545e-10
47	0x308274e4	9.491967e-10
48	0x2bafa0ce	1.247913e-12
49	0x2d326df1	1.01425405e-11
50	0x2eaed8a1	7.951085e-11
51	0x2ffe18ca	4.6219945e-10
52	0x32101384	8.3863405e-09
53	0x32f9be60	2.9073988e-08
54	0x32a9bcc2	1.9760027e-08
55	0x2d891f25	1.5588928e-11
56	0x2f601e42	2.0383431e-10
57	0x2f20d5a1	1.4627811e-10
58	0x2f4b4895	1.8488529e-10
59	0x2dec6e36	2.6879037e-11
60	0x305f8bdd	8.1325685e-10
61	0x300bc503	5.0847876e-10
62	0x2fb2f4b5	3.2551886e-10
63	0x2f04536c	1.2034967e-10

exp_avg f4 [4]
0	0xba5e8d5f	-0.0008489694
1	0x3c200e79	0.009769076
2	0x3bb8e3ce	0.005642391
3	0x3b78294f	0.0037866419

exp_avg_sq f4 [4]
0	0x34e8d6e8	4.3369732e-07
1	0x36d2731c	6.271888e-06
2	0x363fb517	2.8566626e-06
3	0x362d0a28	2.578492e-06

exp_avg f4 [4, 1]
0	0xb9a8b2ce	-0.00032176677
1	0xb9ff117b	-0.00048650414
2	0xb9f2e48e	-0.00046328123
3	0x38e8294c	0.00011070314

exp_avg_sq f4 [4, 1]
0	0x32035cf1	7.646336e-09
1	0x32d9b657	2.5345043e-08
2	0x32102b28	8.391716e-09
3	0x3113f3f5	2.152999e-09

exp_avg f4 [4, 4]
0	0x39cb8149	0.00038815502
1	0x3a12289e	0.00055755104
2	0xb8d09afe	-9.9470824e-05
3	0xb82cf5d5	-4.1236945e-05
4	0x3a50a7b6	0.0007959561
5	0x389f5e74	7.599304e-05
6	0xb9b92109	-0.00035310563
7	0xb8bc017b	-8.964814e-05
8	0x39960da2	0.00028620387
9	0x39334f39	0.00017100283
10	0x388e02f6	6.771639e-05
11	0xb972eb16	-0.00023166495
12	0x389ab18a	7.3763615e-05
13	0xb8270199	-3.981739e-05
14	0xb90ee92a	-0.00013629036
15	0xb933370d	-0.00017091278

exp_avg_sq f4 [4, 4]
0	0x32abf9ec	2.0020671e-08
1	0x33154bd8	3.4760745e-08
2	0x3136bef9	2.659304e-09
3	0x309b1978	1.1284973e-09
4	0x339d4d52	7.324947e-08
5	0x3328eeaf	3.933263e-08
6	0x3262dbf4	1.3204943e-08
7	0x3279465f	1.4509708e-08
8	0x3303db46	3.0700242e-08
9	0x331eca14	3.697103e-08
10	0x3155177b	3.1008927e-09
11	0x3186a197	3.918284e-09
12	0x30658dda	8.35113e-10
13	0x326b72db	1.3704915e-08
14	0x3139dbfa	2.7046085e-09
15	0x317ef1c8	3.7099301e-09

exp_avg f4 [4]
0	0x3c137f29	0.009002485
1	0xbb367d0f	-0.0027845537
2	0xb824f5ac	-3.9329447e-05
3	0xbd20c13f	-0.039246794

exp_avg_sq f4 [4]
0	0x37f4b6a1	2.917211e-05
1	0x3494d075	2.771882e-07
2	0x2fd65526	3.8986875e-10
3	0x38d7e5fc	0.00010294837

exp_avg f4 [4, 1]
0	0x3adf955e	0.0017058065
1	0xb8901c1f	-6.871693e-05
2	0xb7f8caf8	-2.9658418e-05
3	0xbc840814	-0.016117133

exp_avg_sq f4 [4, 1]
0	0x36822fe5	3.8798776e-06
1	0x31450272	2.8668663e-09
2	0x2e5313e4	4.7993512e-11
3	0x371d6f4b	9.383842e-06

exp_avg f4 [4, 12]
0	0xbbbbca19	-0.005730879
1	0x3abc5983	0.0014369938
2	0x3bb52328	0.0055278726
3	0x3a01a4bf	0.00049455086
4	0x3bdb8300	0.006698966
5	0x3b893908	0.004187707
6	0x3b5af6b8	0.0033411216
7	0x390f08de	0.00013640846
8	0x3be498fe	0.006976246
9	0x3c134af2	0.008990036
10	0x3bb1c40a	0.005424981
11	0x3a38f77b	0.00070559204
12	0x386e5705	5.6824665e-05
13	0xb8c2e62c	-9.293514e-05
14	0xbb44cf04	-0.0030030617
15	0xba3d7d8f	-0.00072284875
16	0xbb07fe8d	-0.002075109
17	0xbab3be05	-0.0013713246
18	0xba889a8d	-0.0010422036
19	0xb8a950d2	-8.073602e-05
20	0xbaed1e83	-0.0018090758
21	0xbb347e97	-0.0027541274
22	0xbb030bd5	-0.0019996066
23	0xb84ddc52	-4.9080998e-05
24	0xb80f96b4	-3.423421e-05
25	0xb6d973b2	-6.4805727e-06
26	0x37513d4e	1.2471644e-05
27	0xb5c24247	-1.4473416e-06
28	0xb81764d6	-3.6095116e-05
29	0xb79f7234	-1.9007457e-05
30	0xb7ace08b	-2.0608559e-05
31	0x36ba4adf	5.551948e-06
32	0xb8042a1e	-3.1510477e-05
33	0xb809e1cf	-3.2873646e-05
34	0xb7e28555	-2.7003387e-05
35	0x37285b98	1.0034906e-05
36	0xbc7ea5a3	-0.015542421
37	0xbc8a5f88	-0.016891256
38	0xbc3c5366	-0.011494493
39	0x38a16b1e	7.6970304e-05
40	0xbd0d5d8d	-0.034513045
41	0xbccbf56d	-0.024897302
42	0xbca841e3	-0.02053923
43	0xbbe6e450	-0.00704626
44	0xbcdfb224	-0.027306624
45	0xbd19b917	-0.03753003
46	0xbc84ff11	-0.016234906
47	0x3bab0308	0.005218867

exp_avg_sq f4 [4, 12]
0	0x35aace81	1.2726088e-06
1	0x361ca7a1	2.3343384e-06
2	0x3637cc1f	2.738794e-06
3	0x334f100b	4.8210534e-08
4	0x379ae54c	1.8465005e-05
5	0x36cf7464	6.1826304e-06
6	0x3698f080	4.557951e-06
7	0x33bd6de1	8.820985e-08
8	0x37e3409c	2.7090595e-05
9	0x37fc0b82	3.00461e-05
10	0x36bc2426	5.607045e-06
11	0x35160e08	5.589977e-07
12	0x2fa61c57	3.021536e-10
13	0x309311da	1.0700731e-09
14	0x34bd5420	3.5265202e-07
15	0x32c05e70	2.2394687e-08
16	0x342a3279	1.5850846e-07
17	0x339bc517	7.2536004e-08
18	0x332b27e5	3.9850324e-08
19	0x300fc96a	5.2309324e-10
20	0x33fddab9	1.1821016e-07
21	0x34921362	2.7208722e-07
22	0x341b551c	1.4466463e-07
23	0x300af89e	5.0557414e-10
24	0x2f39f9ac	1.6914353e-10
25	0x2e75ed6b	5.591742e-11
26	0x2d84a168	1.5078341e-11
27	0x2bcc9be9	1.4538346e-12
28	0x2fb1ca04	3.2339653e-10
29	0x2eb48625	8.209281e-11
30	0x2ebbde5e	8.543276e-11
31	0x2d2b0351	9.720961e-12
32	0x2f66b1dd	2.0981568e-10
33	0x2fc52a0e	3.5863973e-10
34	0x2f4d1fc2	1.8655924e-10
35	0x2cbfcb73	5.451134e-12
36	0x37410299	1.1504301e-05
37	0x379c7a9a	1.865374e-05
38	0x3782debb	1.5600925e-05
39	0x340f9fa0	1.3375984e-07
40	0x38b17112	8.461079e-05
41	0x3811edb2	3.4792065e-05
42	0x37dd0ec0	2.6352121e-05
43	0x36698719	3.4798343e-06
44	0x3876792c	5.876382e-05
45	0x38ccd275	9.766679e-05
46	0x37a4d486	1.9649287e-05
47	0x35824dcb	9.708396e-07

exp_avg f4 [4]
0	0xbcaafe43	-0.020873195
1	0x3ddca04d	0.107727624
2	0x3d9d0927	0.07667761
3	0x3a00a1dc	0.00049069314

exp_avg_sq f4 [4]
0	0x38c3bc09	9.333349e-05
1	0x39f707e8	0.00047117402
2	0x3996dc65	0.00028774436
3	0x33ba81e4	8.684927e-08

exp_avg f4 [4, 1]
0	0x3b237c3e	0.002494588
1	0xbd0b260e	-0.03397184
2	0xbc063c20	-0.008193046
3	0xb94c10d6	-0.00019461228

exp_avg_sq f4 [4, 1]
0	0x368f1694	4.2643605e-06
1	0x380a56bf	3.2982553e-05
2	0x36046832	1.9730182e-06
3	0x310c25de	2.0394206e-09

exp_avg f4 [4, 4]
0	0x3acb718a	0.0015521508
1	0xbb2d84ab	-0.0026476781
2	0x3a016414	0.0004935872
3	0xbb85354b	-0.004065191
4	0x3c9531b6	0.01821218
5	0xbc1ee26d	-0.009697539
6	0x3c05b3fa	0.008160586
7	0x3c8a19ad	0.016857946
8	0x3b8e902f	0.004350684
9	0xbbd36bf3	-0.0064520775
10	0xbb3321c9	-0.002733337
11	0x3cf30da0	0.029669583
12	0xb94f3957	-0.00019762419
13	0xb94b8e15	-0.00019412518
14	0xb8f29e77	-0.000115689756
15	0x399f00be	0.00030327396

exp_avg_sq f4 [4, 4]
0	0x34f7d31c	4.6160937e-07
1	0x3624e0dd	2.4568792e-06
2	0x33bfcb83	8.931149e-08
3	0x36995d5d	4.5706242e-06
4	0x376016de	1.3356765e-05
5	0x363cc678	2.8129707e-06
6	0x3602d5b3	1.94959e-06
7	0x373a51c2	1.11055e-05
8	0x35d842a4	1.6112649e-06
9	0x35a07323	1.1954438e-06
10	0x346a95ec	2.184749e-07
11	0x38036abe	3.1332245e-05
12	0x32280a18	9.781182e-09
13	0x30ce7284	1.502102e-09
14	0x305a8329	7.949433e-10
15	0x3159fd82	3.1721759e-09

exp_avg f4 [3]
0	0x3db9bbbf	0.09069013
1	0xbe7a172d	-0.24422903
2	0x3ed87e97	0.4228408

exp_avg_sq f4 [3]
0	0x3a6b2b63	0.00089710037
1	0x3b144c84	0.0022628615
2	0x3bc69e0e	0.006061322

exp_avg f4 [3, 1]
0	0x3daaa3a7	0.083319955
1	0xbaf30943	-0.0018542189
2	0x3e261c44	0.1622172

exp_avg_sq f4 [3, 1]
0	0x3a851a4e	0.0010154934
1	0x38be59e7	9.0766516e-05
2	0x3a910805	0.0011065012

exp_avg f4 [3, 4]
0	0x3cb9f17a	0.022698153
1	0x3cc831d7	0.024437828
2	0xbd648003	-0.055786144
3	0xbcf37dbc	-0.02972304
4	0xbe019eeb	-0.12658279
5	0xbe0f665f	-0.14003895
6	0xbe20d01d	-0.15704389
7	0xb8887119	-6.5060514e-05
8	0x3e4a3a2a	0.1974875
9	0x3e2dd354	0.16975147
10	0x3e603e06	0.2189866
11	0xbdd89214	-0.10574737

exp_avg_sq f4 [3, 4]
0	0x38211150	3.8401515e-05
1	0x391faf7f	0.00015228799
2	0x3939a280	0.00017703511
3	0x3896a7c8	7.183809e-05
4	0x3a2f17f1	0.0006679288
5	0x3a889915	0.0010421599
6	0x3a88d4c8	0.001043939
7	0x3831ad5a	4.2361535e-05
8	0x3b0069ad	0.0019594238
9	0x3aad6b9f	0.0013230926
10	0x3aeb9718	0.0017974107
11	0x39f11b6a	0.00045987527
